corai/tests/pytorch_light/model_hp_opt/epoch=259-step=259.ckpt (torch, 109847 bytes, 21 tensors)

model._layers.0.weight f4 [32, 1]
-0.60162276 -0.036179837 0.36306188 0.8291309 -1.0291961 0.92153794 0.84713876 0.1991366
1.338723 -0.5467734 -1.6519536 -0.9186149 -0.72919655 -1.383276 0.9934901 -1.015945
-0.47907093 0.8092031 -0.45707238 0.9201245 -1.301335 -0.45871046 -1.3790188 0.33894855
-0.5491802 0.9942438 -0.6681883 -0.38841608 -0.5906836 -0.24598518 -0.91214585 0.6861125
00000000: f303 1abf 4f31 14bd 3fe3 b93e ec41 543f
00000010: b3bc 83bf e9e9 6b3f 16de 583f 77ea 4b3e
00000020: 465b ab3f 57f9 0bbf 3773 d3bf 592a 6bbf
00000030: a0ac 3abf 300f b1bf 5e55 7e3f 7c0a 82bf
00000040: c948 f5be ef27 4f3f 6405 eabe 478d 6b3f
00000050: 2592 a6bf 19dc eabe b083 b0bf aa8a ad3e
00000060: 1397 0cbf c386 7e3f 630e 2bbf 79de c6be
00000070: 0a37 17bf 8ae3 7bbe 6482 69bf 12a5 2f3f

model._layers.0.bias f4 [32]
-0.65157455 0.4582464 -0.19127813 0.7511247 -0.17967184 0.75084424 0.5081801 0.19659264
-0.03958415 -0.038543068 -0.22716166 0.033293325 -0.54829806 -0.6153803 0.9280538 -0.80986816
-0.21864946 0.5755335 -0.16426094 0.7923436 -0.8171669 -0.55782926 -0.40757704 0.33232304
-0.78347427 0.8976066 -0.2277657 -0.485985 -0.40598103 -0.39596492 0.07602778 0.3679693
00000000: 97cd 26bf 469f ea3e 6ade 43be b549 403f
00000010: e5fb 37be 5437 403f 1718 023f 954f 493e
00000020: fd22 22bd 56df 1dbd 119d 68be 955e 083d
00000030: 435d 0cbf 9089 1dbf ef94 6d3f 8553 4fbf
00000040: a5e5 5fbe 2a56 133f 0534 28be 08d7 4a3f
00000050: da31 51bf e6cd 0ebf f0ad d0be 3f26 aa3e
00000060: c591 48bf 8cc9 653f 693b 69be 07d3 f8be
00000070: bfdc cfbe eabb cabe 74b4 9b3d 7966 bc3e

model._layers.1.weight f4 [128, 32]
-0.16730238 -0.32030198 0.63807476 0.30507457 -0.34747234 0.08151387 0.3235145 0.23614432
0.8928721 -0.7627603 -0.3398436 -0.5200584 -0.20463437 -0.8767123 0.12060164 -0.07340193
0.442897 0.48140305 -0.39725998 0.25722277 -0.45854756 0.9206916 -0.74012595 0.16587073
-0.13984007 0.2683583 -0.34013164 0.5363652 -0.67691743 0.4009526 -0.7027044 0.24110153
-0.8478611 -0.6978911 0.77187437 0.18472882 -0.6919447 0.78446543 0.70020086 0.3517327
0.47879645 -0.69923884 -0.21391667 -0.34787548 -0.62171745 -0.16933614 0.3963591 -0.5796901
0.3893469 0.92304826 -0.78054994 0.3753707 -0.5605409 -0.61067253 -0.6293463 0.7030433
-0.56962806 0.26624176 -0.74519575 -0.82914424 -0.7860745 0.3663718 -0.17348589 0.55144376
-0.667893 -0.4495249 1.0111024 0.63398415 -0.52714217 0.49207133 0.4403074 0.29577264
0.81980544 -0.49874574 -1.1073489 -0.84496003 -0.82923734 -0.5987233 0.8991536 -0.5793156
0.87367296 0.740757 -0.467035 0.5348728 -0.45190534 -0.4778264 -1.0169305 0.74341595
-0.7147955 0.8142068 -0.7915286 -0.3273941 -0.6530152 0.8943474 -1.0988299 0.6527484
-0.62035495 -0.64589494 0.6800152 0.8321119 -0.64564836 0.65798235 0.7971478 0.7945204
0.5459359 -1.1514477 -0.901379 -0.70332164 -1.0973755 -0.5882052 0.672882 -0.45223564
0.7511077 0.67340666 -1.0176109 0.4009229 -0.452148 -0.033849344 -0.45348126 0.45518324
-0.59894425 0.33430278 -0.5975237 0.03311269 -1.0397685 0.7210452 -1.0952059 0.7696173
-0.54829836 0.4207282 -0.33886167 0.49886766 0.16640566 0.4765171 0.56409127 -0.034753025
-0.03310885 0.17604704 0.01382244 -0.3072219 -0.943678 0.12116505 0.56569076 -0.44627932
-0.3478597 0.85581875 -0.00802154 0.42935878 -0.52089816 -0.37469494 -0.38411966 0.24502683
-0.20284024 0.5664387 0.172123 -0.22706519 -0.36789647 -0.04288003 0.3492798 0.77991074
0.5956383 0.5836091 -0.5415318 -1.0774425 0.70830417 -0.4997955 -0.6152818 -0.34274402
-0.7759446 1.0232368 0.75878364 0.53649795 0.8980696 0.71758926 -0.52669215 0.92357695
-0.94276035 -0.7164015 0.9723813 -0.69100064 0.8373015 0.505066 0.488393 -0.4200551
0.46340775 -0.9694494 0.4926691 0.021950565 0.6973509 -0.8529695 0.67683315 -0.92748106
-0.39855418 -0.5318771 0.70552874 0.32587165 -0.5977099 0.5033314 0.5813626 0.9845137
0.97003853 -0.79672927 -0.76403576 -0.5464562 -0.86374646 -0.62504387 0.58592045 -0.5096199
0.60602313 0.5667329 -0.4690937 0.78914976 -0.79759264 0.24177644 -0.4608767 0.12644334
-0.3148053 0.63012445 -0.8581291 0.5998256 -0.6965502 0.8702386 -0.4766683 0.81407505
-0.3673788 -0.7174029 0.73276854 0.61873627 -0.5263046 0.7153341 0.6970226 0.34273806
0.757042 -0.75289017 -0.21431325 -0.5965522 -0.45110133 -0.81476307 0.6863419 -0.7039041
0.37067297 0.6049314 -0.881896 0.24325044 -0.24995135 -0.71303535 -0.7181428 0.84155947
-0.4429618 0.30806404 -0.4238718 -0.42440045 -0.3544258 0.31683144 -0.76361305 0.7501525
00000000: 5151 2bbe 9ffe a3be de58 233f bc32 9c3e
00000010: e5e7 b1be bef0 a63d b1a3 a53e d1cf 713e
00000020: 4493 643f 4244 43bf fbff adbe 8c22 05bf
00000030: ac8b 51be 3870 60bf fefd f63d c053 96bd
00000040: 65c3 e23e 767a f63e a965 cbbe b4b2 833e
00000050: bfc6 eabe 72b2 6b3f e578 3dbf 04da 293e
00000060: 3c32 0fbe 4266 893e bc25 aebe 3b4f 093f
00000070: 764a 2dbf a949 cd3e 70e4 33bf 52e3 763e
00000080: 6d0d 59bf fea8 32bf 8f99 453f 8d29 3d3e
00000090: 4a23 31bf bad2 483f 5d40 333f 4f16 b43e
000000a0: cf24 f53e 5101 33bf f90c 5bbe bc1c b2be
000000b0: e028 1fbf 7466 2dbe 94ef ca3e 9266 14bf
000000c0: 7a58 c73e e44c 6c3f 1fd2 47bf 9730 c03e
000000d0: 9c7f 0fbf 0955 1cbf d71c 21bf a5fa 333f
000000e0: 25d3 11bf d750 883e 26c5 3ebf cc42 54bf
000000f0: 2e3c 49bf 1695 bb3e 49a6 31be 6b2b 0d3f
00000100: 09fb 2abf 2128 e6be ce6b 813f c94c 223f
00000110: caf2 06bf c6f0 fb3e f96f e13e 836f 973e
00000120: c5de 513f 9a5b ffbe 9cbd 8dbf 4d4f 58bf
00000130: e648 54bf ee45 19bf ee2e 663f 074e 14bf
00000140: 08a9 5f3f 40a2 3d3f 361f efbe 6ced 083f
00000150: 2360 e7be a9a5 f4be c72a 82bf 8250 3e3f
00000160: d6fc 36bf db6f 503f 9ea1 4abf 33a0 a7be
00000170: 012c 27bf f4f3 643f 75a6 8cbf 851a 273f
00000180: 95cf 1ebf 5f59 25bf 7a15 2e3f 4905 553f
00000190: 3649 25bf 8871 283f e111 4c3f b065 4b3f
000001a0: 75c2 0b3f a362 93bf c6c0 66bf e30c 34bf
000001b0: cd76 8cbf 9e94 16bf ff41 2c3f 6e8b e7be
000001c0: 9848 403f 6164 2c3f 1341 82bf c445 cd3e
000001d0: f17f e7be 9ca5 0abd b22e e8be c70d e93e
000001e0: 6954 19bf bc29 ab3e 50f7 18bf 2ca1 073d
000001f0: 2217 85bf 6b96 383f b52f 8cbf a405 453f
00000200: 485d 0cbf b069 d73e 477f adbe 956b ff3e
00000210: 3f66 2a3e 0dfa f33e 4968 103f 3059 0ebd
00000220: 259d 07bd ad45 343e 8477 623c 304c 9dbe
00000230: e294 71bf 6225 f83d 1cd1 103f b97e e4be
00000240: ab1a b2be f016 5b3f c76c 03bc ead4 db3e
00000250: 9559 05bf 04d8 bfbe 55ab c4be 50e8 7a3e
00000260: 5ab5 4fbe 2002 113f 0341 303e c783 68be
00000270: ed5c bcbe f8a2 2fbd cdd4 b23e 3ba8 473f
00000280: c07b 183f 6867 153f d4a1 0abf a3e9 89bf
00000290: 6c53 353f 32e5 ffbe 1c83 1dbf 257c afbe
000002a0: 4ea4 46bf 6cf9 823f a53f 423f ee57 093f
000002b0: e4e7 653f eeb3 373f 4cd5 06bf 8a6f 6c3f
000002c0: be58 71bf 1766 37bf fbed 783f 6be5 30bf
000002d0: 6459 563f 014c 013f a60e fa3e 7611 d7be
000002e0: c843 ed3e d62d 78bf 203f fc3e acd1 b33c
000002f0: 9785 323f 365c 5abf f044 2d3f 666f 6dbf
00000300: 4b0f ccbe 1929 08bf 889d 343f a6d8 a63e
00000310: 8403 19bf 54da 003f 2ed4 143f 1709 7c3f
00000320: 7254 783f 73f6 4bbf d997 43bf 8ee4 0bbf
00000330: 7d1e 5dbf e002 20bf e2fe 153f 7376 02bf
00000340: 5524 1b3f 6815 113f 0d2d f0be b805 4a3f
00000350: 082f 4cbf 3e94 773e 08f8 ebbe 5d7a 013e
00000360: 292e a1be d64f 213f 59ae 5bbf 2c8e 193f
00000370: 1d51 32bf f5c7 5e3f de0d f4be 3967 503f
00000380: 1319 bcbe b7a7 37bf b896 3b3f 8065 1e3f
00000390: e6bb 06bf 2320 373f 1370 323f 5d7b af3e
000003a0: 81cd 413f 69bd 40bf ef74 5bbe a5b7 18bf
000003b0: c1f6 e6be 5094 50bf 1ab4 2f3f 0f33 34bf
000003c0: d9c8 bd3e c9dc 1a3f f0c3 61bf a516 793e
000003d0: 3ff3 7fbe 7c89 36bf 35d8 37bf 7170 573f
000003e0: e4cb e2be 92ba 9d3e b905 d9be 044b d9be
000003f0: 4c77 b5be bb37 a23e 257c 43bf ff09 403f

model._layers.1.bias f4 [128]
0.5198939 0.3100179 0.7128305 0.6181616 0.13855764 -0.7774019 0.6111315 0.48707214
-0.47127944 -0.7474468 0.6121949 -0.3663956 -0.42132097 0.5512606 0.6270278 0.23923226
-0.44986963 0.021275183 -0.76050013 0.19862388 -0.55583286 -0.6737198 -0.2030769 0.79452956
-0.12093033 -0.8134101 -0.6709006 0.73988795 -0.640396 -0.22806394 0.8042701 0.3571328
-0.31875405 0.58515525 -0.13424236 -0.6537295 0.7367977 0.5984997 0.7556285 -0.36879638
-0.6510012 0.046153083 -0.76690733 -0.2586343 0.062295258 0.5824465 -0.06740481 -0.02603896
-0.34666744 0.19927222 0.6348462 -0.2653763 0.18336384 0.45339674 0.55148137 -0.7789853
-0.7503721 0.6593826 -0.6255803 0.735681 -0.55753255 -0.14074364 0.791848 0.6548536
0.73118955 -0.7631251 0.6133172 0.45291832 -0.6694099 -0.4226842 -0.42544994 -0.38658974
-0.60897845 -0.1158473 0.5808656 0.058183253 0.791722 0.6789164 0.7420208 0.21574084
0.766763 0.723572 0.50687724 -0.5147024 0.21063589 -0.72400844 0.4368875 -0.19129154
-0.748457 0.08412944 0.7861264 0.67480344 0.7755924 -0.27506545 -0.49789092 0.753782
0.44817013 -0.41721013 -0.7983207 0.4612855 -0.73075074 -0.7451519 0.6117476 0.6490697
0.5539288 -0.635238 0.64048517 -0.49091583 0.78229696 0.36871395 0.5771303 -0.7204675
0.7983981 0.42771307 -0.6056388 0.67024094 0.74193096 0.6215751 0.20306274 -0.63683134
0.69232154 0.067274265 0.28363416 0.3770103 -0.13825624 0.43142888 -0.59419894 -0.84027874
00000000: c417 053f abba 9e3e 0f7c 363f d73f 1e3f
00000010: 0ee2 0d3e d003 47bf 1d73 1c3f 8561 f93e
00000020: 8a4b f1be ac58 3fbf ceb8 1c3f 3498 bbbe
00000030: 62b7 d7be 6a1f 0d3f e584 203f 4df9 743e
00000040: 5055 e6be 4b49 ae3c 23b0 42bf 0f64 4b3e
00000050: 104b 0ebf e778 2cbf 64f3 4fbe 4a66 4b3f
00000060: 52aa f7bd a53b 50bf 24c0 2bbf 4c69 3d3f
00000070: fef0 23bf 9889 69be a5e4 4d3f 1cda b63e
00000080: bb33 a3be bccc 153f d476 09be d15a 27bf
00000090: c69e 3c3f 4737 193f df70 413f e1d2 bcbe
000000a0: 04a8 26bf 040b 3d3d 0a54 44bf b76b 84be
000000b0: 5029 7f3d 371b 153f 880b 8abd a84f d5bc
000000c0: 657e b1be 040e 4c3e 4885 223f 67df 87be
000000d0: bbc3 3b3e 9e23 e83e e22d 0d3f 956b 47bf
000000e0: 6318 40bf 4ccd 283f 0826 20bf 9755 3c3f
000000f0: 74ba 0ebf 1a1f 10be 8db6 4a3f 7ca4 273f
00000100: 3d2f 3b3f 2b5c 43bf 5b02 1d3f e9e4 e73e
00000110: 725e 2bbf 106a d8be 93d4 d9be 17ef c5be
00000120: 03e6 1bbf 5941 edbd 9cb3 143f 9051 6e3d
00000130: 4bae 4a3f 77cd 2d3f 13f5 3d3f 2beb 5c3e
00000140: 944a 443f 043c 393f b5c2 013f 89c3 03bf
00000150: efb0 573e 9e58 39bf b8af df3e eee1 43be
00000160: e19a 3fbf 0e4c ac3d 943f 493f ebbf 2c3f
00000170: 398d 463f 61d5 8cbe 8feb febe dbf7 403f
00000180: 8e76 e53e 919c d5be bf5e 4cbf 9d2d ec3e
00000190: 7b12 3bbf 46c2 3ebf 7e9b 1c3f 6f29 263f
000001a0: 47ce 0d3f f59e 22bf d6f6 233f 5259 fbbe
000001b0: 9d44 483f 13c8 bc3e d0be 133f 8f70 38bf
000001c0: d163 4c3f 35fd da3e 250b 1bbf e994 2b3f
000001d0: 30ef 3d3f 8c1f 1f3f aeef 4f3e 6107 23bf
000001e0: fc3b 313f 17c7 893d 7f38 913e 7e07 c13e
000001f0: 0b93 0dbe 3fe4 dc3e 6c1d 18bf 821c 57bf

model._layers.2.weight f4 [32, 128]
0.12647857 1.0148026 0.049499527 0.056712355 0.9544542 0.19363983 -0.1115398 0.49426162
-0.70307195 -0.44944274 -0.037697267 -0.14703193 -0.89456296 0.7701052 0.2918765 0.7398558
-0.93926823 -0.95689803 -0.2936023 0.83573246 -1.0123686 -0.061215483 -0.90612286 -0.13463517
-0.19862363 0.19136819 -0.032692455 0.08148973 -0.06575995 -0.63277835 0.24537523 0.88770115
-0.79809237 0.83173954 0.79256254 0.021302829 -0.04539777 0.25715795 0.061910186 -0.8265684
0.13255864 -0.9652636 -0.050027546 -0.79808295 0.80160165 0.52466804 -0.7241003 -0.8124747
-1.0961512 0.96429247 -0.19193812 0.49269557 0.9308891 0.35202047 0.95646346 -0.23719029
-0.42913228 0.038295396 0.35860175 0.19013228 0.42480376 -0.5078211 0.54242164 0.08533007
-0.42099607 -0.18927774 0.44987965 1.0837106 0.07062028 -1.0326368 -0.42625183 -0.5619194
-0.11987274 -0.8638705 -0.31713843 0.96866244 -0.12597042 -0.22092204 -0.111759536 0.6096053
0.09163243 0.24923569 1.0260341 -0.91204935 0.6288278 -0.59902394 0.57920593 -1.0382268
-0.31404167 0.60649276 0.3241294 0.9805829 0.23438677 -0.6640885 -0.72586036 -0.27191412
1.0509537 -0.4952281 -0.36114898 0.87039995 -0.42991322 -0.49342132 0.036924023 0.08177926
0.9959051 -0.04274029 -0.1266067 -0.6354041 0.0646814 0.78729224 0.31761277 0.15195316
0.13288103 -0.12777792 -0.06820647 0.23798425 -0.21331406 0.15832281 0.8939389 -0.064249985
0.20998052 1.0611829 0.8862027 0.7132396 -0.6553421 0.8534714 -0.45477107 -0.21501428
-0.662262 0.9517142 -0.091767214 -0.6943294 0.9429902 0.4222794 -0.5740671 0.704949
-1.0933243 -0.2920081 -0.68765384 0.24094129 -0.5092476 0.8632992 -0.22739136 0.74717975
-0.60621005 -0.7119909 0.36587307 0.664433 -0.57412446 0.4130763 -0.73048353 -0.30868027
0.45181683 0.5237729 0.39833918 -0.31776595 0.4056892 -0.90598905 -0.42980477 0.99779457
-0.5240746 0.9297608 0.5919636 0.22374497 -0.2381301 -0.6935618 -0.26037404 -0.5092212
0.080804706 -0.5693261 0.09251397 -0.7252428 0.80841607 0.9853325 -0.8260748 -0.38184732
-0.96402043 0.8376925 -0.42261067 0.6628543 0.69149476 0.6625479 0.5800945 0.10264629
0.4290206 0.32427302 0.6435702 -0.23658572 0.29832587 -0.74069154 -0.4448095 -0.51404727
-0.32561433 0.34067506 -0.13699418 0.5451887 0.60969055 -1.1216862 -0.784214 -0.9363304
0.13484018 -0.7888441 -0.4106322 0.70627415 -0.24361981 -0.36770326 -0.19971775 0.5233772
-0.015027662 -0.20464072 0.5396962 -0.9449334 0.6307409 -0.11215434 1.0537001 -0.8348677
0.67870647 0.7773272 -0.44890895 1.0603061 -0.27483383 -0.6646071 -0.66713166 -0.34945405
0.9457316 -0.7971736 0.11094014 0.7478363 0.23795901 0.012052966 -0.59813994 -0.093761355
0.8180045 0.57745326 -0.5213041 -1.1139714 -0.34959596 0.5563957 -0.6219534 0.46597445
-0.097682975 -0.7724178 0.6057099 -0.05317766 -0.25040668 0.2676007 0.7132666 0.5119565
-0.52181244 0.83283573 0.44068345 0.603746 -0.9054389 0.51614624 0.046870932 0.33996797
00000000: 9983 013e 0de5 813f 04c0 4a3d 374b 683d
00000010: 1c57 743f 8549 463e fb6e e4bd dc0f fd3e
00000020: 86fc 33bf 5c1d e6be 7368 1abd 8a8f 16be
00000030: 1402 65bf 9d25 453f d670 953e 3167 3d3f
00000040: e273 70bf 45f7 74bf 0a53 96be 90f2 553f
00000050: 4b95 81bf 16bd 7abd abf7 67bf cddd 09be
00000060: fe63 4bbe 06f6 433e 86e8 05bd 16e4 a63d
00000070: 27ad 86bd c3fd 21bf a543 7b3e 6240 633f
00000080: c84f 4cbf e2ec 543f 61e5 4a3f 4583 ae3c
00000090: 03f3 39bd 35aa 833e 8995 7d3d fd99 53bf
000000a0: 74bd 073e 841b 77bf afe9 4cbd 2a4f 4cbf
000000b0: c435 4d3f a550 063f a35e 39bf 58fe 4fbf
000000c0: af4e 8cbf dfdb 763f 6d8b 44be 9842 fc3e
000000d0: c04e 6e3f 073c b43e cada 743f 03e2 72be
000000e0: 3ab7 dbbe a2db 1c3d a69a b73e 09b2 423e
000000f0: e17f d93e 9000 02bf 25dc 0a3f 88c1 ae3d
00000100: cc8c d7be 06d2 41be a056 e63e 07b7 8a3f
00000110: 5ea1 903d 712d 84bf ae3d dabe f3d9 0fbf
00000120: d77f f5bd 9e26 5dbf f85f a2be 43fa 773f
00000130: 64fe 00be 6339 62be 2fe2 e4bd 180f 1c3f
00000140: c9a9 bb3d a437 7f3e 1655 833f 117c 69bf
00000150: dcfa 203f a259 19bf d746 143f 9ee4 84bf
00000160: 12ca a0be 1c43 1b3f 4af4 a53e 7b07 7b3f
00000170: 1603 703e b401 2abf fcd1 39bf 5438 8bbe
00000180: a785 863f 8a8e fdbe 85e8 b8be 88d2 5e3f
00000190: 961d dcbe b8a1 fcbe a53d 173d e27b a73d
000001a0: a3f3 7e3f 7110 2fbd 30a5 01be d8a9 22bf
000001b0: af77 843d fc8b 493f 249e a23e 9c99 1b3e
000001c0: f711 083e 37d8 02be d5af 8bbd 25b2 733e
000001d0: 006f 5abe 601f 223e 2ed9 643f 7f95 83bd
000001e0: 2205 573e d7d4 873f 2ede 623f df96 363f
000001f0: 80c4 27bf 1a7d 5a3f c1d7 e8be b42c 5cbe
00000200: 018a 29bf 8ba3 733f 73f0 bbbd 92bf 31bf
00000210: ce67 713f 0135 d83e 10f6 12bf 8a77 343f
00000220: 0df2 8bbf 1682 95be 150a 30bf 50b9 763e
00000230: 0d5e 02bf 2d01 5d3f 48d9 68be 2c47 3f3f
00000240: 9530 1bbf 0945 36bf b753 bb3e 4818 2a3f
00000250: d2f9 12bf bd7e d33e f800 3bbf 570b 9ebe
00000260: 8954 e73e fb15 063f 1df3 cb3e 38b2 a2be
00000270: 7fb6 cf3e e6ee 67bf 5f0f dcbe 776f 7f3f
00000280: c129 06bf ce04 6e3f ed8a 173f 671d 653e
00000290: 60d8 73be 448d 31bf bf4f 85be 525c 02bf
000002a0: f07c a53d 5bbf 11bf f777 bd3d 83a9 39bf
000002b0: 5bf4 4e3f c03e 7c3f a379 53bf 7e81 c3be
000002c0: 0bca 76bf 0473 563f 6d60 d8be d2b0 293f
000002d0: cd05 313f bd9c 293f 1381 143f 3838 d23d
000002e0: 97a8 db3e 1d07 a63e 04c1 243f 8743 72be
000002f0: 2bbe 983e f69d 3dbf 12be e3be 9a98 03bf
00000300: ecb6 a6be f66c ae3e 3448 0cbe 7d91 0b3f
00000310: ae14 1c3f 6a93 8fbf 40c2 48bf 59b3 6fbf
00000320: 8b13 0a3e b0f1 49bf 623e d2be 62ce 343f
00000330: 7977 79be 9a43 bcbe cf82 4cbe 0cfc 053f
00000340: 9536 76bc 568d 51be 8829 0a3f 28e7 71bf
00000350: 3c78 213f 2db1 e5bd a5df 863f e4b9 55bf
00000360: b5bf 2d3f eafe 463f 65d7 e5be 1cb8 873f
00000370: 05b7 8cbe b123 2abf 24c9 2abf a4eb b2be
00000380: 771b 723f 9213 4cbf 9634 e33d 3372 3f3f
00000390: 87ab 733e ce79 453c b31f 19bf f405 c0bd
000003a0: be68 513f fad3 133f 2f74 05bf 9d96 8ebf
000003b0: 3efe b2be f36f 0e3f 5738 1fbf 3494 ee3e
000003c0: 030e c8bd 2cbd 45bf ce0f 1b3f d1d0 59bd
000003d0: 4e35 80be f502 893e a498 363f 950f 033f
000003e0: 8095 05bf b934 553f 43a1 e13e 198f 1a3f
000003f0: d8ca 67bf 2922 043f bcfb 3f3d 4810 ae3e

model._layers.2.bias f4 [32]
0.79659426 0.66463894 -0.38047224 0.26318347 -0.08168766 -0.5317415 -0.7375818 -0.09092903
-0.3356241 0.8271295 0.2973936 0.33520308 -0.68965095 -0.102499984 0.15825745 0.64751136
0.0574839 0.3534528 0.110543266 -0.17566374 -0.30930766 -0.3937856 -0.23375344 0.41840032
-0.80571336 -0.6398312 -0.40657654 -0.16094556 -0.6515484 0.3776724 -0.7943989 -0.29068553
00000000: 9aed 4b3f c725 2a3f 42cd c2be fcbf 863e
00000010: dc4b a7bd 3620 08bf 29d2 3cbf 0039 babd
00000020: ecd6 abbe c2be 533f f943 983e bd9f ab3e
00000030: f78c 30bf 83eb d1bd 3e0e 223e 4ec3 253f
00000040: 3d74 6b3d c4f7 b43e 8264 e23d 32e1 33be
00000050: 935d 9ebe 449e c9be 105d 6fbe 9138 d63e
00000060: 3b43 4ebf facb 23bf cd2a d0be eace 24be
00000070: e0cb 26bf 475e c13e ba5d 4bbf bcd4 94be

model._layers.3.weight f4 [1, 32]
-0.0014301764 -0.013129627 0.021782147 -0.0032957243 -0.00035842118 0.0017094887 -0.0032004183 -0.011921868
-0.012311235 0.004832281 0.010361975 0.0020023128 -0.0048114043 0.0012691902 0.0017649158 0.006668094
-0.008301558 -0.0020971496 0.0004002939 -0.0024580779 0.0033975272 -0.0028303815 0.000255609 -0.0056075365
0.004704397 -0.004405121 -0.0055634324 -0.0015811216 -0.0031099066 -0.0009984251 0.0051268516 0.00043978743
00000000: c274 bbba a61d 57bc 7970 b23c 14fd 57bb
00000010: 7aea bbb9 ec10 e03a 1cbe 51bb f053 43bc
00000020: 10b5 49bc 1c58 9e3b 46c5 293c 3c39 033b
00000030: fca8 9dbb f55a a63a bf54 e73a 0780 da3b
00000040: 4203 08bc 5570 09bb 8ade d139 b417 21bb
00000050: 0ca9 5e3b ec7d 39bb 4203 8639 6dbf b7bb
00000060: 5827 9a3b d558 90bb 744d b6bb a33d cfba
00000070: 93cf 4bbb 96dd 82ba 26ff a73b 4593 e639

exp_avg f4 [32, 1]
-6.0200573e-06 -3.628714e-07 3.6318856e-06 8.291651e-06 -1.0293677e-05 9.217329e-06 8.473272e-06 1.9991173e-06
1.3403247e-05 -5.4682123e-06 -1.65364e-05 -9.187383e-06 -7.295308e-06 -1.3835081e-05 9.935792e-06 -1.0160088e-05
-4.790858e-06 8.094162e-06 -4.577776e-06 9.201404e-06 -1.3016917e-05 -4.5906504e-06 -1.3793607e-05 3.3937697e-06
-5.4949055e-06 9.9422705e-06 -6.6825864e-06 -3.8870126e-06 -5.910979e-06 -2.4623282e-06 -9.1261645e-06 6.862949e-06
00000000: e6ff c9b6 aad0 c2b4 52bb 7336 5f1c 0b37
00000010: 02b3 2cb7 20a4 1a37 6d28 0e37 9328 0636
00000020: 82de 6037 967b b7b6 a6b7 8ab7 8223 1ab7
00000030: 38ca f4b6 381d 68b7 e7b1 2637 3f75 2ab7
00000040: 28c1 a0b6 29cc 0737 cc9a 99b6 bb5f 1a37
00000050: 3c63 5ab7 6309 9ab6 176b 67b7 85c0 6336
00000060: e160 b8b6 bacd 2637 fb3a e0b6 2f6d 82b6
00000070: ec56 c6b6 7a3e 25b6 941c 19b7 4848 e636

exp_avg_sq f4 [32, 1]
0.010047102 0.0060114544 0.00018771675 0.006866949 0.00055535627 0.0005522806 0.0017120024 0.0056138234
1.1794192e-05 0.000103987986 1.9188272e-05 0.0002369982 0.010224426 0.00045923432 0.003637624 0.0027004282
4.86994e-05 0.012948628 0.01592459 0.0039084577 0.0002443608 0.03973801 0.00026995287 0.01654128
5.7586894e-05 0.013381438 0.00025210774 0.050103232 0.0042106532 0.0009120677 4.568109e-05 0.004550546
00000000: 9a9c 243c bcfb c43b d5d5 4439 2504 e13b
00000010: 5495 113a ecc6 103a 4565 e03a 2af4 b73b
00000020: abdf 4537 2014 da38 80f6 a037 b882 7839
00000030: 5a84 273c 63c5 f039 3465 6e3b abf9 303b
00000040: 9542 4c38 7b26 543c 4974 823c 8512 803b
00000050: 8d1d 8039 53c4 223d 7688 8d39 9481 873c
00000060: 7589 7138 d23d 5b3c 542d 8439 0c39 4d3d
00000070: 85f9 893b d417 6f3a b299 3f38 bf1c 953b

exp_avg f4 [32]
-6.5227096e-06 4.580997e-06 -1.9130061e-06 7.5118314e-06 -1.7963413e-06 7.510066e-06 5.0843632e-06 1.9791487e-06
-4.000603e-07 -3.8205096e-07 -2.2704687e-06 3.3570254e-07 -5.4886805e-06 -6.1535707e-06 9.282049e-06 -8.099155e-06
-2.1814803e-06 5.758894e-06 -1.6545001e-06 7.923609e-06 -8.173532e-06 -5.5845644e-06 -4.0755694e-06 3.3306296e-06
-7.837552e-06 8.9759105e-06 -2.2761064e-06 -4.8648094e-06 -4.0668065e-06 -3.963574e-06 7.6323346e-07 3.6823408e-06
00000000: a6dd dab6 77b6 9936 3261 00b6 240e fc36
00000010: d119 f1b5 fafe fb36 599a aa36 84d1 0436
00000020: dec7 d6b4 af1c cdb4 5b5e 18b6 9b3a b434
00000030: 682b b8b6 c57a ceb6 19ba 1b37 9be1 07b7
00000040: 8c65 12b6 863c c136 3110 deb5 a4ef 0437
00000050: 0d21 09b7 0b63 bbb6 e0c0 88b6 c883 5f36
00000060: 087e 03b7 3e97 1637 36bf 18b6 653c a3b6
00000070: 9a75 88b6 d7fe 84b6 01e1 4c35 221e 7736

exp_avg_sq f4 [32]
0.0014673097 0.003003615 0.0011420938 0.0019104643 0.0016641461 0.0006086905 0.00064948684 0.0012714922
0.00030369178 0.00035413 0.00068121514 0.0016555008 0.0033130834 0.00076586776 0.0011253647 0.0015526592
0.0018724292 0.0046417248 0.0020960579 0.0011235094 0.00024134113 0.0052118255 0.00068390946 0.0022700157
0.00012258205 0.0024225365 0.0002734283 0.010192392 0.0011155818 0.0025481132 0.00088195084 0.0031576443
00000000: be52 c03a 4cd8 443b 4fb2 953a 8b68 fa3a
00000010: 7a1f da3a 8790 1f3a 5342 2a3a 33a8 a63a
00000020: d238 9f39 86aa b939 9393 323a 64fd d83a
00000030: 5120 593b 84c4 483a f980 933a 9982 cb3a
00000040: 4c6c f53a 9c19 983b 045e 093b b842 933a
00000050: 8410 7d39 f6c7 aa3b 6348 333a 8bc4 143b
00000060: 5e89 0039 6bc3 1e3b ed5a 8f39 fefd 263c
00000070: b738 923a 3ffe 263b b832 673a 7bf0 4e3b

exp_avg f4 [128, 32]
-1.6762945e-06 -3.2043176e-06 6.3825914e-06 3.0516876e-06 -3.4755647e-06 8.15447e-07 3.236324e-06 2.365913e-06
8.930708e-06 -7.629703e-06 -3.3991982e-06 -5.201778e-06 -2.0475402e-06 -8.769086e-06 1.2064227e-06 -7.3424366e-07
4.4325657e-06 4.816194e-06 -3.9759702e-06 2.573028e-06 -4.5866313e-06 9.223859e-06 -7.4029117e-06 1.6636047e-06
-1.3989653e-06 2.6844539e-06 -3.4023985e-06 5.3692165e-06 -6.772975e-06 4.0111877e-06 -7.028986e-06 2.411915e-06
-8.492489e-06 -6.9858133e-06 7.7249715e-06 1.8496085e-06 -6.925145e-06 7.855741e-06 7.008639e-06 3.5228707e-06
4.791296e-06 -6.9978396e-06 -2.1406818e-06 -3.481336e-06 -6.2245435e-06 -1.6945428e-06 3.9693105e-06 -5.804038e-06
3.898447e-06 9.240238e-06 -7.815923e-06 3.7584787e-06 -5.6102876e-06 -6.121788e-06 -6.2978343e-06 7.0424812e-06
-5.7072316e-06 2.6660168e-06 -7.458423e-06 -8.317094e-06 -7.869901e-06 3.667357e-06 -1.7362133e-06 5.519729e-06
-6.6874145e-06 -4.4985736e-06 1.0116975e-05 6.3451134e-06 -5.2742967e-06 4.925632e-06 4.4061485e-06 2.9614057e-06
8.20191e-06 -4.9902796e-06 -1.10787805e-05 -8.453799e-06 -8.299812e-06 -5.9900885e-06 9.000232e-06 -5.7979146e-06
8.745522e-06 7.413422e-06 -4.675149e-06 5.3532412e-06 -4.521702e-06 -4.7869835e-06 -1.0174118e-05 7.444087e-06
-7.1571408e-06 8.1494545e-06 -7.920315e-06 -3.2806854e-06 -6.5358904e-06 8.950161e-06 -1.0994529e-05 6.532112e-06
-6.2259023e-06 -6.4662854e-06 6.8055683e-06 8.328049e-06 -6.460533e-06 6.5875706e-06 7.979716e-06 7.971807e-06
5.462391e-06 -1.1523146e-05 -9.0188605e-06 -7.0373108e-06 -1.0991655e-05 -5.885352e-06 6.734963e-06 -4.5260904e-06
7.5264825e-06 6.74266e-06 -1.0198396e-05 4.012597e-06 -4.5244615e-06 -3.3959498e-07 -4.5373417e-06 4.5696943e-06
-5.9959834e-06 3.3459614e-06 -5.980561e-06 3.319183e-07 -1.0413962e-05 7.218782e-06 -1.096033e-05 7.704327e-06
-5.546948e-06 4.2365177e-06 -3.4144934e-06 5.001693e-06 1.6684652e-06 4.8234883e-06 5.8193455e-06 -3.4980775e-07
-3.318354e-07 1.7764265e-06 1.385451e-07 -3.0797612e-06 -9.589665e-06 1.2140657e-06 5.67133e-06 -4.474009e-06
-3.495264e-06 8.688805e-06 -8.1011805e-08 4.304685e-06 -5.2207088e-06 -3.7783973e-06 -3.8491e-06 2.4740725e-06
-2.034019e-06 5.6785607e-06 1.7444773e-06 -2.2877357e-06 -3.7538932e-06 -4.3114676e-07 3.5233575e-06 7.949032e-06
5.9600548e-06 5.8382993e-06 -5.417028e-06 -1.0779799e-05 7.0853407e-06 -5.0004437e-06 -6.155036e-06 -3.429516e-06
-7.761668e-06 1.0235502e-05 7.5900366e-06 5.3665863e-06 8.984693e-06 7.1779746e-06 -5.2700807e-06 9.24032e-06
-9.432273e-06 -7.1668746e-06 9.7287e-06 -6.913513e-06 8.375925e-06 5.0555786e-06 4.8853367e-06 -4.20328e-06
4.638218e-06 -9.6998665e-06 4.9283385e-06 2.1978816e-07 6.9765565e-06 -8.532954e-06 6.7704086e-06 -9.278197e-06
-4.01702e-06 -5.3229032e-06 7.0588335e-06 3.260199e-06 -5.9791623e-06 5.0369804e-06 5.817621e-06 9.910466e-06
9.703351e-06 -7.9710335e-06 -7.642726e-06 -5.4663137e-06 -8.648267e-06 -6.2523777e-06 5.862117e-06 -5.098502e-06
6.071626e-06 5.6724098e-06 -4.70042e-06 7.89512e-06 -7.978835e-06 2.4220526e-06 -4.6101864e-06 1.2756308e-06
-3.1499046e-06 6.304264e-06 -8.586221e-06 6.0055963e-06 -6.9737107e-06 8.709322e-06 -4.7689296e-06 8.146523e-06
-3.6762792e-06 -7.1771883e-06 7.3304955e-06 6.1913306e-06 -5.2652317e-06 7.1575423e-06 6.973182e-06 3.429662e-06
7.573234e-06 -7.5317294e-06 -2.1439373e-06 -5.967827e-06 -4.5132874e-06 -8.150689e-06 6.868846e-06 -7.0434908e-06
3.7087793e-06 6.052098e-06 -8.823907e-06 2.4340939e-06 -2.500618e-06 -7.1381282e-06 -7.1841087e-06 8.421595e-06
-4.4355147e-06 3.0828617e-06 -4.2404145e-06 -4.2506886e-06 -3.5460175e-06 3.1697195e-06 -7.6390015e-06 7.504738e-06
00000000: 0afd e0b5 c209 57b6 0b2a d636 98cb 4c36
00000010: bf3d 69b6 17e5 5a35 9f2f 5936 13c6 1e36
00000020: 19d5 1537 5301 00b7 c81d 64b6 ef8a aeb6
00000030: 7968 09b6 f01e 13b7 5eec a135 d718 45b5
00000040: 73bb 9436 cb9a a136 5369 85b6 49ac 2c36
00000050: dde6 99b6 2cc0 1a37 8766 f8b6 0649 df35
00000060: 15c4 bbb5 9126 3436 c354 64b6 3829 b436
00000070: 6a43 e3b6 d797 8636 88da ebb6 62dc 2136
00000080: f67a 0eb7 ae67 eab6 809a 0137 1040 f835
00000090: 8b5e e8b6 27cc 0337 c02b eb36 756a 6c36
000000a0: ebc4 a036 fcce eab6 a2a8 0fb6 e6a0 69b6
000000b0: 6cdc d0b6 0c70 e3b5 1e30 8536 4fc0 c2b6
000000c0: 68cf 8236 8506 1b37 2221 03b7 2c3a 7c36
000000d0: 0140 bcb6 c269 cdb6 fc51 d3b6 744e ec36
000000e0: bf80 bfb6 d2e9 3236 5e43 fab6 a689 0bb7
000000f0: f808 04b7 b71c 7636 d607 e9b5 1c36 b936
00000100: 7464 e0b6 74f2 96b6 14bc 2937 1ce8 d436
00000110: ddf9 b0b6 db46 a536 87d8 9336 90bc 4636
00000120: ef9a 0937 2d72 a7b6 00df 39b7 cad4 0db7
00000130: 6c3f 0bb7 78fe c8b6 b4ff 1637 b58b c2b6
00000140: bbb9 1237 cfc0 f836 39df 9cb6 fe9f b336
00000150: 20b9 97b6 e09f a0b6 81b1 2ab7 38c8 f936
00000160: 5f27 f0b6 a4b9 0837 7ee1 04b7 bf29 5cb6
00000170: df4e dbb6 a628 1637 2475 38b7 6a2e db36
00000180: 18e8 d0b6 f8f8 d8b6 635b e436 b3b8 0b37
00000190: 8ec7 d8b6 cd0a dd36 9fe0 0537 a6be 0537
000001a0: 9549 b736 8953 41b7 b64f 17b7 0a22 ecb6
000001b0: cc68 38b7 ca7a c5b6 e4fc e136 d2de 97b6
000001c0: fe8b fc36 023f e236 c719 2bb7 f2a3 8636
000001d0: d4d0 97b6 9451 b6b4 783f 98b6 6055 9936
000001e0: 1b31 c9b6 2e8b 6036 a1ac c8b6 8132 b234
000001f0: a0b7 2eb7 dd38 f236 42e2 37b7 d541 0137
00000200: ec1f bab6 6927 8e36 8d24 65b6 37d4 a736
00000210: 07f0 df35 73d9 a136 cc43 c336 36cd bbb4
00000220: 1c27 b2b4 8d6d ee35 fdc2 1434 e5ad 4eb6
00000230: 4ce3 20b7 fbf2 a235 5b4c be36 721f 96b6
00000240: 2e90 6ab6 22c6 1137 b6f8 adb3 f670 9036
00000250: 8c2d afb6 5f90 7db6 8427 81b6 3e08 2636
00000260: 2e80 08b6 778a be36 c923 ea35 0087 19b6
00000270: 65eb 7bb6 5c78 e7b4 d272 6c36 d55c 0537
00000280: 7bfc c736 9ce6 c336 ebc3 b5b6 e2da 34b7
00000290: 9dbe ed36 7cc9 a7b6 5b87 ceb6 a326 66b6
000002a0: 1c38 02b7 25b9 2b37 ebad fe36 a012 b436
000002b0: f6bc 1637 55da f036 a6d5 b0b6 df06 1b37
000002c0: 4e3f 1eb7 fc7a f0b6 7338 2337 a0fa e7b6
000002d0: 5386 0c37 17a3 a936 b9ec a336 e609 8db6
000002e0: fda1 9b36 9cbc 22b7 1b5e a536 e9fe 6b34
000002f0: 2a18 ea36 c228 0fb7 5e2d e336 8da9 1bb7
00000300: f0c9 86b6 649b b2b6 ebda ec36 cbc9 5a36
00000310: 9da0 c8b6 5503 a936 fc34 c336 2145 2637
00000320: 93cb 2237 54bb 05b7 4239 00b7 476b b7b6
00000330: 0618 11b7 84cb d1b6 34b3 c436 cc13 abb6
00000340: dfba cb36 a155 be36 4db8 9db6 4875 0437
00000350: d6dc 05b7 8c8a 2236 33b1 9ab6 5736 ab35
00000360: f362 53b6 3789 d336 8a0d 10b7 ae83 c936
00000370: b8ff e9b6 411e 1237 cb04 a0b6 0dad 0837
00000380: ffb5 76b6 94d3 f0b6 7af8 f536 20bf cf36
00000390: ffab b0b6 d22a f036 2dfb e936 2529 6636
000003a0: 961d fe36 10b9 fcb6 90e0 0fb6 3e3f c8b6
000003b0: d870 97b6 f1be 08b7 f07a e636 2057 ecb6
000003c0: 58e4 7836 2013 cb36 640a 14b7 6a59 2336
000003d0: 4ad0 27b6 0e84 efb6 060f f1b6 7a4a 0d37
000003e0: c8d4 94b6 29e3 4e36 e248 8eb6 23a1 8eb6
000003f0: 1ef8 6db6 5eb7 5436 4329 00b7 35d1 fb36

exp_avg_sq f4 [128, 32]
5.7956895e-06 0.00013408728 0.0002631263 0.00023074583 0.00037442846 0.00015340725 0.00016558816 6.1815213e-06
0.0004432928 0.00028953588 0.000435761 0.0004163386 6.4417596e-05 0.00043755744 0.00019337123 0.00023432613
3.3459994e-05 0.00010893768 3.0630075e-05 0.00022700144 0.00034621416 6.539844e-06 0.0004409296 2.550971e-06
0.00013477408 0.00020865249 0.00021713151 2.0525053e-05 6.987757e-05 0.00012814604 0.0002879667 0.0001579728
8.262528e-06 2.2567532e-05 3.3883487e-05 1.4006461e-05 3.253265e-05 1.1069445e-05 2.4606605e-05 8.905448e-06
4.5539287e-05 3.6286096e-05 4.3923053e-05 4.0025112e-05 1.5722584e-05 4.5272514e-05 1.06224925e-05 1.4569547e-05
1.351986e-05 1.9765888e-05 1.2398355e-05 1.3675592e-05 2.9124694e-05 3.6486952e-06 4.5672936e-05 7.5364937e-06
5.995132e-06 1.2094846e-05 2.9305476e-05 2.3249665e-06 1.628663e-05 2.2374452e-05 3.6165424e-05 2.3964498e-05
1.3685806e-05 4.0312396e-05 6.358965e-05 3.189572e-05 7.404641e-05 2.2094868e-05 4.5229506e-05 1.4278778e-05
9.9592304e-05 6.88105e-05 9.6607175e-05 8.919785e-05 2.7413727e-05 9.6742304e-05 2.3591307e-05 3.2678196e-05
2.1795524e-05 3.5346005e-05 2.0902877e-05 3.0989766e-05 6.414059e-05 6.6509697e-06 9.823279e-05 1.2397503e-05
1.3380074e-05 2.680461e-05 5.4638076e-05 5.223626e-06 2.8570881e-05 3.943435e-05 6.8511436e-05 4.385383e-05
1.7172761e-06 1.7118859e-05 3.476628e-05 3.180702e-05 5.6036224e-05 1.593318e-05 2.0671761e-05 1.986933e-06
7.144692e-05 3.887119e-05 6.957607e-05 6.501044e-05 8.318634e-06 7.000503e-05 2.6479009e-05 3.2351432e-05
5.268622e-06 1.3571219e-05 4.624022e-06 3.126252e-05 5.0697112e-05 2.102608e-06 7.083154e-05 1.4494391e-06
1.8509616e-05 2.865084e-05 2.7784681e-05 3.8850512e-06 9.029411e-06 1.6540043e-05 3.8639046e-05 1.9668812e-05
1.6878583e-07 4.6751876e-07 3.8811723e-07 3.2628113e-06 3.1652442e-06 1.5369599e-07 2.4688035e-08 5.2487866e-07
4.35928e-06 2.7695407e-07 4.1216263e-06 3.6831973e-06 8.8986816e-08 5.576785e-06 3.416508e-06 3.5151754e-06
9.755429e-07 9.992459e-08 2.31561e-07 3.3247215e-06 4.3754826e-06 3.221969e-07 5.2359087e-06 2.416493e-07
2.899537e-06 3.54615e-06 1.2677889e-07 3.9966864e-07 5.7169846e-08 7.4973434e-07 2.968618e-07 6.39063e-08
5.7975813e-05 0.00015366728 0.00022071748 8.8458255e-05 0.00020866419 8.8807865e-05 0.00016923154 6.0072303e-05
0.0002682472 0.00023427086 0.00026178733 0.0002451349 0.00011123985 0.00026124888 6.122708e-05 9.0740396e-05
8.9760084e-05 0.00013814979 8.717806e-05 8.550225e-05 0.00018205278 2.3267052e-05 0.00026476962 5.218813e-05
2.7645845e-05 7.171307e-05 0.0001965523 1.33387675e-05 0.00011531656 0.00015065202 0.00023351102 0.0001650331
3.631594e-07 3.6543664e-05 8.7150795e-05 0.00010636806 0.00018459394 4.1545616e-05 4.6662135e-05 5.1210327e-07
0.00023516643 9.98655e-05 0.0002290177 0.00021397839 1.4124371e-05 0.00022860417 8.909412e-05 0.000107800755
6.2648814e-06 2.7449552e-05 5.421857e-06 0.00010454703 0.00016561728 7.0380047e-06 0.00023189398 2.8988063e-07
6.3669846e-05 9.592173e-05 6.672293e-05 1.4754466e-05 1.5903744e-05 3.4715857e-05 9.912433e-05 4.3851705e-05
4.7952082e-05 0.00011353855 0.00014967249 5.3562642e-05 0.00012760021 6.387482e-05 0.0001223673 4.9720133e-05
0.0001592739 0.00015606967 0.00015600065 0.00014740897 8.66074e-05 0.00015612613 3.5256442e-05 5.514171e-05
7.206055e-05 0.00010393609 6.998413e-05 5.1603678e-05 0.00011269561 1.8570654e-05 0.00015778578 4.335735e-05
1.2469969e-05 4.2396812e-05 0.00013734758 8.918892e-06 8.932715e-05 0.00011183156 0.00015572355 0.000119969794
00000000: 9878 c236 c899 0c39 37f4 8939 5df4 7139
00000010: f04e c439 f2db 2039 bca1 2d39 dd6a cf36
00000020: c169 e839 d9cc 9739 da76 e439 0548 da39
00000030: ef17 8738 f767 e539 b2c3 4a39 71b5 7539
00000040: 6557 0c38 7975 e438 cb78 0038 3c07 6e39
00000050: 1484 b539 d570 db36 922c e739 5931 2b36
00000060: 2452 0d39 bac9 5a39 ccad 6339 372d ac37
00000070: 3c8b 9238 f15e 0639 3cfa 9639 80a5 2539
00000080: 4a9f 0a37 684f bd37 1e1e 0e38 4bfd 6a37
00000090: ab73 0838 e7b6 3937 486a ce37 9c68 1537
000000a0: 7001 3f38 e631 1838 053a 3838 a3e0 2738
000000b0: fee3 8337 fee2 3d38 4237 3237 ba6f 7437
000000c0: 5bd3 6237 ecce a537 8702 5037 3870 6537
000000d0: ce50 f437 1bdc 7436 f190 3f38 fde1 fc36
000000e0: cb29 c936 f8ea 4a37 08d5 f537 9f06 1c36
000000f0: 469f 8837 c5b0 bb37 54b0 1738 5e07 c937
00000100: 179c 6537 1b15 2938 6f5b 8538 c5c7 0538
00000110: 5d49 9b38 5e58 b937 d0b4 3d38 e28e 6f37
00000120: 36dc d038 5b4e 9038 9599 ca38 bb0f bb38
00000130: 88f6 e537 21e2 ca38 f2e5 c537 f20f 0938
00000140: 88d5 b637 7c40 1438 9658 af37 02fb 0138
00000150: 3883 8638 652b df36 5402 ce38 dffe 4f37
00000160: fb7a 6037 76da e037 302b 6538 9b46 af36
00000170: 80ab ef37 5066 2538 ccad 8f38 b1ef 3738
00000180: 287d e635 789a 8f37 02d2 1138 8768 0538
00000190: 7008 6b38 3ea8 8537 4568 ad37 4057 0536
000001a0: c6d5 9538 9f09 2338 5ee9 9138 3756 8838
000001b0: 4390 0b37 aacf 9238 3d1f de37 16b1 0738
000001c0: 1ec9 b036 f1af 6337 0c28 9b36 e01f 0338
000001d0: 9ca3 5438 881a 0d36 658b 9438 598a c235
000001e0: 1945 9b37 3657 f037 2613 e937 565c 8236
000001f0: 067d 1737 79bf 8a37 5c10 2238 74fe a437
00000200: 7f3b 3534 4aff fa34 6d5e d034 acf6 5a36
00000210: 7b6a 5436 a207 2534 9011 d432 63e5 0c35
00000220: ee45 9236 47b0 9434 804c 8a36 d92c 7736
00000230: 0519 bf33 3820 bb36 2947 6536 41e6 6b36
00000240: 66ef 8235 2096 d633 01a3 7834 481e 5f36
00000250: 1cd1 9236 68fa ac34 1db0 af36 07bc 8134
00000260: ab95 4236 65fa 6d36 b720 0834 0a92 d634
00000270: e98a 7533 5a41 4935 6060 9f34 dc3c 8933
00000280: 0e2b 7338 bf21 2139 6670 6739 aa82 b938
00000290: decc 5a39 5c3e ba38 bf73 3139 25f6 7b38
000002a0: 88a3 8c39 9ba6 7539 8040 8939 7385 8039
000002b0: 7149 e938 3bf8 8839 0a67 8038 e14b be38
000002c0: 943d bc38 4ddc 1039 5dd3 b638 ac4f b338
000002d0: 6ce5 3e39 9d2d c337 c7d0 8a39 94e4 5a38
000002e0: 00e9 e737 a964 9638 9b19 4e39 92c9 5f37
000002f0: 1bd6 f138 58f8 1d39 a3da 7439 bc0c 2d39
00000300: 3ff8 c234 7646 1938 bac4 b638 eb11 df38
00000310: 8f8f 4139 4441 2e38 16b7 4338 7877 0935
00000320: 0297 7639 e26e d138 7924 7039 635f 6039
00000330: b6f7 6c37 77b5 6f39 0bd8 ba38 1713 e238
00000340: ec36 d236 7743 e637 66ed b536 4240 db38
00000350: 8da9 2d39 0028 ec36 9128 7339 e4a0 9b34
00000360: 7d86 8538 9629 c938 9aed 8b38 f389 7737
00000370: 0869 8537 de9b 1138 f8e0 cf38 69ed 3738
00000380: 2820 4938 8b1b ee38 67f1 1c39 73a8 6038
00000390: 6ccc 0539 88f4 8538 b94f 0039 968a 5038
000003a0: c302 2739 a2a6 2339 1b94 2339 cb91 1a39
000003b0: fea0 b538 cab5 2339 51e0 1338 f647 6738
000003c0: 371f 9738 43f8 d938 72c4 9238 0771 5838
000003d0: ff56 ec38 2dc8 9b37 4c73 2539 9ada 3538
000003e0: 1c36 5137 3bd3 3138 f604 1039 59a2 1537
000003f0: 2655 bb38 1d87 ea38 b949 2339 4b98 fb38

exp_avg f4 [128]
5.199807e-06 3.1012548e-06 7.130259e-06 6.183638e-06 1.3863848e-06 -7.77566e-06 6.112357e-06 4.8721395e-06
-4.715273e-06 -7.4758377e-06 6.122371e-06 -3.6642784e-06 -4.2140045e-06 5.5164096e-06 6.2709587e-06 2.3929572e-06
-4.5007396e-06 2.128003e-07 -7.6073998e-06 1.9873905e-06 -5.560443e-06 -6.7380997e-06 -2.0312357e-06 7.946957e-06
-1.2098685e-06 -8.136064e-06 -6.710172e-06 7.400113e-06 -6.404758e-06 -2.2812412e-06 8.044317e-06 3.5717267e-06
-3.188851e-06 5.8535074e-06 -1.3433619e-06 -6.5389604e-06 7.3694728e-06 5.9866547e-06 7.5585435e-06 -3.6891176e-06
-6.5114245e-06 4.6170774e-07 -7.6707975e-06 -2.5870668e-06 6.232366e-07 5.825788e-06 -6.742417e-07 -2.6048022e-07
-3.467339e-06 1.9931747e-06 6.3492726e-06 -2.6388952e-06 1.8349864e-06 4.5347756e-06 5.516105e-06 -7.791813e-06
-7.504722e-06 6.594856e-06 -6.2570616e-06 7.3584365e-06 -5.5762703e-06 -1.4084718e-06 7.920207e-06 6.5493973e-06
7.3141628e-06 -7.63364e-06 6.134462e-06 4.52989e-06 -6.695578e-06 -4.227561e-06 -4.25562e-06 -3.8675594e-06
-6.090278e-06 -1.1587326e-06 5.809976e-06 5.820532e-07 7.919403e-06 6.790734e-06 7.4217724e-06 2.1580959e-06
7.668961e-06 7.2376333e-06 5.0710014e-06 -5.1499082e-06 2.107534e-06 -7.241119e-06 4.370004e-06 -1.913777e-06
-7.486469e-06 8.416929e-07 7.863073e-06 6.749911e-06 7.75745e-06 -2.751086e-06 -4.9797563e-06 7.5406897e-06
4.4823196e-06 -4.1729013e-06 -7.984531e-06 4.614313e-06 -7.3085757e-06 -7.454444e-06 6.118912e-06 6.492291e-06
5.5399614e-06 -6.353115e-06 6.405929e-06 -4.9102123e-06 7.824283e-06 3.6903386e-06 5.77441e-06 -7.2063413e-06
7.986075e-06 4.2774354e-06 -6.058559e-06 6.703184e-06 7.4208456e-06 6.2174668e-06 2.0310356e-06 -6.369821e-06
6.924193e-06 6.731265e-07 2.837113e-06 3.7710374e-06 -1.3831913e-06 4.315083e-06 -5.9431586e-06 -8.403957e-06
00000000: 017a ae36 271f 5036 7540 ef36 0c7d cf36
00000010: d213 ba35 3574 02b7 bf18 cd36 5c7b a336
00000020: e337 9eb6 f5d8 fab6 c46e cd36 d3e7 75b6
00000030: 0666 8db6 9919 b936 206b d236 b196 2036
00000040: 0f05 97b6 1a7e 6434 1143 ffb6 1c5f 0536
00000050: d793 bab6 d617 e2b6 5d50 08b6 ec53 0537
00000060: c462 a2b5 2180 08b7 f027 e1b6 7d4e f836
00000070: 74e8 d6b6 6d17 19b6 14f6 0637 ccb1 6f36
00000080: 0b00 56b6 3f69 c436 904d b4b5 3e69 dbb6
00000090: 4a47 f736 f9e0 c836 659f fd36 8f92 77b6
000000a0: b67c dab6 a1e0 f734 d3b1 00b7 789d 2db6
000000b0: 7e4c 2735 237b c336 89fd 34b5 21d8 8bb4
000000c0: 6eb0 68b6 7bc2 0536 d60b d536 e017 31b6
000000d0: a749 f635 6d29 9836 fb16 b936 95b9 02b7
000000e0: 12d1 fbb6 6249 dd36 c0f3 d1b6 7de8 f636
000000f0: cc1b bbb6 b90a bdb5 08e1 0437 e5c2 db36
00000100: 2e6c f536 3c12 00b7 a1d6 cd36 75ff 9736
00000110: 94aa e0b6 79da 8db6 7fcb 8eb6 15c6 81b6
00000120: 175b ccb6 c085 9bb5 50f3 c236 643e 1c35
00000130: 94dd 0437 f6db e336 8a08 f936 ced3 1036
00000140: f0a9 0037 ccda f236 9227 aa36 60cd acb6
00000150: 296f 0d36 bdf8 f2b6 0ca2 9236 706e 00b6
00000160: 4734 fbb6 b2f0 6135 a4eb 0337 4b7d e236
00000170: fe25 0237 4c9f 38b6 c817 a7b6 0806 fd36
00000180: d566 9636 f304 8cb6 4df5 05b7 a6d4 9a36
00000190: 303c f5b6 3021 fab6 0e51 cd36 5bd8 d936
000001a0: e8e3 b936 d82c d5b6 83f2 d636 67c2 a4b6
000001b0: 0a45 0337 89a7 7736 cec1 c136 00ce f1b6
000001c0: eefb 0537 e486 8f36 a04a cbb6 eaeb e036
000001d0: 9400 f936 a29f d036 ed4c 0836 59bc d5b6
000001e0: 5d56 e836 e7b0 3435 3b65 3e36 ee11 7d36
000001f0: 17a6 b9b5 48ca 9036 586b c7b6 b8fe 0cb7

exp_avg_sq f4 [128]
0.00078703347 0.00018268416 0.0002925485 0.00020540315 6.471204e-05 0.0004930227 0.00075429474 0.00025945436
7.957009e-05 0.00065465487 0.004583611 0.0028191537 0.0006167333 4.6288416e-05 0.0018556096 0.0003124075
0.00010676162 0.0003688436 0.00022125902 6.550929e-05 0.00015216578 0.0012250565 0.00041622293 0.00050296687
0.00010069088 0.0003771051 0.00072624604 0.00078905275 0.0014103635 0.00031587703 0.00054372824 0.0017572009
0.0001303431 0.00019705079 4.510569e-05 0.00033861428 0.00053281174 0.0002863206 0.0002462508 0.00022462851
0.0004661684 0.00014974985 0.00043430657 0.00028076797 0.000105871884 0.00042560286 0.0002665187 0.00018171166
0.0005972997 0.0004257016 0.0013420585 0.0005394225 4.0806553e-05 0.0006889628 0.00040044056 0.00034713277
0.001231347 0.00089913985 0.0005424762 0.00044976568 0.00076495163 4.07581e-05 0.00046186597 0.0012667958
0.00022874349 0.00022445674 0.00049613323 0.0009028132 0.00044976562 0.0007584899 0.00031660515 0.00011906442
0.0033278544 0.00043738124 0.00042475847 0.00015303565 0.00028917126 0.00041068732 0.00049445435 0.00021663001
0.00072776206 0.00031454436 0.00011388047 7.014906e-05 7.074212e-05 0.0010744289 0.00032914281 0.00010856209
0.00034162065 9.815837e-05 0.00041465188 0.0002841714 0.00056725135 0.00089142064 0.0007591643 0.00015172655
0.001151113 0.00059773086 0.000797971 0.00022010971 0.001026593 0.00014286659 0.00039926602 0.0003645046
0.001483122 0.0016403518 0.0007750103 0.00047630703 0.0007797683 2.9308654e-05 7.5985154e-05 0.00041099786
0.00031940793 0.0042960686 0.00017124425 0.0016394659 0.0005128993 0.00028886483 0.0005439428 0.00039159704
0.0011004475 6.7643414e-05 0.00029692455 0.00035781044 0.00010649116 0.0006475801 0.0005666939 0.0011337992
00000000: ec50 4e3a e88e 3f39 3261 9939 7d61 5739
00000010: 03b6 8738 313e 013a ddbb 453a 6007 8839
00000020: dede a638 259d 2b3a 1e32 963b 8dc1 383b
00000030: 45ac 213a cf25 4238 ed37 f33a a0ca a339
00000040: 35e5 df38 5a61 c139 c401 6839 0862 8938
00000050: b18e 1f39 1392 a03a 7f38 da39 89d9 033a
00000060: 012a d338 31b6 c539 8c61 3e3a 6fd8 4e3a
00000070: f2db b83a 4c9c a539 fc88 0e3a e151 e63a
00000080: b6ac 0839 6b9f 4e39 de2f 3d38 0a88 b139
00000090: 64ac 0b3a 4d1d 9639 391b 8139 428a 6b39
000000a0: 1068 f439 2b06 1d39 a4b3 e339 0a34 9339
000000b0: 8907 de38 7323 df39 89bb 8b39 da89 3e39
000000c0: 1b94 1c3a b430 df39 03e8 af3a 0868 0d3a
000000d0: b427 2b38 839b 343a 39f2 d139 5fff b539
000000e0: 2665 a13a 41b4 6b3a f634 0e3a 87ce eb39
000000f0: 0987 483a adf3 2a38 9a26 f239 9d0a a63a
00000100: ddda 6f39 265c 6b39 f00e 023a c5aa 6c3a
00000110: 85ce eb39 65d5 463a 06fe a539 39b2 f938
00000120: 2218 5a3b 5150 e539 1eb2 de39 3278 2039
00000130: e99b 9739 8551 d739 459e 013a 2d27 6339
00000140: 49c7 3e3a 6ee9 a439 1dd3 ee38 fd1c 9338
00000150: 635b 9438 dad3 8c3a cd90 ac39 d4ab e338
00000160: 8c1b b339 60da cd38 a265 d939 d7fc 9439
00000170: 98b3 143a 3aae 693a a702 473a c918 1f39
00000180: f1e0 963a 0ab1 1c3a ed2e 513a 40cd 6639
00000190: bf8e 863a 75ce 1539 9454 d139 fb1a bf39
000001a0: 5165 c23a 1301 d73a 102a 4b3a d9b8 f939
000001b0: 5d69 4c3a dbdb f537 385a 9f38 337b d739
000001c0: 3576 a739 09c6 8c3b 0790 3339 59e3 d63a
000001d0: 1774 063a c872 9739 6297 0e3a 444f cd39
000001e0: e43c 903a c8db 8d38 8aac 9b39 8198 bb39
000001f0: 0254 df38 5dc2 293a 2f8e 143a fd9b 943a

exp_avg f4 [32, 128]
1.2654989e-06 1.0152128e-05 4.9523476e-07 5.6734757e-07 9.547982e-06 1.9372058e-06 -1.115838e-06 4.9450255e-06
-7.034389e-06 -4.4968715e-06 -3.7710205e-07 -1.4711975e-06 -8.950625e-06 7.705111e-06 2.9201044e-06 7.402864e-06
-9.396695e-06 -9.575556e-06 -2.9374014e-06 8.360525e-06 -1.0127676e-05 -6.1237125e-07 -9.0666745e-06 -1.3469727e-06
-1.9871363e-06 1.9144425e-06 -3.2709e-07 8.152272e-07 -6.578485e-07 -6.3313164e-06 2.4548658e-06 8.882135e-06
-7.983965e-06 8.32109e-06 7.931346e-06 2.1312901e-07 -4.541359e-07 2.5727982e-06 6.193462e-07 -8.2697525e-06
1.3261902e-06 -9.656349e-06 -5.0051386e-07 -7.986021e-06 8.020322e-06 5.24929e-06 -7.244188e-06 -8.130622e-06
-1.0965813e-05 9.647913e-06 -1.9202153e-06 4.93004e-06 9.313828e-06 3.521982e-06 9.5695605e-06 -2.373105e-06
-4.2934907e-06 3.8316128e-07 3.5871335e-06 1.9021238e-06 4.2495526e-06 -5.080081e-06 5.427113e-06 8.535979e-07
-4.2112943e-06 -1.8935519e-06 4.5011866e-06 1.0841846e-05 7.064777e-07 -1.0332402e-05 -4.2647416e-06 -5.621478e-06
-1.1993184e-06 -8.642853e-06 -3.1724826e-06 9.6902995e-06 -1.260277e-06 -2.2100996e-06 -1.1179682e-06 6.0980733e-06
9.167707e-07 2.493361e-06 1.026516e-05 -9.1267175e-06 6.290666e-06 -5.993537e-06 5.7952216e-06 -1.03859675e-05
-3.1420118e-06 6.0670077e-06 3.2428106e-06 9.811292e-06 2.3449356e-06 -6.6437997e-06 -7.2617313e-06 -2.7200713e-06
1.0515006e-05 -4.954811e-06 -3.6133213e-06 8.707112e-06 -4.3013315e-06 -4.936785e-06 3.6940986e-07 8.1819934e-07
9.964637e-06 -4.275474e-07 -1.2665295e-06 -6.357574e-06 6.471081e-07 7.876256e-06 3.1775944e-06 1.5201505e-06
1.3294288e-06 -1.2782248e-06 -6.823511e-07 2.3810028e-06 -2.1338828e-06 1.5840154e-06 8.945783e-06 -6.427325e-07
2.1007077e-06 1.0615405e-05 8.865809e-06 7.135529e-06 -6.556238e-06 8.539578e-06 -4.5501133e-06 -2.1510416e-06
-6.6247726e-06 9.519027e-06 -9.1823864e-07 -6.944653e-06 9.431512e-06 4.223897e-06 -5.7418897e-06 7.0524925e-06
-1.0940988e-05 -2.9231671e-06 -6.8775857e-06 2.4103563e-06 -5.0953045e-06 8.638067e-06 -2.2745908e-06 7.4775503e-06
-6.0636085e-06 -7.127754e-06 3.659773e-06 6.645685e-06 -5.742447e-06 4.1314684e-06 -7.310316e-06 -3.088087e-06
4.519523e-06 5.2391247e-06 3.9853217e-06 -3.1784064e-06 4.057632e-06 -9.073665e-06 -4.2994557e-06 9.983383e-06
-5.241779e-06 9.299783e-06 5.924796e-06 2.2389372e-06 -2.3817227e-06 -6.9379494e-06 -2.6042803e-06 -5.0941e-06
8.0844086e-07 -5.694322e-06 9.2564215e-07 -7.265806e-06 8.086883e-06 9.857452e-06 -8.262643e-06 -3.820903e-06
-9.642185e-06 8.379774e-06 -4.2271954e-06 6.6319963e-06 6.91905e-06 6.6322195e-06 5.8030296e-06 1.0272915e-06
4.2921642e-06 3.2484206e-06 6.4367e-06 -2.3664559e-06 2.9838463e-06 -7.408162e-06 -4.451303e-06 -5.141301e-06
-3.2566686e-06 3.4075324e-06 -1.3713807e-06 5.4534303e-06 6.0981965e-06 -1.1226701e-05 -7.8482635e-06 -9.365216e-06
1.3492934e-06 -7.890435e-06 -4.107053e-06 7.064e-06 -2.437371e-06 -3.6778388e-06 -1.997523e-06 5.234567e-06
-1.5036453e-07 -2.046865e-06 5.398751e-06 -9.477014e-06 6.308621e-06 -1.1228835e-06 1.0547544e-05 -8.350097e-06
6.79e-06 7.774452e-06 -4.490765e-06 1.0610054e-05 -2.7493725e-06 -6.64766e-06 -6.673015e-06 -3.4951736e-06
9.461367e-06 -7.9768715e-06 1.1101978e-06 7.4797344e-06 2.3806508e-06 1.2062692e-07 -5.9838003e-06 -9.3847154e-07
8.187117e-06 5.77545e-06 -5.2140263e-06 -1.11545305e-05 -3.4970303e-06 5.565286e-06 -6.2216495e-06 4.6610153e-06
-9.772956e-07 -7.725398e-06 6.0585107e-06 -5.3209044e-07 -2.504528e-06 2.679228e-06 7.142656e-06 5.120466e-06
-5.2194423e-06 8.329724e-06 4.4079284e-06 6.0390885e-06 -9.056559e-06 5.1658794e-06 4.6919496e-07 3.400424e-06
00000000: 36da a935 0f53 2a37 46f0 0435 d44b 1835
00000010: 4530 2037 f100 0236 e7c3 95b5 72ed a536
00000020: f108 ecb6 d5e3 96b6 8374 cab4 f675 c5b5
00000030: a42a 16b7 3345 0137 03f7 4336 1e66 f836
00000040: 7fa6 1db7 b3a6 20b7 2c20 45b6 2e44 0c37
00000050: 0aea 29b7 d561 24b5 121d 18b7 a1c9 b4b5
00000060: be5a 05b6 df79 0036 e89a afb4 fdd5 5a35
00000070: 0197 30b5 9871 d4b6 46be 2436 7b04 1537
00000080: def2 05b7 cf9a 0b37 df10 0537 75d8 6434
00000090: f6cf f3b4 56a8 2c36 2641 2635 51be 0ab7
000000a0: 8cff b135 b401 22b7 0d5b 06b5 b3fb 05b7
000000b0: 058f 0637 0f23 b036 1a13 f3b6 c168 08b7
000000c0: cff9 37b7 79dd 2137 0cdd 00b6 b96c a536
000000d0: 9642 1c37 315b 6c36 f38c 2037 a241 1fb6
000000e0: ce10 90b6 49b5 cd34 7cba 7036 7a4c ff35
000000f0: 6197 8e36 9075 aab6 8c1a b636 cd22 6535
00000100: be4e 8db6 f325 feb5 e608 9736 60e5 3537
00000110: c7a4 3d35 5459 2db7 da19 8fb6 21a0 bcb6
00000120: 44f8 a0b5 c500 11b7 d6e6 54b6 8593 2237
00000130: ca26 a9b5 3951 14b6 180d 96b5 0d9e cc36
00000140: 0118 7635 9e53 2736 8738 2c37 f41e 19b7
00000150: 6914 d336 171c c9b6 9374 c236 643f 2eb7
00000160: 5adb 52b6 3393 cb36 109f 5936 2e9b 2437
00000170: b05d 1d36 ceed deb6 cca9 f3b6 788a 36b6
00000180: 9b69 3037 8141 a6b6 637c 72b6 c314 1237
00000190: 2854 90b6 a9a6 a5b6 4e53 c634 3ba2 5b35
000001a0: ca2d 2737 ab89 e5b4 9ffd a9b5 2553 d5b6
000001b0: eeb4 2d35 4324 0437 a83e 5536 f907 cc35
000001c0: d36e b235 788f abb5 cf2a 37b5 51c9 1f36
000001d0: d433 0fb6 5b9a d435 d815 1637 3e88 2cb5
000001e0: e2f9 0c36 d118 3237 5cbe 1437 ba6d ef36
000001f0: a8fd dbb6 3545 0f37 2dad 98b6 9d5a 10b6
00000200: 5d4a deb6 e9b3 1f37 e17c 76b5 1d06 e9b6
00000210: 093c 1e37 00bb 8d36 75aa c0b6 73a4 ec36
00000220: 308f 37b7 a12b 44b6 03c6 e6b6 9bc1 2136
00000230: 55f8 aab6 37ec 1037 2ca5 18b6 abe7 fa36
00000240: 0076 cbb6 f12a efb6 6c9a 7536 00fe de36
00000250: 3eaf c0b6 0ba1 8a36 234b f5b6 ee3c 4fb6
00000260: 68a6 9736 bdcb af36 a7b9 8536 9b4c 55b6
00000270: cb26 8836 183b 18b7 0b44 90b6 4e7e 2737
00000280: 8ae2 afb6 4406 1c37 9ccd c636 a640 1636
00000290: afd5 1fb6 88cc e8b6 32c5 2eb6 fced aab6
000002a0: a203 5935 db11 bfb6 a579 7835 cccc f3b6
000002b0: e6ac 0737 6f61 2537 c89f 0ab7 4f35 80b6
000002c0: dfc4 21b7 db96 0c37 55d7 8db6 6a88 de36
000002d0: 302a e836 558a de36 a5b7 c236 78e1 8935
000002e0: 6905 9036 71ff 5936 d5fa d736 67cf 1eb6
000002f0: 173e 4836 a193 f8b6 675c 95b6 7083 acb6
00000300: 248d 5ab6 f6ac 6436 4810 b8b5 9cfc b636
00000310: 1c9f cc36 505a 3cb7 09ac 03b7 4c1f 1db7
00000320: 5e19 b535 2961 04b7 51cf 89b6 4c07 ed36
00000330: b791 23b6 cad0 76b6 2f0d 06b6 97a4 af36
00000340: e373 21b4 df5c 09b6 eb26 b536 77ff 1eb7
00000350: a4ae d336 fcb5 96b5 5bf5 3037 6517 0cb7
00000360: a8d5 e336 046f 0237 61af 96b6 d601 3237
00000370: dc81 38b6 f70e dfb6 c3e8 dfb6 a08e 6ab6
00000380: 43bc 1e37 67d4 05b7 1b02 9535 6efa fa36
00000390: 45c3 1f36 ad85 0134 74c8 c8b6 46eb 7bb5
000003a0: 665b 0937 bdca c136 25f4 aeb6 5824 3bb7
000003b0: 86ae 6ab6 71bd ba36 90c3 d0b6 d165 9c36
000003c0: 9f2b 83b5 559c 01b7 364a cb36 fad4 0eb5
000003d0: 7713 28b6 c9cc 3336 f3aa ef36 78d0 ab36
000003e0: ab22 afb6 e4bf 0b37 d1e7 9336 60a3 ca36
000003f0: a0f1 17b7 9156 ad36 aae5 fb34 d732 6436
