corai/tests/pytorch_light/model_hp_opt/epoch=119-step=119.ckpt (torch, 10583 bytes, 21 tensors)

model._layers.0.weight f4 [2, 1]
0.0005313637 -0.059070628
00000000: 374b 0b3a 0bf4 71bd

model._layers.0.bias f4 [2]
0.0 -0.059522253
00000000: 0000 0000 9bcd 73bd

model._layers.1.weight f4 [32, 2]
-0.0018362171 0.05862671 0.0016815021 0.00094915053 -0.0018223278 0.00043298508 -0.0023310052 -0.00070686225
-0.00050678774 -0.01132988 0.0001493544 -0.0024569656 -7.530827e-06 0.1920666 -0.0019591001 -8.580688e-05
0.00024777674 -0.000801243 -2.1158626e-06 0.002569151 0.00021648627 -0.033989355 0.0003923632 0.022997817
0.0095842015 0.002362449 0.0020632546 0.01401252 0.0006723822 -3.218463e-05 -0.00012676434 0.25975004
-0.000956882 0.0019926992 0.0006161212 -0.00049257826 0.00013534007 -0.00023096148 -0.00014006793 0.026782908
-0.00254292 -0.016390206 -0.0055424604 -0.001508639 -0.000214758 -0.014777067 0.00086884317 -0.0005773329
-0.0022065649 0.103791334 -2.6105452e-05 0.079667926 -0.0015991667 -0.00055735325 -0.0084346095 0.0016951152
0.000398215 -0.005091536 7.583003e-07 -0.0001566522 0.005974258 -0.022275027 -0.002474885 -0.00031677115
00000000: 39ad f0ba 9022 703d d965 dc3a 6ad0 783a
00000010: 2ddb eeba 4602 e339 c7c3 18bb b94c 39ba
00000020: f3d9 04ba f6a0 39bc 049c 1c39 0b05 21bb
00000030: 50b1 fcb6 1bad 443e 3f64 00bb 38f3 b3b8
00000040: 08e8 8139 820a 52ba 3efe 0db6 345f 283b
00000050: 9700 6339 6c38 0bbd 19b6 cd39 eb65 bc3c
00000060: 0e07 1d3c 51d3 1a3b ab37 073b c594 653c
00000070: ce42 303a fcfd 06b8 0bec 04b9 f5fd 843e
00000080: 44d7 7aba f297 023b 3283 213a 5e20 01ba
00000090: 13ea 0d39 402e 72b9 33df 12b9 d467 db3c
000000a0: 1ea7 26bb c144 86bc 879d b5bb 86bd c5ba
000000b0: a930 61b9 831b 72bc 14c3 633a 2858 17ba
000000c0: 049c 10bb 8d90 d43d 08fd dab7 f028 a33d
000000d0: 219b d1ba 581b 12ba 5131 0abc a12e de3a
000000e0: 83c7 d039 e6d6 a6bb 008e 4b35 0143 24b9
000000f0: b5c3 c33b 1e7a b6bc ae31 22bb 4e14 a6b9

model._layers.1.bias f4 [32]
0.074714474 0.0 0.0 0.0 0.079768695 -0.060027633 -0.060070757 -0.053656805
0.0 0.0 -0.060320485 -0.060127374 0.0 0.086853445 0.0 -0.05992069
0.0 -0.053867064 0.0 -0.05903179 -0.06010245 -0.058097813 0.0 0.0
-0.044081353 -0.046628706 0.0 0.0 0.0 0.0 -0.060205404 0.09393027
00000000: e703 993d 0000 0000 0000 0000 0000 0000
00000010: c55d a33d 89df 75bd c10c 76bd 3dc7 5bbd
00000020: 0000 0000 0000 0000 9d12 77bd 1f48 76bd
00000030: 0000 0000 38e0 b13d 0000 0000 666f 75bd
00000040: 0000 0000 b6a3 5cbd 0000 0000 51cb 71bd
00000050: fd2d 76bd f9f7 6dbd 0000 0000 0000 0000
00000060: a68e 34bd befd 3ebd 0000 0000 0000 0000
00000070: 0000 0000 0000 0000 f199 76bd 835e c03d

model._layers.2.weight f4 [2, 32]
-0.038819917 0.0024482114 7.767487e-05 0.014892494 -0.33431745 -0.01168438 0.001362394 0.031636715
0.0023928178 0.0005784176 -0.007866484 0.008684933 -0.01631194 -0.11217361 0.0004080239 0.19084914
0.00023422005 -0.00029390803 2.046163e-05 0.08352404 -0.0008892362 -0.014039435 0.0012626206 0.002493191
0.102363884 0.14587271 -0.013297177 -4.266476e-07 -0.0019144408 -4.063721e-05 -0.0020651224 -0.07804348
0.05540043 0.00014557775 0.0003888946 0.00022951391 0.0016528848 -0.07535009 0.1744479 -0.02108718
0.00038781285 0.0025238579 0.004969773 0.0071890936 -0.011904482 -0.1359317 0.00020313878 -0.08652475
0.000104730716 0.0003502913 0.004364325 -0.019691052 -0.0007062347 -0.03218242 0.008484184 4.1152376e-05
-0.036528517 0.0065896264 -0.0053329477 3.3111064e-06 0.0008910127 0.00047749293 0.0014917664 -8.557196e-05
00000000: a201 1fbd 2c72 203b 61e5 a238 a6ff 733c
00000010: a82b abbe d76f 3fbc 5b92 b23a 8095 013d
00000020: d2d0 1c3b f3a0 173a 6de2 00bc 404b 0e3c
00000030: 9ea0 85bc 47bb e5bd 0aec d539 f56d 433e
00000040: f798 7539 ab17 9ab9 04a5 ab37 a70e ab3d
00000050: a21b 69ba a905 66bc 847e a53a ce64 233b
00000060: 28a4 d13d a85f 153e 67dc 59bc 000e e5b4
00000070: f9ed faba df71 2ab8 0157 07bb 43d5 9fbd
00000080: 90eb 623d 3ba6 1839 8de4 cb39 aca9 7039
00000090: 9ca5 d83a 2651 9abd 78a2 323e 06bf acbc
000000a0: 5c53 cb39 4f67 253b 7ad9 a23b 7d92 eb3b
000000b0: 040b 43bc ae31 0bbe a701 5539 e333 b1bd
000000c0: e0a2 db38 4da7 b739 9d02 8f3b 214f a1bc
000000d0: 9c22 39ba b7d1 03bd 3f01 0b3c 079b 2c38
000000e0: ed9e 15bd cbed d73b 02c0 aebb 6034 5e36
000000f0: da92 693a 0458 fa39 6087 c33a 1975 b3b8

model._layers.2.bias f4 [2]
-0.06201831 -0.060314566
00000000: e906 7ebd 680c 77bd

model._layers.3.weight f4 [1, 2]
-1.2715566 0.59362227
00000000: 5ec2 a2bf a1f7 173f

exp_avg f4 [2, 1]
-8.774873e-10 -5.6304805e-07
00000000: ae33 71b0 5e24 17b5

exp_avg_sq f4 [2, 1]
7.5036236e-14 2.9370531e-08
00000000: 72f7 a829 7b4a fc32

exp_avg f4 [2]
0.0 -5.73678e-07
00000000: 0000 0000 dafe 19b5

exp_avg_sq f4 [2]
0.0 1.8534854e-08
00000000: 0000 0000 9336 9f32

exp_avg f4 [32, 2]
1.4124443e-08 6.448596e-07 2.6591632e-08 2.3398252e-08 1.44943675e-08 -2.6240288e-09 -1.0844984e-09 -8.7770955e-09
8.632723e-09 -1.547407e-07 -2.8885387e-09 -4.6624233e-09 6.769203e-09 2.0000732e-06 -9.0731156e-08 -1.3517392e-08
-2.110626e-09 -8.420049e-09 2.8870285e-12 1.6221732e-08 1.7164085e-10 -3.4502204e-07 4.1210515e-09 2.7842887e-07
2.1125584e-07 2.3003335e-09 -7.751291e-09 2.7811393e-07 -5.930207e-09 -1.3828838e-10 1.7010945e-09 2.7289336e-06
-7.1518047e-10 -9.8071276e-09 -4.2280522e-08 -2.1626336e-09 -1.6527945e-09 2.2626656e-09 4.418274e-10 4.0398763e-07
-1.1777676e-08 -1.8862156e-07 -1.4980856e-07 2.0182648e-08 6.8069314e-11 -2.8578827e-07 -1.8881652e-09 7.532459e-09
3.2821827e-09 1.0757987e-06 6.362028e-10 8.788696e-07 2.020593e-08 7.850901e-09 -1.9416312e-07 -1.779919e-08
-3.1063725e-09 -1.4267688e-07 -1.6296696e-10 -1.4318848e-09 1.5657577e-07 -2.5000318e-07 -7.349663e-09 4.2564916e-09
00000000: f5a7 7232 6a1a 2d35 9e6b e432 4dfd c832
00000010: e702 7932 6752 34b1 650d 95b0 13ca 16b2
00000020: 1e4f 1432 cd26 26b4 b67f 46b1 1c33 a0b1
00000030: 8a96 e831 ff38 0636 fbd7 c2b3 1e3a 68b2
00000040: 860a 11b1 c4a7 10b2 1528 4b2c f757 8b32
00000050: 9bb8 3c2f 783b b9b4 2799 8d31 f97a 9534
00000060: 90d5 6234 e513 1e31 8a2a 05b2 b04f 9534
00000070: a7c2 cbb1 b80c 18af f1cb e930 b922 3736
00000080: 5a96 44b0 347c 28b2 ed97 35b3 749d 14b1
00000090: 8928 e3b0 3c7d 1b31 aee5 f22f a3e3 d834
000000a0: c456 4ab2 e687 4ab4 10db 20b4 1d5e ad32
000000b0: 9eaf 952e 716e 99b4 f4c0 01b1 1b68 0132
000000c0: c58c 6131 2964 9035 cbe0 2e30 76eb 6b35
000000d0: 4f91 ad32 a1e0 0632 277b 50b4 d5e4 98b2
000000e0: e277 55b1 b932 19b4 1f2f 33af f8cb c4b0
000000f0: 381f 2834 2d38 86b4 5288 fcb1 7f40 9231

exp_avg_sq f4 [32, 2]
6.0555326e-13 1.5217471e-11 3.6368995e-13 3.162605e-13 6.066683e-13 8.13901e-14 5.5528683e-13 1.3292987e-13
2.3084407e-13 2.2421654e-12 3.8440256e-14 5.0954293e-13 9.9968956e-14 7.3668946e-11 7.8968115e-13 3.1174377e-13
3.5936938e-14 1.3938481e-13 1.1449405e-18 4.892169e-13 7.409828e-15 2.0730356e-10 5.2424922e-14 4.4886863e-12
1.0105329e-12 5.507807e-13 5.856471e-13 1.0996257e-12 2.1872863e-13 4.653394e-16 1.7797321e-14 4.7515755e-11
1.8871608e-13 5.922216e-13 6.816965e-13 2.6483978e-14 1.7674967e-14 3.639003e-14 4.739401e-15 1.6857454e-12
5.115266e-13 7.048094e-12 9.032069e-13 5.9217214e-13 7.702578e-15 1.1324383e-12 2.0071016e-13 2.2588176e-13
5.707634e-13 8.0917995e-11 3.1942464e-15 1.3586296e-11 6.2340264e-13 2.2731257e-13 9.814525e-13 6.1645654e-13
8.3214035e-14 8.9016685e-13 4.3705997e-16 1.13830666e-14 9.154499e-13 9.784715e-12 5.3092367e-13 1.1536125e-13
00000000: b672 2a2b b3da 852d 3fbd cc2a f109 b22a
00000010: 0fc3 2a2b 3346 b729 a24c 1c2b 6daa 152a
00000020: 23f4 812a 43c7 1d2c 991e 2d29 706c 0f2b
00000030: 2e1c e129 eeff a12e 8646 5e2b 037f af2a
00000040: 78d8 2129 f0ee 1c2a a1f6 a821 cbb3 092b
00000050: cd7b 0528 c4ee 632f d219 6c29 7eee 9d2c
00000060: 4938 8e2b ef07 1b2b 52d8 242b 31c2 9a2b
00000070: 3c44 762a fd1f 0626 d44d a028 fcf9 502e
00000080: b579 542a 10b2 262b 69e1 3f2b e58b ee28
00000090: b333 9f28 d9e2 2329 42c1 aa27 613f ed2b
000000a0: 60fb 0f2b 96fb f72c eb3a 7e2b 80ae 262b
000000b0: dfc1 0a28 6460 9f2b c4fa 612a fc51 7e2a
000000c0: d6a7 202b c8f0 b12e 722b 6627 3d03 6f2d
000000d0: e578 2f2b 63ee 7f2a 8e20 8a2b 6084 2d2b
000000e0: a061 bb29 488f 7a2b abf2 fb25 210f 4d28
000000f0: 8fd6 802b 7022 2c2d 1571 152b 9ee2 012a

exp_avg f4 [32]
7.2776066e-07 0.0 0.0 0.0 3.382451e-07 -5.490346e-07 -5.431043e-07 -5.4352245e-07
0.0 0.0 -4.059341e-07 -5.325442e-07 0.0 7.61381e-07 0.0 -5.590893e-07
0.0 -5.4522235e-07 0.0 -5.775272e-07 -5.376712e-07 -5.6033434e-07 0.0 0.0
-2.980387e-07 -3.419404e-07 0.0 0.0 0.0 0.0 -5.086253e-07 9.394187e-07
00000000: 555b 4335 0000 0000 0000 0000 0000 0000
00000010: 0d98 b534 5f61 13b5 d8c9 11b5 94e6 11b5
00000020: 0000 0000 0000 0000 28ef d9b4 29f4 0eb5
00000030: 0000 0000 b461 4c35 0000 0000 5314 16b5
00000040: 0000 0000 655b 12b5 0000 0000 5e07 1bb5
00000050: 7c54 10b5 e269 16b5 0000 0000 0000 0000
00000060: 2102 a0b4 ee93 b7b4 0000 0000 0000 0000
00000070: 0000 0000 0000 0000 7788 08b5 5d2c 7c35

exp_avg_sq f4 [32]
1.0046318e-08 0.0 0.0 0.0 4.193388e-06 9.6500564e-08 1.2154905e-07 3.0344766e-10
0.0 0.0 1.4146091e-06 1.7244643e-07 0.0 1.8914753e-07 0.0 5.978307e-08
0.0 3.242052e-10 0.0 7.72618e-09 1.4672648e-07 1.2343368e-08 0.0 0.0
8.724837e-07 6.1051367e-07 0.0 0.0 0.0 0.0 3.1767283e-07 9.711382e-10
00000000: 2d98 2c32 0000 0000 0000 0000 0000 0000
00000010: eeb4 8c36 bf3b cf33 2683 0234 76d2 a62f
00000020: 0000 0000 0000 0000 99dd bd35 b729 3934
00000030: 0000 0000 7a18 4b34 0000 0000 1762 8033
00000040: 0000 0000 d33b b22f 0000 0000 19bc 0432
00000050: de8b 1d34 b50e 5432 0000 0000 0000 0000
00000060: a034 6a35 2ee2 2335 0000 0000 0000 0000
00000070: 0000 0000 0000 0000 9f8c aa34 e378 8530

exp_avg f4 [2, 32]
-3.9515498e-07 9.919047e-08 1.5991636e-08 2.8740456e-07 -3.3667927e-06 -1.2897303e-07 -1.2355398e-08 3.4942497e-07
3.5367593e-09 2.185482e-09 -1.6603907e-07 2.0135407e-07 -3.0716237e-07 -1.1392503e-06 -1.0073095e-08 1.9809568e-06
-4.9417634e-09 2.655761e-09 -2.1532685e-09 9.033158e-07 -1.6422655e-08 -1.395192e-07 2.51627e-08 8.354102e-09
1.0416961e-06 1.488267e-06 -2.649267e-07 1.0372744e-10 1.2003146e-08 -6.831676e-10 -1.7317277e-08 -7.772331e-07
6.192283e-07 1.4523207e-09 5.8590244e-11 2.3354922e-09 2.680328e-08 -9.358582e-07 1.812863e-06 -2.4586453e-07
-4.6974822e-08 1.0286353e-08 1.2684475e-07 1.6764662e-07 -2.4503848e-07 -1.5182807e-06 -3.266856e-10 -1.0033668e-06
-1.2975196e-10 -1.0291217e-09 1.3102246e-07 -2.1476622e-07 -1.4769393e-08 -3.5401337e-07 1.9490558e-07 9.891766e-10
-5.5801627e-07 8.361161e-08 -1.4650342e-07 -1.03657874e-10 -1.3181172e-09 8.8254835e-09 6.250677e-08 9.726467e-09
00000000: b025 d4b4 8a02 d533 fb5d 8932 954c 9a34
00000010: 0ff1 61b6 d67b 0ab4 9d43 54b2 9a98 bb34
00000020: 540b 7331 682f 1631 7948 32b4 c933 5834
00000030: 13e8 a4b4 58e8 98b5 f10d 2db2 94f0 0436
00000040: 36cc a9b1 a480 3631 b3f8 13b1 647b 7235
00000050: cd11 8db2 bfce 15b4 5d25 d832 bb85 0f32
00000060: 68d0 8b35 77c0 c735 403b 8eb4 5c19 e42e
00000070: 6536 4e32 a5c9 3bb0 18c1 94b2 0da3 50b5
00000080: 0b39 2635 fe9a c730 60d7 802e 6a7e 2031
00000090: 093d e632 b037 7bb5 8051 f335 5dff 83b4
000000a0: 5dc1 49b3 dcb7 3032 d232 0834 5a02 3434
000000b0: d58d 83b4 bac7 cbb5 e998 b3af 6cab 86b5
000000c0: eea9 0eaf 0071 8db0 2eaf 0c34 7d9a 66b4
000000d0: 7abc 7db2 3a0f beb4 3d47 5134 8ff3 8730
000000e0: 96ca 15b5 f88d b333 8e4e 1db4 32f2 e3ae
000000f0: 2029 b5b0 e39e 1732 763b 8633 7419 2732

exp_avg_sq f4 [2, 32]
2.3388813e-10 8.0684445e-13 2.6665933e-13 1.1350117e-12 1.2793413e-09 1.6670219e-11 6.3356124e-13 1.2817502e-11
5.4609805e-13 6.358178e-14 1.056414e-12 9.700561e-13 1.1662751e-12 3.5482092e-10 2.3743683e-13 7.859893e-11
9.0723524e-14 4.109349e-14 1.924027e-14 2.0106186e-11 2.1927227e-13 4.2459872e-10 3.3533118e-13 5.26713e-13
7.2456424e-10 3.4808928e-10 1.0989905e-12 2.3201866e-16 5.990786e-13 3.4277952e-15 4.0109563e-13 1.4729173e-09
1.1546915e-11 1.1270039e-14 3.0293554e-14 2.2919648e-14 3.5613477e-13 3.828128e-12 8.212901e-11 6.206452e-12
6.931254e-13 5.1831494e-13 9.379595e-13 9.79221e-13 1.0666546e-12 1.1205439e-11 8.020297e-15 6.8669627e-12
1.7232148e-15 3.2348686e-14 8.6852075e-13 1.5444188e-11 4.929145e-13 1.3757801e-11 9.827268e-13 5.7653005e-15
1.6473698e-12 3.7438616e-12 8.9718245e-13 2.3049257e-16 1.9812854e-13 1.2054228e-13 8.2548356e-13 1.4402157e-13
00000000: d494 802f 451b 632b a91d 962a 1bbd 9f2b
00000010: d2d4 af30 ffa1 922d e654 322b e67c 612d
00000020: 83b6 192b 672c 8f29 53ad 942b f485 882b
00000030: 7d23 a42b 9b10 c32f 41aa 852a 44d7 ac2e
00000040: 8d4a cc29 9111 3929 0b4d ad28 1bdb b02d
00000050: eee0 762a f56c e92f 51c6 bc2a ac41 142b
00000060: ad2a 4730 365d bf2f 4eab 9a2b e9bf 8525
00000070: 2aa0 282b a9ff 7627 f9cb e12a ac6f ca30
00000080: af22 4b2d e205 4b28 176e 0829 1c71 ce28
00000090: 6e7c c82a b6b0 862c 869a b42e c05e da2c
000000a0: f318 432b 87e4 112b 8d01 842b 28d0 892b
000000b0: 481e 962b d020 452d 177b 1028 1a9c f12c
000000c0: 6857 f826 7faf 1129 8477 742b 38d9 872d
000000d0: 3cbe 0a2b a107 722d 774e 8a2b 83b7 cf27
000000e0: c1d8 e72b b5b9 832c cf88 7c2b b3de 8425
000000f0: aa12 5f2a f2b7 072a 5c5a 682b 6427 222a

exp_avg f4 [2]
1.8950796e-07 -4.165585e-07
00000000: 8d7b 4b34 5da3 dfb4

exp_avg_sq f4 [2]
1.5463931e-05 1.2654855e-06
00000000: 8ab8 8137 c0d9 a935

exp_avg f4 [1, 2]
-1.305957e-05 6.516984e-06
00000000: 6d1a 5bb7 77ac da36

exp_avg_sq f4 [1, 2]
1.5996694e-10 1.5668793e-11
00000000: b1e2 2f2f fcd2 892d
