corai/tests/pytorch_light/model_hp_opt/epoch=379-step=379-v4.ckpt (torch, 9495 bytes, 21 tensors)

model._layers.0.weight f4 [4, 1]
0	0x3e875178	0.26429343
1	0xbfccfa76	-1.6013935
2	0x3e4e24f2	0.20131281
3	0xbf0a7528	-0.54085016

model._layers.0.bias f4 [4]
0	0xbefdfa96	-0.49605244
1	0x3f93c7ab	1.1545309
2	0x3d425793	0.0474468
3	0x3e74d2a9	0.23908485

model._layers.1.weight f4 [8, 4]
0	0xbf2034d0	-0.62580585
1	0xbf39f7f2	-0.7264396
2	0xbf88b9b3	-1.0681671
3	0x3e389974	0.18027288
4	0x3ef11525	0.47086444
5	0xbdaf1550	-0.08548987
6	0xbeb1b1f8	-0.34706092
7	0x3dc33fc6	0.09533648
8	0xbf8e436b	-1.1114324
9	0xbeec811a	-0.46192247
10	0xbea51332	-0.32241207
11	0xbd826237	-0.06366389
12	0x3f7cb501	0.9871369
13	0x3f407846	0.7518352
14	0x3f8a7af9	1.0818778
15	0x3d4668ff	0.048439976
16	0xbfd1ceed	-1.6391274
17	0x3ee0d51d	0.43912593
18	0x3f491ae4	0.78556657
19	0x3e8fadf7	0.28062412
20	0x3fa3f32b	1.2808584
21	0x3efeb605	0.49748245
22	0x3fac3dad	1.3456322
23	0x3f6e2783	0.9302904
24	0xbf64f3e3	-0.8943464
25	0xbf887765	-1.0661436
26	0xbd110ff1	-0.035415594
27	0x3f6c55e4	0.9231856
28	0x3fc7ebf5	1.5618883
29	0x3f0eab21	0.5572987
30	0xbeb6b62f	-0.3568587
31	0xbe938b38	-0.28817153

model._layers.1.bias f4 [8]
0	0x3e79500a	0.24346939
1	0x3cdda24b	0.027054926
2	0x3c6677ab	0.014066617
3	0xbdfff7c5	-0.1249843
4	0x3f3f9cfc	0.74848914
5	0x3dce1320	0.100622416
6	0x3c4f252e	0.012643142
7	0x3d04784a	0.03234128

model._layers.2.weight f4 [4, 8]
0	0x3f620c22	0.88299763
1	0x3f75a9ef	0.95962423
2	0x3f47c719	0.78038174
3	0xbfbdf9fa	-1.4841912
4	0x3f84903e	1.0356519
5	0x3e9e089d	0.30865946
6	0x3d8e5429	0.06949646
7	0xbf717e80	-0.9433365
8	0xbec1a840	-0.37823677
9	0xbf5f2d1a	-0.87178195
10	0xbe6c402d	-0.23071356
11	0x3f9e8d70	1.2386913
12	0xbd2cee61	-0.042219523
13	0x3efd2d4a	0.49448615
14	0xbfbd60a1	-1.4795114
15	0x3ef6c58d	0.48197594
16	0xbd90bdde	-0.07067464
17	0xbf1555c8	-0.58334017
18	0x3f91f56a	1.140302
19	0xbf20b5d2	-0.62777436
20	0xbe9bd55f	-0.30436227
21	0xbfafb683	-1.3727573
22	0xbcdf2291	-0.027238162
23	0xbefe452c	-0.4966215
24	0x3f327c66	0.69721067
25	0xbf9a492d	-1.2053581
26	0x3f9725e5	1.180844
27	0x3e79b6fe	0.24386212
28	0x3f5476f6	0.8299402
29	0xbfa5709b	-1.292499
30	0x3e1d61ab	0.15369289
31	0xbf5fb489	-0.8738485

model._layers.2.bias f4 [4]
0	0xbc41f66f	-0.0118385395
1	0x3d96cec9	0.0736366
2	0xbdd9c98f	-0.106341474
3	0x3bf5f2ac	0.0075057354

model._layers.3.weight f4 [1, 4]
0	0x3e6a4fc2	0.22881988
1	0xbe81a683	-0.2532235
2	0x3e86d44b	0.26333842
3	0x3e711862	0.23544458

exp_avg f4 [4, 1]
0	0xba3d6ba8	-0.000722582
1	0x3886e376	6.431986e-05
2	0x39a7f6a4	0.00032036484
3	0xb9a6db01	-0.00031825158

exp_avg_sq f4 [4, 1]
0	0x3bf1cd90	0.0073792413
1	0x362b9bd4	2.557169e-06
2	0x3a7691a7	0.0009405859
3	0x37b3e58d	2.1445356e-05

exp_avg f4 [4]
0	0xba956126	-0.001139675
1	0xb7c6f6d8	-2.3718385e-05
2	0x3a96899a	0.00114851
3	0xb94618f2	-0.00018892044

exp_avg_sq f4 [4]
0	0x3a9d5409	0.0012003194
1	0x37806784	1.5306992e-05
2	0x39951ba7	0.00028440097
3	0x3822ea37	3.884194e-05

exp_avg f4 [8, 4]
0	0x3a06a92f	0.00051369047
1	0xb9a7304a	-0.000318887
2	0x3908f184	0.00013059942
3	0xb93a4b48	-0.00017766387
4	0xb9b08495	-0.00033668117
5	0x3984af93	0.00025307815
6	0xb9f3064f	-0.00046353272
7	0x39f7b807	0.00047248622
8	0xb8bb87b4	-8.9421315e-05
9	0x3a9e5cee	0.0012082139
10	0x39efb67c	0.00045721594
11	0x37f850a8	2.9601462e-05
12	0x36875e30	4.0342784e-06
13	0x3a19bc96	0.00058645883
14	0xb9496f62	-0.00019210347
15	0x39ad4c9f	0.00033054219
16	0x38301807	4.1984047e-05
17	0xb983cf36	-0.0002514065
18	0x391b9d01	0.0001484044
19	0xb91f1afa	-0.00015173471
20	0xb92fb146	-0.0001675534
21	0x39a2c129	0.00031042963
22	0x3860d094	5.3600015e-05
23	0x37d0d0a0	2.489268e-05
24	0x39b86d27	0.0003517654
25	0xba034579	-0.00050076057
26	0xb7c510f8	-2.3492132e-05
27	0xb8b6a0eb	-8.7084096e-05
28	0x3987e82e	0.00025922194
29	0xba8164c0	-0.0009871945
30	0xb9736c91	-0.0002321473
31	0xb9319791	-0.00016936498

exp_avg_sq f4 [8, 4]
0	0x36895023	4.0922473e-06
1	0x376db92c	1.41694145e-05
2	0x3639b317	2.7671392e-06
3	0x37457b48	1.1770819e-05
4	0x363101d5	2.6376122e-06
5	0x379a300e	1.8380608e-05
6	0x3646f220	2.9645234e-06
7	0x37701eaf	1.4312259e-05
8	0x38f25afe	0.00011556408
9	0x3a2df2c6	0.00066356023
10	0x38a94396	8.071137e-05
11	0x3a0aedda	0.0005299725
12	0x3811b82a	3.474221e-05
13	0x38bc3097	8.973589e-05
14	0x379e8a97	1.8899604e-05
15	0x3895db52	7.145725e-05
16	0x35c5a51a	1.4725695e-06
17	0x3644c0de	2.931854e-06
18	0x35ce9fd5	1.5394713e-06
19	0x362d8fba	2.5862669e-06
20	0x386c568d	5.634739e-05
21	0x392dd9e1	0.00016579732
22	0x38392de6	4.4150183e-05
23	0x39277437	0.00015969654
24	0x38031067	3.124811e-05
25	0x39878371	0.00025847138
26	0x36df09cd	6.647059e-06
27	0x39377b96	0.0001749828
28	0x3836d43d	4.3589844e-05
29	0x3919fc4b	0.00014685203
30	0x38075e75	3.2274478e-05
31	0x38f036cb	0.00011454298

exp_avg f4 [8]
0	0xb9e2b896	-0.00043243606
1	0xba3cf999	-0.0007208824
2	0x3ad2d7fe	0.0016086099
3	0xba024f8d	-0.00049709604
4	0x39973a48	0.00028844387
5	0x39da8b9b	0.00041684214
6	0xba31797d	-0.00067701173
7	0xba9b098c	-0.0011828407

exp_avg_sq f4 [8]
0	0x377fbe90	1.5243553e-05
1	0x37932607	1.7541473e-05
2	0x3a36cd9b	0.00069733866
3	0x38bfc70d	9.144666e-05
4	0x3685bde5	3.9858155e-06
5	0x393c0a76	0.00017932974
6	0x399cb612	0.00029890292
7	0x3927e79e	0.00016012645

exp_avg f4 [4, 8]
0	0xb9893776	-0.00026171998
1	0x394a634c	0.00019301212
2	0xb94e17f2	-0.00019654611
3	0xb93771b0	-0.00017494592
4	0x38e72f9f	0.000110238085
5	0x39c659b9	0.00037832352
6	0xb9c0b208	-0.00036753737
7	0xb7f2ea39	-2.8957716e-05
8	0x39f75260	0.00047172885
9	0xb95ed267	-0.00021249951
10	0x3983c963	0.00025136312
11	0x397e7ef5	0.00024270623
12	0x3872538a	5.7775098e-05
13	0xb9139478	-0.00014074321
14	0xb757d92e	-1.2865565e-05
15	0x387e261f	6.0593822e-05
16	0xbacce8e4	-0.0015633372
17	0x396eaf01	0.00022762643
18	0xb9e5e540	-0.00043849088
19	0x3a7e9610	0.0009711692
20	0xba453cba	-0.00075240026
21	0x397dda7c	0.00024209352
22	0xbacf5478	-0.001581802
23	0x3a1695e7	0.0005744383
24	0xb997cc37	-0.00028953116
25	0x3920ddab	0.00015341367
26	0xb85bf65a	-5.24431e-05
27	0x39dcb4cc	0.00042096374
28	0xb88dfbba	-6.770292e-05
29	0xb8df04c6	-0.00010634358
30	0xb9a43b9d	-0.00031324933
31	0x381accd9	3.690724e-05

exp_avg_sq f4 [4, 8]
0	0x383578fd	4.3266442e-05
1	0x3859b47f	5.190493e-05
2	0x3807ae08	3.2348587e-05
3	0x382c343f	4.1056654e-05
4	0x384f6871	4.9449915e-05
5	0x389aeae6	7.3870455e-05
6	0x38d03e17	9.929778e-05
7	0x3804f5e7	3.1700267e-05
8	0x35f9dfa5	1.8617035e-06
9	0x359e3daf	1.178987e-06
10	0x355fdbb7	8.33937e-07
11	0x35697179	8.696439e-07
12	0x3617647b	2.255924e-06
13	0x3624a708	2.453513e-06
14	0x359ddb02	1.1761151e-06
15	0x358f23c3	1.0664738e-06
16	0x39bee533	0.0003641039
17	0x39b3d29d	0.0003429846
18	0x392f3d46	0.00016712127
19	0x39020215	0.00012398542
20	0x39f2ca9d	0.00046308796
21	0x39e0b2ad	0.00042857733
22	0x3a01e8f5	0.0004955673
23	0x39751e19	0.00023376233
24	0x3705ae30	7.967974e-06
25	0x369091e8	4.30852e-06
26	0x365d8cb5	3.3013469e-06
27	0x3698c56a	4.552935e-06
28	0x371dc3f0	9.4035495e-06
29	0x37262046	9.901885e-06
30	0x3710afe5	8.6240225e-06
31	0x36a71abc	4.9801e-06

exp_avg f4 [4]
0	0x38e17f72	0.000107525746
1	0x389731ca	7.209515e-05
2	0x3a0ad0c6	0.0005295392
3	0x393c42d6	0.00017953975

exp_avg_sq f4 [4]
0	0x38df9b17	0.00010662356
1	0x369a563b	4.599596e-06
2	0x3a60f33f	0.00085811684
3	0x3785e97d	1.5963562e-05

exp_avg f4 [1, 4]
0	0xbae35015	-0.0017342592
1	0x3ad26c24	0.0016053957
2	0xbb010b3c	-0.0019690534
3	0x38ea43e8	0.00011170638

exp_avg_sq f4 [1, 4]
0	0x3a7149df	0.0009204428
1	0x3902dc25	0.00012479776
2	0x39c102a5	0.000368138
3	0x39cbba2c	0.00038857886
