corai/tests/pytorch_light/model_hp_opt/epoch=59-step=59-v2.ckpt (torch, 8855 bytes, 21 tensors)

model._layers.0.weight f4 [2, 1]
000000 c7 cb 13 bf 41 09 d7 3e
       -0.57732815 0.41999248

model._layers.0.bias f4 [2]
000000 c7 a1 15 bf f3 64 31 bf
       -0.5844998 -0.6929466

model._layers.1.weight f4 [4, 2]
000000 c2 0a 2d 3c eb a6 06 bf 56 45 ae 3e 1a d9 cf 3f
       0.010561647 -0.52598447 0.34037274 1.6238129
000010 0e be 4f ba 3c 73 79 be a6 d8 a1 3c 45 c9 0a bf
       -0.00079247437 -0.24360365 0.019756626 -0.5421336

model._layers.1.bias f4 [4]
000000 47 e0 35 bf 73 9c 21 3f e1 33 3d bf 05 52 30 bf
       -0.71045345 0.6312935 -0.73907286 -0.6887515

model._layers.2.weight f4 [2, 4]
000000 1e 51 4b 3e a2 ff 49 bf 1f bd ce 3e 0e 5f b5 be
       0.19855163 -0.7890569 0.40378663 -0.35424083
000010 5e e4 16 3f 02 5f 16 3f 04 f6 9f 3a 9d a1 b1 bf
       0.5894221 0.5873872 0.0012204056 -1.3877445

model._layers.2.bias f4 [2]
000000 05 96 3f bf 68 9d 1a bf
       -0.74838287 -0.6039643

model._layers.3.weight f4 [1, 2]
000000 37 6a a9 3e 04 e1 f5 be
       0.33088848 -0.48023236

exp_avg f4 [2, 1]
000000 9a 22 09 39 5a 34 89 3a
       0.00013078228 0.0010467872

exp_avg_sq f4 [2, 1]
000000 6b 28 a5 35 de fe 0a 3f
       1.2305221e-06 0.54295146

exp_avg f4 [2]
000000 7b 0f 8a 37 f8 9b 46 3b
       1.645809e-05 0.0030305367

exp_avg_sq f4 [2]
000000 d0 ac 04 33 53 04 e1 3c
       3.0890817e-08 0.027467882

exp_avg f4 [4, 2]
000000 46 6b 88 32 35 a6 e9 3b c2 d1 c8 b6 75 4a 1f bb
       1.5881266e-08 0.007130409 -5.9848835e-06 -0.0024305854
000010 12 5b aa 31 43 55 39 3c 09 ba 80 33 86 a8 06 3b
       4.9580047e-09 0.011311832 5.994304e-08 0.0020547225

exp_avg_sq f4 [4, 2]
000000 e8 a4 35 29 f9 b6 4e 3f e4 01 ad 31 6c ff 81 3b
       4.0333107e-14 0.80747944 5.0351776e-09 0.0039672162
000010 c6 de 2d 27 2b 26 e6 3f a7 f1 38 2a 7e d8 95 3d
       2.4129339e-15 1.7980398 1.6426323e-13 0.07316683

exp_avg f4 [4]
000000 71 70 bb 3a 5b 9b a0 3a bd 9e 14 3b 68 37 d7 39
       0.0014300478 0.0012253331 0.0022677623 0.00041049276

exp_avg_sq f4 [4]
000000 e3 a4 05 3d 25 4b 80 39 08 80 96 3d cb ca 41 3b
       0.03262795 0.0002447005 0.07348639 0.0029570337

exp_avg f4 [2, 4]
000000 05 74 b1 3a 1f 7e d3 3b e8 a9 9c 3b 88 33 7f 3a
       0.0013538605 0.006454244 0.0047809966 0.0009735157
000010 b4 7c 33 37 d8 2f df bb d3 1a b0 b3 01 d2 33 b7
       1.0698266e-05 -0.0068111233 -8.200518e-08 -1.0718127e-05

exp_avg_sq f4 [2, 4]
000000 66 cf 13 3d f1 f0 1a 3f 90 cc b2 3e f5 d9 a9 3c
       0.036086462 0.605239 0.34921694 0.020733813
000010 0e 1a 02 35 6e 2d 19 3b fa ee 0b 2a 8d 38 73 34
       4.846669e-07 0.0023373025 1.2428592e-13 2.2651712e-07

exp_avg f4 [2]
000000 83 b5 e1 3a 27 e4 7a 3a
       0.0017220232 0.00095707405

exp_avg_sq f4 [2]
000000 9c 77 28 3d 8a ca aa 39
       0.041129693 0.0003257583

exp_avg f4 [1, 2]
000000 65 66 c8 3b f7 ab dc 3b
       0.006115722 0.006734367

exp_avg_sq f4 [1, 2]
000000 8d 5b 26 3f 2b 83 11 3a
       0.64983445 0.00055508566
