corai/tests/pytorch_light/model_hp_opt/epoch=579-step=579.ckpt (torch, 8855 bytes, 21 tensors)

model._layers.0.weight f4 [2, 1]
0	0xbfaf5dcc	-1.37005
1	0xbea016a4	-0.31267273

model._layers.0.bias f4 [2]
0	0x3f654123	0.89552516
1	0x3f3d3fd7	0.73925537

model._layers.1.weight f4 [4, 2]
0	0xbe28e16e	-0.16492245
1	0xbfe0d2e9	-1.7564365
2	0x3ee1b487	0.44083044
3	0xbf50d865	-0.8158019
4	0x3f09a272	0.53763497
5	0xbf7f82ca	-0.99808943
6	0x3f37358c	0.7156608
7	0xbfa868d1	-1.3156987

model._layers.1.bias f4 [4]
0	0xbf0d6f17	-0.55247635
1	0x3e842431	0.25808862
2	0x3e9e943a	0.30972463
3	0x3ed1a4b9	0.40945986

model._layers.2.weight f4 [2, 4]
0	0xbed90d36	-0.42392892
1	0xbf9a2b9c	-1.2044559
2	0xbf86bd52	-1.0526526
3	0xbf570643	-0.8399393
4	0xbed65e98	-0.41869044
5	0xbfa54853	-1.2912697
6	0xbf731261	-0.9494992
7	0xbf4cbbd7	-0.7997412

model._layers.2.bias f4 [2]
0	0xbcba17f6	-0.022716504
1	0xbbd315cc	-0.0064418074

model._layers.3.weight f4 [1, 2]
0	0x3f03dcc5	0.5150874
1	0x3f06f548	0.5271802

exp_avg f4 [2, 1]
0	0x3a03246f	0.00050026824
1	0x3c95b104	0.018272884

exp_avg_sq f4 [2, 1]
0	0x35c61056	1.4756904e-06
1	0x3b8ff66b	0.004393389

exp_avg f4 [2]
0	0x3a26682b	0.00063479197
1	0x3b850665	0.0040596

exp_avg_sq f4 [2]
0	0x37602b84	1.3361572e-05
1	0x3a0ff7e4	0.00054919557

exp_avg f4 [4, 2]
0	0x3a406cfc	0.00073404587
1	0x3a448609	0.00074967794
2	0x3b4e8fa3	0.003151872
3	0x3a80b6a6	0.0009820058
4	0x3a203fa5	0.00061129994
5	0xb8ddf234	-0.00010583215
6	0x3b4912ee	0.003068145
7	0x3aa1181c	0.001229051

exp_avg_sq f4 [4, 2]
0	0x37836cf4	1.5667152e-05
1	0x371cd10a	9.346995e-06
2	0x38b30cc4	8.537763e-05
3	0x387214ac	5.771655e-05
4	0x3845797b	4.7081598e-05
5	0x37776440	1.47456885e-05
6	0x37fcfae1	3.0157566e-05
7	0x36d62362	6.381816e-06

exp_avg f4 [4]
0	0xba3ae8b8	-0.0007130015
1	0xba4bfea9	-0.0007781783
2	0xba81eff0	-0.0009913426
3	0xb960d45a	-0.00021441412

exp_avg_sq f4 [4]
0	0x378415a9	1.5745713e-05
1	0x38cea4c1	9.853533e-05
2	0x38730316	5.793859e-05
3	0x381eaeea	3.7833037e-05

exp_avg f4 [2, 4]
0	0x39a68598	0.00031761522
1	0xb7a30724	-1.943444e-05
2	0xb814b0aa	-3.545048e-05
3	0x392e0df0	0.00016599125
4	0xb9f02732	-0.0004580557
5	0xb90c6bb2	-0.0001339156
6	0x39c83b05	0.00038190946
7	0x3995e04e	0.00028586615

exp_avg_sq f4 [2, 4]
0	0x3652fd85	3.1440006e-06
1	0x36c04c9d	5.730965e-06
2	0x357d06f5	9.425997e-07
3	0x35bf9c55	1.4276108e-06
4	0x37f6db14	2.9427501e-05
5	0x3739cc65	1.1074449e-05
6	0x380993b2	3.2800897e-05
7	0x38048110	3.159145e-05

exp_avg f4 [2]
0	0xba89429a	-0.0010472119
1	0xba581780	-0.0008243248

exp_avg_sq f4 [2]
0	0x37ed8832	2.8316023e-05
1	0x3860ef89	5.3628846e-05

exp_avg f4 [1, 2]
0	0x39d702a0	0.0004100995
1	0xbad2d44c	-0.0016084998

exp_avg_sq f4 [1, 2]
0	0x3a50c042	0.0007963219
1	0x3a8e4b1f	0.0010856128
