corai/tests/pytorch_light/model_hp_opt/epoch=59-step=59-v3.ckpt (torch, 10583 bytes, 21 tensors)

model._layers.0.weight f4 [2, 1]
00000000: d330 a13f 8fff 1f40
1.2593025 2.499973

model._layers.0.bias f4 [2]
00000000: 545a 2fbf 43ec 2d3e
-0.68497205 0.16984658

model._layers.1.weight f4 [32, 2]
00000000: 66b4 50be 766c 813e a634 943f bacb 833f
00000010: dded 22bf 84c1 e83e 8c0a 203f bf36 ab3f
00000020: ce06 1abf f11b adbf 26fa 1b3e a564 75bf
00000030: 0c4c 943f 12e7 a23e f566 103f d4ed b43f
00000040: 51c7 31bf 765f b4bf c76b 3abf f544 a5bf
00000050: cda5 18bf abfc c9be d9fb c3be f0e6 58bf
00000060: 57e1 2cbf 4db2 59be 590f 113f 7ea7 353f
00000070: 7c99 863e ff50 f6be a56b c73e ee4c e0bd
00000080: c529 1fbd 9340 a53e b4f5 73bf b861 1a3d
00000090: 761b 36bf 84a5 9a3e 4d1a 92bf b51c 15bf
000000a0: d30f 1a3f 3965 5b3f bd31 78bf 63bb 0cbf
000000b0: 5037 0a3f edb6 383e 7032 12bf 8bdd 8abf
000000c0: b55d 1cbf 4f89 a6bd 629a aa3c 96e2 7b3e
000000d0: 6cfc 25bd aff9 16bf 16db 76bf 30b0 a5bf
000000e0: ef67 3bbf 4835 5abd 3ce7 2f3f 61e9 78bb
000000f0: ffe7 f9be 73ab e33e 6b17 d03c 1c54 d23d
-0.20381317 0.25278062 1.1578567 1.0296547 -0.636442 0.4546014 0.62516093 1.3376082
-0.60166633 -1.3524152 0.15232143 -0.95856696 1.1585708 0.31816918 0.564071 1.4135079
-0.6944476 -1.4091632 -0.72820705 -1.2911669 -0.5962799 -0.39450583 -0.38278082 -0.8472738
-0.6753134 -0.21259423 0.56664044 0.709587 0.26288974 -0.4810867 0.38949314 -0.10952173
-0.038858194 0.3227583 -0.9529679 0.037690848 -0.7113565 0.30204403 -1.1414276 -0.5824693
0.60180396 0.8570133 -0.96950895 -0.5497343 0.5399065 0.1803853 -0.5710821 -1.084886
-0.61080486 -0.08131658 0.020825569 0.24598154 -0.04052393 -0.58974737 -0.9642805 -1.2944393
-0.73205465 -0.05327347 0.6871221 -0.0037980902 -0.4880981 0.44466743 0.025401792 0.10269949

model._layers.1.bias f4 [32]
00000000: 3a5b 133e 2e8a ab3f 7300 a03c da4d 743f
00000010: 8498 33bf 436e a3be 2e7a 323f af52 783f
00000020: d034 88bf f8cf 6ebf 3b4e 63bf 4007 6bbf
00000030: f68e 03bf 367a 023f 28d2 17be 4f54 e23d
00000040: fdfe 763d 7211 99be 3824 84be e25f e8be
00000050: 0952 783f fff7 cebe ef8a 9c3e f531 72bf
00000060: 76b4 abbe fb4e 2c3f c754 afbe 2029 fabe
00000070: a392 fcbe 8a39 973d 060c b0bd c745 613e
0.14390269 1.3401544 0.019531464 0.9543129 -0.70154595 -0.3192006 0.6971768 0.97001165
-1.0641117 -0.93286085 -0.88791245 -0.9180794 -0.51390016 0.5096773 -0.14826262 0.11051237
0.06030177 -0.29896122 -0.25808883 -0.45385653 0.97000176 -0.4042358 0.30574748 -0.9460748
-0.33536118 0.67308015 -0.34244367 -0.488595 -0.49330625 0.073840216 -0.08596043 0.21999274

model._layers.2.weight f4 [2, 32]
00000000: 40db 2ebf 7769 98bf aa67 28bf 9beb 74bd
00000010: 43c6 363f 2fd8 313e c947 14bf 7981 90bf
00000020: 4c2e 893f c085 5f3f e8b2 abbc 582c 16be
00000030: 1c04 44be df59 0dbf e21a fabe f188 c4be
00000040: e6a0 05bf 3535 a63e 5911 cabe fd34 9d3e
00000050: f0c3 f03d b550 893e 737e 37bf 8af5 5abe
00000060: cd07 6b3f a13f 21be bc92 353f 8232 e13e
00000070: bb6b 95be 46e8 b7ba 9b47 62be b24e 8c3e
00000080: 29f0 0cbf d4e2 a1bf 0442 133f 21d5 9dbf
00000090: 3395 883f aacb 3d3f b2ec 16bf cbf7 87bf
000000a0: fb3d 783f 63ff 9e3f 5849 303e e6b0 7b3e
000000b0: 961a 98be f3dc 04bf 8f62 0ebe b8df cabe
000000c0: 50aa d0be 0f8c 333e 5d9e 3bbc 5bce 773f
000000d0: 325c dbbe 2607 6a3f 4735 acbe 470a 6d3f
000000e0: be58 fa3e 5c90 ce3e 1d3c f9be c724 833f
000000f0: 99bc fdbd 771d dbbe c41a 2f3f b6b9 0ebb
-0.683033 -1.1907185 -0.6578318 -0.059795003 0.71396273 0.17367624 -0.57922035 -1.1289512
1.0717254 0.8731346 -0.020959333 -0.14665353 -0.19142193 -0.5521526 -0.48848635 -0.38385728
-0.52198637 0.3246247 -0.3946636 0.3070449 0.11756122 0.26819387 -0.7167732 -0.21382728
0.9180878 -0.15746929 0.70927024 0.43983847 -0.29183754 -0.0014031015 -0.22097628 0.2740379
-0.55053955 -1.2647347 0.57522607 -1.2330667 1.0670532 0.7413889 -0.5895492 -1.0622495
0.96969575 1.2421688 0.17215478 0.245792 -0.29707783 -0.5189964 -0.13904785 -0.3962381
-0.40754938 0.17533897 -0.011451331 0.9679925 -0.42843777 0.9141716 -0.33634397 0.92593807
0.4889583 0.40344512 -0.48678675 1.0245599 -0.12389488 -0.42795917 0.68400216 -0.0021778173

model._layers.2.bias f4 [2]
00000000: 93f6 fabe 32e8 07bf
-0.49016246 -0.53088677

model._layers.3.weight f4 [1, 2]
00000000: 35cf 12bc b2f5 3c3d
-0.008960535 0.04613275

exp_avg f4 [2, 1]
00000000: 3e9f b737 584c 5437
2.1889453e-05 1.265396e-05

exp_avg_sq f4 [2, 1]
00000000: 9183 f035 8b85 e134
1.7919684e-06 4.200668e-07

exp_avg f4 [2]
00000000: eacd dbb5 889d 04b9
-1.63767e-06 -0.00012647186

exp_avg_sq f4 [2]
00000000: 0ebe 0a38 95d3 8937
3.3078766e-05 1.6430198e-05

exp_avg f4 [32, 2]
00000000: 4038 0538 19a1 f837 1cdd 9637 12a6 2337
00000010: 7ae3 feb6 fefa 07b7 0251 33b9 0592 28b9
00000020: 4d48 ed38 486b e838 eeed e137 16c0 7237
00000030: b25a c8b7 3249 1cb8 8d0f b5b7 5885 b7b7
00000040: a68a b636 f8ad 8236 fba0 a738 6ad9 a438
00000050: 2727 3639 0ba8 3b39 1167 3439 0e6e 3139
00000060: b1cc 9138 4dde 9c38 26c6 0bb9 4bcf 0eb9
00000070: 4e1b 8f38 e73e 7b38 1112 a637 08b5 7937
00000080: 2144 be37 41fc bb37 85bb e838 ec25 0139
00000090: 436d c638 e0f1 d838 ddca 9f38 8686 ab38
000000a0: 431f d9b8 6e74 d4b8 1032 ad38 51da b138
000000b0: 017b b737 9752 4c37 1d4d 1d39 14dd 1439
000000c0: ba8f 7bb7 5c0a 1cb4 dd55 b2b7 fd04 b7b7
000000d0: e9bf 9738 865f 9f38 a7c4 d437 a830 b737
000000e0: fd6e 9238 697f a238 e775 8db8 814b 99b8
000000f0: 1010 8936 f0fc d536 8d18 4db8 a172 47b8
3.1762058e-05 2.963892e-05 1.7984356e-05 9.754223e-06 -7.5962716e-06 -8.105066e-06 -0.00017100948 -0.00016076125
0.00011314508 0.00011082605 2.6932885e-05 1.44690475e-05 -2.3884091e-05 -3.7261467e-05 -2.1584123e-05 -2.1877393e-05
5.4401635e-06 3.8945545e-06 7.9931655e-05 7.860626e-05 0.00017371458 0.0001789631 0.00017204533 0.00016921034
6.9522655e-05 7.4800664e-05 -0.00013329889 -0.00013619398 6.823857e-05 5.9901646e-05 1.9797155e-05 1.4883706e-05
2.268149e-05 2.2409602e-05 0.0001109755 0.00012316526 9.461727e-05 0.00010344735 7.619497e-05 8.178972e-05
-0.00010353189 -0.000101306345 8.258608e-05 8.480682e-05 2.1872578e-05 1.2178577e-05 0.00015001414 0.00014196738
-1.499423e-05 -1.4532401e-07 -2.1259237e-05 -2.1817623e-05 7.235987e-05 7.5995034e-05 2.5363943e-05 2.1837957e-05
6.982496e-05 7.748494e-05 -6.745365e-05 -7.309672e-05 4.084788e-06 6.3773405e-06 -4.8898673e-05 -4.7552054e-05

exp_avg_sq f4 [32, 2]
00000000: 12bd ac37 2bbc af37 2d60 2e35 fe9a 1f35
00000010: 6b93 3039 359c 3339 c460 3739 382a 3c39
00000020: a1aa 0e39 0d52 1439 83c8 1838 9e8c 1a38
00000030: 6766 bd37 2491 c437 e4ab c337 388d c637
00000040: c052 bd36 2846 c036 fe3e 8b38 9aa9 9138
00000050: f634 9039 943a 9739 c616 5d39 d236 6839
00000060: 8a7f 5c38 6177 6a38 42c4 9a39 a92d 9f39
00000070: c047 d738 3fa1 e038 d2c3 cb39 b61d cf39
00000080: b544 2438 a265 2738 9d16 dd39 0e4a e239
00000090: 1219 4239 b1b2 4739 b9a2 d038 82b5 d938
000000a0: 64e0 9938 d3ed 9f38 8379 f938 7c74 0139
000000b0: d5df d637 836f db37 8b3b 0739 78ba 0c39
000000c0: e730 0439 eae4 0539 9fdf 6537 1d5c 7137
000000d0: 0890 7539 35dd 7b39 cb76 3337 6551 4037
000000e0: bdde 5838 7917 6738 806b df39 d1ba e539
000000f0: 1a56 b639 df34 b939 04ff 4338 a0f8 5038
2.059204e-05 2.0949248e-05 6.4960005e-07 5.945766e-07 0.00016839585 0.00017128962 0.00017488288 0.00017944805
0.0001360574 0.00014144946 3.6426365e-05 3.684742e-05 2.257824e-05 2.3432607e-05 2.3325854e-05 2.36692e-05
5.6422723e-06 5.730213e-06 6.63977e-05 6.9457295e-05 0.0002750528 0.00028844608 0.00021084686 0.00022145666
5.2570867e-05 5.5901128e-05 0.00029519392 0.00030360863 0.000102653634 0.00010711187 0.00038865075 0.00039504253
3.9164635e-05 3.9910556e-05 0.00042169253 0.00043161254 0.00018510621 0.00019044687 9.948522e-05 0.00010381175
7.3374045e-05 7.626009e-05 0.000118958786 0.00012345792 2.5615018e-05 2.6158761e-05 0.00012896785 0.00013420905
0.00012606719 0.00012769146 1.37015295e-05 1.4386166e-05 0.00023418677 0.00024019631 1.069689e-05 1.1463043e-05
5.1705854e-05 5.5096552e-05 0.00042613968 0.00043817473 0.00034777896 0.00035325342 4.6729125e-05 4.9822615e-05

exp_avg f4 [32]
00000000: 9007 19b8 77d2 0eb8 6f9a 95b8 6958 17b9
00000010: 634e 1d39 db63 4a37 de1a 93b8 dfaf a5b8
00000020: f8c0 3438 10f2 e738 77c7 4639 67fb 3639
00000030: 81f7 8a38 69bd 2db9 1a26 e137 baf9 8cb6
00000040: e6a1 9bb7 30ac 0a39 58f7 8838 481f af38
00000050: 94ba d0b8 9d8e a638 fa45 27b8 d64b f738
00000060: cff5 9d38 7758 30b8 6862 0639 f690 e137
00000070: f3b1 8738 dd3c 64b8 c94c f5b7 f1a3 01b8
-3.6485086e-05 -3.405145e-05 -7.133639e-05 -0.00014433418 0.00015001888 1.2063388e-05 -7.0145106e-05 -7.900572e-05
4.309506e-05 0.00011060026 0.00018957058 0.00017450527 6.626454e-05 -0.00016569126 2.6839833e-05 -4.201397e-06
-1.855283e-05 0.0001322485 6.531057e-05 8.350477e-05 -9.952966e-05 7.9420606e-05 -3.9881073e-05 0.00011792003
7.532129e-05 -4.204406e-05 0.00012815895 2.6889593e-05 6.470447e-05 -5.441612e-05 -2.9242032e-05 -3.090868e-05

exp_avg_sq f4 [32]
00000000: 10d9 0b38 7f1d 3f36 3fee 5639 3fec 7139
00000010: 92e6 3a39 fb90 3838 1040 f737 1feb fd37
00000020: 78a7 0d37 c7f9 d038 9e84 bc39 ff95 9539
00000030: fe51 a738 fb38 bd39 9fe7 1839 9592 ef39
00000040: 6885 5838 bbbc 033a f806 8039 d3b1 1639
00000050: 92d7 c438 a5ef 2c39 57f7 1a38 06ab 2f39
00000060: 8920 2939 933c f237 e557 9339 8950 a937
00000070: ee54 ab38 cf6c 103a fc02 db39 917e b438
3.3342338e-05 2.8478387e-06 0.00020497384 0.0002307156 0.00017824236 4.4004042e-05 2.9474526e-05 3.0269437e-05
8.443247e-06 9.9647375e-05 0.00035956962 0.0002853125 7.978453e-05 0.00036091343 0.00014582135 0.00045694844
5.1622657e-05 0.00050253764 0.00024419255 0.0001437136 9.3861614e-05 0.00016492473 3.6946814e-05 0.00016753012
0.00016129216 2.8876855e-05 0.0002810351 2.0183872e-05 8.169735e-05 0.0005509378 0.0004177316 8.606644e-05

exp_avg f4 [2, 32]
00000000: b4d5 57b7 df5f 7437 057a 5f37 deed 5935
00000010: f6c1 5bb8 ff38 31b6 565b 1038 cf49 3038
00000020: 172a 93b7 5d2b 06b7 ed84 0938 e3ed a537
00000030: 7f33 90b6 8fa1 2138 adf2 2136 554b 41b7
00000040: d2ab 6334 134c 64b8 2213 6a36 33ea 7bb8
00000050: 521f 3fb8 f943 6db8 9d1b ad37 5707 1338
00000060: ea3e 7236 10d0 c3b8 aac6 a9b7 90b9 4fb8
00000070: 4e0e ac37 799f b038 de8b 2b38 b224 26b7
00000080: 1ea1 4939 ea07 8839 2d3e 13b9 818d 0a39
00000090: ba65 20b9 e879 25b9 d702 6438 a1a5 6a39
000000a0: 1e6b 7cb9 12bb 51b9 6689 a838 9c70 3938
000000b0: 374d 2e39 6116 0737 a450 4a39 539a 3939
000000c0: 0dba 5639 150d 3437 5217 4139 54a5 11b9
000000d0: b9a3 a737 77bc e9b8 467c 5f39 daec 92b8
000000e0: 0860 5ab9 f2af 16b9 984f c138 4ba2 71b9
000000f0: 066c 2939 b54c a237 51ad aeb8 3867 54b9
-1.2864755e-05 1.4565855e-05 1.3320246e-05 8.118494e-07 -5.239431e-05 -2.6408231e-06 3.441734e-05 4.203041e-05
-1.7543365e-05 -7.997119e-06 3.2787142e-05 1.9780307e-05 -4.2975294e-06 3.8535854e-05 2.4132125e-06 -1.1521236e-05
2.120353e-07 -5.4430286e-05 3.4879854e-06 -6.006118e-05 -4.5567118e-05 -5.6568508e-05 2.0636066e-05 3.5054367e-05
3.609743e-06 -9.337079e-05 -2.023888e-05 -4.9525464e-05 2.0510659e-05 8.422038e-05 4.089984e-05 -9.902915e-06
0.00019228875 0.00025945838 -0.00014042175 0.0001321342 -0.00015296685 -0.0001578104 5.436208e-05 0.0002237768
-0.00024072497 -0.00020001482 8.036457e-05 4.4212313e-05 0.00016622698 8.0518375e-06 0.00019294262 0.00017700465
0.0002047794 1.0731882e-05 0.00018414602 -0.00013889867 1.998419e-05 -0.0001114541 0.00021313233 -7.0059396e-05
-0.00020825875 -0.0001437066 9.217783e-05 -0.0002304401 0.00016157338 1.9347624e-05 -8.329249e-05 -0.00020256347

exp_avg_sq f4 [2, 32]
00000000: 671d a436 1cab 3938 ad6d 3e36 eb7b a536
00000010: c679 0c39 f8d2 9136 b7e3 c038 2661 9738
00000020: 7a34 ee37 baa1 4e37 c49d 6439 be2a 1139
00000030: 519a de37 49f0 8538 33be 0b38 be8e b936
00000040: 924d 0738 31ae e238 411d 1e38 4049 9139
00000050: ecc0 5739 2a04 5639 23e0 b238 bb85 fe38
00000060: ada1 b137 e56e 0d3a 3f69 d736 c4f0 6d39
00000070: 30fe 9638 cd66 9a39 c24b 3438 d3df 8238
00000080: aacd a939 1550 253a 46a6 0739 b928 2d39
00000090: 555b b339 a682 6939 08d6 8938 672a f539
000000a0: 241d 113a 554a ec39 07ce db38 7dc2 f138
000000b0: e573 9539 2d43 0638 2778 9739 44b0 6f39
000000c0: b90b be39 df55 d837 f9a9 9d39 fc52 ab39
000000d0: 14cf 9d38 1ec1 3f39 682e ce39 9ec7 bb38
000000e0: a8e0 c239 6cd8 b239 b831 8d38 7c11 1d3a
000000f0: d93d 8e39 819a c238 5546 4b38 c9ba cd39
4.8910038e-06 4.4266795e-05 2.8376046e-06 4.931809e-06 0.00013396805 4.3458967e-06 9.1976886e-05 7.2183364e-05
2.8396247e-05 1.2316212e-05 0.00021802547 0.000138442 2.6536321e-05 6.386691e-05 3.331732e-05 5.530047e-06
3.225875e-05 0.000108089655 3.769738e-05 0.0002771113 0.00020575867 0.00020410182 8.52945e-05 0.00012136573
2.117533e-05 0.0005395248 6.4197516e-06 0.00022691773 7.1999035e-05 0.00029449761 4.29859e-05 6.2405736e-05
0.00032387424 0.00063061836 0.00012936545 0.00016513736 0.00034209588 0.00022269282 6.5725355e-05 0.00046761634
0.00055356533 0.0004506881 0.00010481109 0.00011528002 0.00028505843 3.2010652e-05 0.00028890485 0.0002285848
0.00036248358 2.5789193e-05 0.00030072013 0.0003267749 7.524915e-05 0.00018287121 0.00039325957 8.9540365e-05
0.00037169945 0.00034112053 6.732665e-05 0.000599168 0.0002713043 9.2794195e-05 4.8464473e-05 0.00039239813

exp_avg f4 [2]
00000000: 14c8 4f39 fb8d da39
0.00019815593 0.00041685984

exp_avg_sq f4 [2]
00000000: 327f 543a 7859 1e3b
0.0008106112 0.0024162214

exp_avg f4 [1, 2]
00000000: e813 9dba 7371 513d
-0.0011984082 0.051133584

exp_avg_sq f4 [1, 2]
00000000: 74b1 c93c 9c1d 1d3c
0.024620749 0.009589579
