corai/tests/pytorch_light/model_hp_opt/epoch=39-step=39-v3.ckpt (torch, 10583 bytes, 21 tensors)

model._layers.0.weight f4 [2, 1]
0	0x4014fc44	2.327897
1	0x3f5b141f	0.8557758

model._layers.0.bias f4 [2]
0	0x3f0b797e	0.5448226
1	0xbf16d4fd	-0.58918744

model._layers.1.weight f4 [32, 2]
0	0xbc07b7f8	-0.008283608
1	0x3d6fad7d	0.05851506
2	0x3f86d980	1.0535126
3	0x3fa2c0cc	1.2715087
4	0xbded2459	-0.115791984
5	0xbf4a79be	-0.79092014
6	0xbf21e08d	-0.6323326
7	0xbed28622	-0.4111796
8	0xbe3b2c43	-0.18278603
9	0xbf592de2	-0.84835637
10	0xbe7bb70c	-0.24581546
11	0xbdfbf561	-0.12302662
12	0x3c988bff	0.018621443
13	0x3d3d8b5b	0.046275478
14	0x3f186f48	0.595448
15	0x3f9b4043	1.2128986
16	0xbeadff7a	-0.33983976
17	0xbf1cf248	-0.6130719
18	0xbed0c116	-0.40772313
19	0xbed19401	-0.4093323
20	0xbf3bf8ad	-0.73426324
21	0xbebb6a3d	-0.3660449
22	0xbeb0e4fd	-0.34549704
23	0xbe331fb6	-0.17492566
24	0xbebd439b	-0.3696564
25	0xbe4071ff	-0.18793486
26	0x3f4a1d49	0.78950936
27	0x3f4e80c1	0.8066521
28	0x3d2dbe6e	0.042417936
29	0x3c633927	0.013868607
30	0xbed6a731	-0.41924432
31	0xbe3ffb94	-0.18748313
32	0xbe88031c	-0.26564872
33	0xbea1dedf	-0.3161535
34	0x3daab678	0.083355844
35	0x3e6a4d37	0.22881018
36	0xbeb18743	-0.3467351
37	0xbe85e8d2	-0.2615419
38	0xbf0248d5	-0.5089238
39	0xbebb3e16	-0.36570805
40	0x3f458bb7	0.7716631
41	0x3f87f483	1.0621494
42	0xbe89bb59	-0.26900747
43	0xbf04e411	-0.519105
44	0x3f5c98f6	0.861709
45	0x3edc85c9	0.4307082
46	0x3f69ec82	0.9137651
47	0x3f034791	0.51281077
48	0x3fa47d6c	1.2850776
49	0xbdb74ec4	-0.0895057
50	0x3f1e36c6	0.6180233
51	0x3f180029	0.59375244
52	0xbeb96077	-0.3620641
53	0xbed2a5f9	-0.41142252
54	0x3f1496fd	0.5804289
55	0x3f027bc5	0.5097011
56	0xbedec0c1	-0.43506435
57	0xbee73b5f	-0.45162484
58	0xbef1b9eb	-0.47212157
59	0xbe330092	-0.17480686
60	0x3f9dcf0b	1.232881
61	0x3dce3a4c	0.10069713
62	0x3f7278e2	0.947157
63	0x3f584cbe	0.844921

model._layers.1.bias f4 [32]
0	0x3c171dd0	0.009223416
1	0x3f165009	0.58715874
2	0xbf175e6c	-0.5912845
3	0xbf16d2cf	-0.5891542
4	0xbf1653c9	-0.58721596
5	0xbce6b080	-0.028160334
6	0x00000000	0.0
7	0x3f161445	0.5862468
8	0xbebc11ea	-0.36732417
9	0xbf0cd2c7	-0.5500912
10	0xbf16f047	-0.58960384
11	0xbf18a012	-0.5961925
12	0x3dcc3159	0.0997035
13	0x3f15a19e	0.58449733
14	0x3b566792	0.0032715541
15	0xbeb1e3a7	-0.34743997
16	0x3c2896ca	0.010289857
17	0xbeeadcdc	-0.45871627
18	0xbf16ee28	-0.5895715
19	0xbf16f647	-0.5896954
20	0x3f1667f4	0.5875237
21	0xbebfad52	-0.3743692
22	0x3eec3ac0	0.46138573
23	0x3f20d82e	0.62829864
24	0x3f16b527	0.58870167
25	0x3edbb18e	0.429089
26	0xbf16b50d	-0.5887001
27	0x3eef753f	0.4676914
28	0xbed96a81	-0.4246407
29	0xbf15d26b	-0.585242
30	0x3f16c7a5	0.58898383
31	0x3f127eb8	0.5722461

model._layers.2.weight f4 [2, 32]
0	0x3c4db80f	0.01255609
1	0xbf42e2c7	-0.76127285
2	0xbfa14557	-1.2599286
3	0xbeb4a7df	-0.35284325
4	0xbec1f606	-0.37883013
5	0xbe0ed085	-0.13946731
6	0xbb8f27be	-0.0043687513
7	0xbef85bb0	-0.48507452
8	0xbee36d08	-0.44419122
9	0xbe91f928	-0.28510404
10	0xbee69066	-0.45032042
11	0xbf2a76e6	-0.66587675
12	0x3aaad7e0	0.0013034306
13	0xbf5c2f7c	-0.86009955
14	0xbd3b0381	-0.04565764
15	0xbe8b6252	-0.2722345
16	0x3d573bed	0.052547384
17	0xbefe1072	-0.49621922
18	0xbf9e2170	-1.2353954
19	0x3dc3698f	0.09541618
20	0xbfa0126a	-1.250562
21	0xbed5708f	-0.41687438
22	0xbeafbb48	-0.34322572
23	0xbf0049a7	-0.50112385
24	0xbf2bc3f2	-0.67095864
25	0xbf202852	-0.62561524
26	0xbf43f6af	-0.76548284
27	0xbf5c5a52	-0.8607532
28	0xbecffa04	-0.40620434
29	0xbe9a6f6b	-0.3016313
30	0xbfa0b03e	-1.2553785
31	0xbf8d08f5	-1.1018358
32	0xbece977d	-0.4034995
33	0xbf60c6ae	-0.8780316
34	0xbee09429	-0.43863037
35	0xbead0d1e	-0.3379907
36	0xbf0f5bb7	-0.5599932
37	0xbc88ca4c	-0.016698025
38	0x3d02db9b	0.031947713
39	0xbf81164b	-1.0084928
40	0x3c91b3a0	0.017785847
41	0xbe8d7c49	-0.27633885
42	0x3d8bc9dc	0.06825611
43	0xbeb47128	-0.3524258
44	0xbe95747c	-0.29190433
45	0xbf1486aa	-0.5801798
46	0xbecf7b8b	-0.40523943
47	0xbdb929e2	-0.09041192
48	0xbe5dd5fe	-0.21663663
49	0xbf799b96	-0.9750303
50	0xbd489e90	-0.048979342
51	0xbed1bde1	-0.4096518
52	0xbf4ee334	-0.80815434
53	0x3c0437e9	0.008069971
54	0xbf999c54	-1.2000833
55	0xbf7601d5	-0.96096545
56	0xbf442ed1	-0.76633936
57	0xbf05e0e0	-0.52296257
58	0xbe92b1f3	-0.2865139
59	0xbf2530d9	-0.6452766
60	0xbd51c880	-0.051216602
61	0xbf9d8eee	-1.2309244
62	0xbf735c11	-0.9506236
63	0xbf16365a	-0.58676684

model._layers.2.bias f4 [2]
0	0xbf1b4a79	-0.6066051
1	0xbf184251	-0.5947619

model._layers.3.weight f4 [1, 2]
0	0x3f09dc9c	0.5385225
1	0xbde78e1c	-0.11306402

exp_avg f4 [2, 1]
0	0xb80706ea	-3.2192947e-05
1	0x3ae56aa7	0.0017503098

exp_avg_sq f4 [2, 1]
0	0x35efb066	1.7858226e-06
1	0x3a8f3bcc	0.0010927855

exp_avg f4 [2]
0	0xb747212c	-1.1869048e-05
1	0x39ec3307	0.00045051446

exp_avg_sq f4 [2]
0	0x341f4166	1.4831821e-07
1	0x389c8985	7.464275e-05

exp_avg f4 [32, 2]
0	0xb5391202	-6.8944075e-07
1	0x3425fe2e	1.5459293e-07
2	0xb984cb49	-0.0002532846
3	0xb9510e49	-0.00019937115
4	0x396a2f7b	0.00022333667
5	0x3934d07e	0.00017243807
6	0x3a903058	0.0011000736
7	0x3a67f76c	0.00088488194
8	0x3a40a8f4	0.0007349395
9	0x3a19042a	0.00058371073
10	0xb62a000e	-2.5332006e-06
11	0xb5f5f4af	-1.8325135e-06
12	0xb3430df7	-4.5414676e-08
13	0xb4272f3a	-1.5570268e-07
14	0xb997b38a	-0.0002893473
15	0xb96c3dc0	-0.00022529718
16	0x372e05fe	1.0372603e-05
17	0x350661db	5.006129e-07
18	0x3827a924	3.9973427e-05
19	0x3762c2b3	1.3515982e-05
20	0x3b26e6be	0.0025467123
21	0x3b063f61	0.0020484554
22	0x3a1a54e5	0.0005887284
23	0x39f8404c	0.0004735015
24	0xb63410d1	-2.6831879e-06
25	0xb620e9c6	-2.3977932e-06
26	0xb90ec1f5	-0.0001361443
27	0xb8e1f43f	-0.000107743304
28	0x33dc9ce4	1.02730866e-07
29	0xb29dc15b	-1.8365133e-08
30	0x38253e71	3.939722e-05
31	0x378174a5	1.5432315e-05
32	0xb58888a8	-1.0172562e-06
33	0xb6580aab	-3.2192718e-06
34	0xb82e62ee	-4.157697e-05
35	0x37d873ab	2.5803069e-05
36	0x3b1b8b03	0.002373398
37	0x3af9f9e5	0.0019071667
38	0x3b6d8460	0.0036242232
39	0x3b3ede42	0.0029124175
40	0xb9ab2214	-0.00032641052
41	0xb9873e71	-0.0002579573
42	0x374bd5ac	1.2149492e-05
43	0x3581ce48	9.671285e-07
44	0x38060e35	3.196132e-05
45	0x36cfa9e2	6.1888577e-06
46	0xb8ce079f	-9.824265e-05
47	0xb8975cb0	-7.2175055e-05
48	0xba33fb61	-0.00068657665
49	0xba1385a6	-0.000562752
50	0xb825088d	-3.934703e-05
51	0xb7818667	-1.5440584e-05
52	0x3a16e60b	0.0005756325
53	0x39f2af27	0.00046288336
54	0xb72a2832	-1.0142148e-05
55	0xb6a0304b	-4.7739936e-06
56	0x37bb1277	2.2300736e-05
57	0x37066434	8.010353e-06
58	0x3a0490e5	0.00050569914
59	0x39d62bf0	0.00040849997
60	0xba77e62f	-0.0009456602
61	0xba497dc8	-0.00076862844
62	0xb8028db7	-3.1126398e-05
63	0xb7cb4664	-2.4232264e-05

exp_avg_sq f4 [32, 2]
0	0x2bcfb749	1.4759106e-12
1	0x2aa497ee	2.9237675e-13
2	0x37cf7b92	2.4733865e-05
3	0x3785ef76	1.5966343e-05
4	0x3794b13a	1.7725502e-05
5	0x373ff4cf	1.1441486e-05
6	0x39e4af14	0.00043617992
7	0x3993a126	0.0002815809
8	0x394aed8b	0.00019352713
9	0x3902ff40	0.00012492854
10	0x2dffd21a	2.9083447e-11
11	0x2d1b4e57	8.828125e-12
12	0x28bf0160	2.1205856e-14
13	0x2a2467a7	1.4602088e-13
14	0x380216f1	3.101578e-05
15	0x37a7f22c	2.0020721e-05
16	0x3277fe32	1.443509e-08
17	0x31524fde	3.0604421e-09
18	0x3383ecaa	6.143212e-08
19	0x321fcf42	9.302143e-09
20	0x3b1862da	0.002325228
21	0x3ac4bfae	0.0015010738
22	0x390159e5	0.00012335887
23	0x38a701f1	7.963542e-05
24	0x2e349ccb	4.106652e-11
25	0x2d0044c1	7.291224e-12
26	0x36f6dae2	7.3568526e-06
27	0x369f5b35	4.749187e-06
28	0x29d805f3	9.593359e-14
29	0x283126ae	9.833861e-15
30	0x339773f1	7.052575e-08
31	0x3237ab57	1.069096e-08
32	0x2f087968	1.241226e-10
33	0x2dbfadbc	2.179134e-11
34	0x36ac5a58	5.136517e-06
35	0x36480e19	2.9810528e-06
36	0x3b03fad7	0.0020138526
37	0x3aaa66be	0.001300059
38	0x3b99de92	0.004695722
39	0x3b46a9c6	0.0030313595
40	0x382690cd	3.971234e-05
41	0x37d70be6	2.5635538e-05
42	0x31f4a9b3	7.120627e-09
43	0x3093bdd2	1.0749608e-09
44	0x34e8a3fd	4.3332685e-07
45	0x3450918f	1.9424463e-07
46	0x3627413a	2.4922906e-06
47	0x35d40026	1.5795274e-06
48	0x3936a6e7	0.00017419049
49	0x38ebd75e	0.000112457885
50	0x34408523	1.7929828e-07
51	0x332396d3	3.808857e-08
52	0x39004d96	0.00012235934
53	0x38a5a206	7.897992e-05
54	0x3370c459	5.605793e-08
55	0x32b4740b	2.1007528e-08
56	0x336fe3c8	5.585369e-08
57	0x324be82a	1.1868943e-08
58	0x38c2e0b0	9.292492e-05
59	0x387b9d8d	5.9989794e-05
60	0x39ab6537	0.00032691073
61	0x395d4cd9	0.0002110483
62	0x351a957b	5.7586993e-07
63	0x34c7976d	3.7176815e-07

exp_avg f4 [32]
0	0xb3df5c25	-1.0401008e-07
1	0xb8265f02	-3.9665967e-05
2	0x38187aec	3.6354104e-05
3	0x39225946	0.00015482781
4	0x38b7f830	8.7723485e-05
5	0x3427bf1e	1.5622615e-07
6	0x00000000	0.0
7	0xb7ef07ea	-2.8494705e-05
8	0xb624de48	-2.456729e-06
9	0xb4634538	-2.1166204e-07
10	0x39c26800	0.0003708005
11	0x38b14ca1	8.454291e-05
12	0xb3efc867	-1.1165758e-07
13	0xb7933a1d	-1.7550827e-05
14	0x31aa9c2e	4.9654068e-09
15	0x35dad37e	1.6303818e-06
16	0xb5658718	-8.5505735e-07
17	0x3675d81c	3.6633637e-06
18	0x39b0fab8	0.00033756136
19	0x3a06798b	0.00051298056
20	0xb8430d53	-4.6504032e-05
21	0xb604298b	-1.9693714e-06
22	0xb3b81f78	-8.573892e-08
23	0xb6d7a0b8	-6.4262094e-06
24	0xb8c99ecc	-9.614005e-05
25	0x33c000dc	8.940853e-08
26	0x38ad3362	8.2588536e-05
27	0x361ab33f	2.3052123e-06
28	0xb5e135a8	-1.6779422e-06
29	0x388d4a5b	6.737254e-05
30	0xb90456c2	-0.00012620821
31	0xb5d95d47	-1.6194907e-06

exp_avg_sq f4 [32]
0	0x291e4fef	3.515238e-14
1	0x35435a7d	7.277484e-07
2	0x35251a2e	6.1505386e-07
3	0x3719d148	9.168238e-06
4	0x36512a7b	3.1168154e-06
5	0x2a6ba27d	2.0928567e-13
6	0x00000000	0.0
7	0x34dd4c4f	4.121998e-07
8	0x2eeb8579	1.0710272e-10
9	0x303da166	6.898716e-10
10	0x3853cd4f	5.049753e-05
11	0x363c7095	2.8079714e-06
12	0x2b5ad58c	7.7745514e-13
13	0x344b5640	1.8937226e-07
14	0x261b356f	5.3848844e-16
15	0x305a7630	7.947589e-10
16	0x2c13bcd2	2.0994773e-12
17	0x344afb21	1.8904076e-07
18	0x38300a11	4.1971045e-05
19	0x38c909e8	9.586272e-05
20	0x35817e93	9.648087e-07
21	0x2eb0333d	8.012655e-11
22	0x32f65fab	2.8681674e-08
23	0x331c9aa0	3.646221e-08
24	0x36774d68	3.6850925e-06
25	0x30b69a4a	1.3286094e-09
26	0x363a90c3	2.7800422e-06
27	0x30957aa4	1.0876033e-09
28	0x2fe36d19	4.1368578e-10
29	0x36009a3d	1.9163265e-06
30	0x36cf9e2b	6.187494e-06
31	0x3297b503	1.7661028e-08

exp_avg f4 [2, 32]
0	0xb4119299	-1.3557509e-07
1	0x3a594d8d	0.0008289449
2	0x38ea3218	0.0001116732
3	0x391a1ecf	0.00014698062
4	0x3a27ea2b	0.0006405438
5	0xb605b954	-1.992642e-06
6	0x3252333b	1.2235257e-08
7	0x3aebbf04	0.0017986004
8	0x37a278a1	1.9368077e-05
9	0x37c37c14	2.330359e-05
10	0x38d47945	0.00010131536
11	0x3ad4de92	0.0016240648
12	0xb24a99ca	-1.1792915e-08
13	0x3964ba46	0.00021813167
14	0x342cf045	1.6106158e-07
15	0x380819c0	3.244891e-05
16	0x330382f0	3.06199e-08
17	0x3ac18344	0.0014763852
18	0x38718660	5.7584024e-05
19	0x3aa0d54e	0.0012270601
20	0x380df7f4	3.3847944e-05
21	0x3814584d	3.5368186e-05
22	0x39dd36ab	0.00042193136
23	0x3a1b43c5	0.0005922879
24	0x39d4be81	0.00040577727
25	0x38871ae4	6.4423104e-05
26	0x3a883642	0.0010392147
27	0xb6d22373	-6.2626145e-06
28	0x378d97f2	1.6879265e-05
29	0x3ada92c6	0.0016675822
30	0x39521d1a	0.00020038002
31	0x38320c42	4.2449923e-05
32	0xb5be57f8	-1.4181705e-06
33	0x39dbeb7f	0.00041946393
34	0x3a83bef2	0.0010051413
35	0x399d1960	0.0002996428
36	0x39badf7f	0.00035643202
37	0x34a67429	3.1004427e-07
38	0xb4853b5b	-2.4816367e-07
39	0x3a516b53	0.000798871
40	0x3397687d	7.050492e-08
41	0x344f07fc	1.9281282e-07
42	0x38f3d624	0.0001162703
43	0x3b002308	0.001955213
44	0xb6117607	-2.1675385e-06
45	0x3a45f8da	0.00075520354
46	0xb5f83043	-1.8491486e-06
47	0xb60b5bae	-2.0765979e-06
48	0xb5adf408	-1.2960527e-06
49	0x38d65354	0.00010219836
50	0x3b176e53	0.002310653
51	0x3a1b55c7	0.00059255626
52	0x3a3a7178	0.0007112245
53	0x342cca62	1.6092375e-07
54	0x37a4a489	1.9626941e-05
55	0x398db149	0.00027025703
56	0x39cec3d8	0.00039437297
57	0x3577b31d	9.2275315e-07
58	0x3aaaa6cd	0.0013019681
59	0x3640cff1	2.8731267e-06
60	0x33d97a30	1.0127076e-07
61	0x39c73c17	0.00038001008
62	0x398921b8	0.000261558
63	0x3aba73cc	0.0014225184

exp_avg_sq f4 [2, 32]
0	0x29857957	5.9274356e-14
1	0x3982b419	0.00024929715
2	0x36b75eff	5.464884e-06
3	0x3706eb9f	8.041882e-06
4	0x391b138b	0.00014789232
5	0x2d3196ca	1.0094767e-11
6	0x2722ce98	2.259401e-15
7	0x3a97f20e	0.0011592524
8	0x333e7f32	4.4353506e-08
9	0x32c5ffa2	2.3050067e-08
10	0x368519b9	3.9667034e-06
11	0x3a7898d1	0.00094832206
12	0x2707bf50	1.8838724e-15
13	0x379934dc	1.8263636e-05
14	0x2a25b499	1.4717601e-13
15	0x333533ea	4.2189562e-08
16	0x29f801da	1.10137336e-13
17	0x3a395db2	0.00070711516
18	0x35e700bf	1.7211058e-06
19	0x3a0c75bb	0.00053581194
20	0x35499fe8	7.511103e-07
21	0x336511ac	5.333429e-08
22	0x3778b652	1.4824402e-05
23	0x38293a82	4.034723e-05
24	0x387dfcfc	6.055551e-05
25	0x34d84573	4.0283666e-07
26	0x39cc3ad5	0.00038953745
27	0x30a5e1fa	1.2069556e-09
28	0x33126fb8	3.409488e-08
29	0x3a8269c8	0.0009949738
30	0x37870388	1.6094898e-05
31	0x3586960c	1.0027447e-06
32	0x2f941a91	2.693992e-10
33	0x3888deaa	6.52646e-05
34	0x39bd11be	0.00036062108
35	0x38090707	3.266989e-05
36	0x38439f4b	4.6639976e-05
37	0x2a53f500	1.8825566e-13
38	0x2a3d8b37	1.6834872e-13
39	0x397468df	0.00023308721
40	0x290f189c	3.1773724e-14
41	0x2fbb1cdd	3.403561e-10
42	0x369f1f3a	4.7422045e-06
43	0x3ab1da71	0.0013569129
44	0x2e15a2d5	3.40233e-11
45	0x39585187	0.00020629737
46	0x2f50791a	1.8960514e-10
47	0x2ca3aa75	4.651663e-12
48	0x2e29e185	3.8626453e-11
49	0x3694cd45	4.4346402e-06
50	0x3af9928f	0.001904087
51	0x3904f319	0.00012679062
52	0x39413b23	0.00018427944
53	0x299de0ed	7.011219e-14
54	0x34ba3530	3.46839e-07
55	0x37e98f91	2.7842618e-05
56	0x3871404b	5.7518755e-05
57	0x3078ad56	9.04682e-10
58	0x3a1e4030	0.00060367864
59	0x31156c61	2.174396e-09
60	0x2a17e0ba	1.3489462e-13
61	0x3865a178	5.4748234e-05
62	0x37db149f	2.6116437e-05
63	0x3a3e9c17	0.0007271184

exp_avg f4 [2]
0	0x39bc59c9	0.0003592505
1	0x39c5d27b	0.00037731588

exp_avg_sq f4 [2]
0	0x382a71cf	4.063715e-05
1	0x3855f13e	5.100783e-05

exp_avg f4 [1, 2]
0	0x3a7ca7b6	0.0009638028
1	0xbafaf23f	-0.0019145681

exp_avg_sq f4 [1, 2]
0	0x39a2f65d	0.00031082603
1	0x3aaa34b1	0.0012985674
