corai/tests/pytorch_light/model_hp_opt/epoch=39-step=39-v1.ckpt (torch, 10583 bytes, 21 tensors)

model._layers.0.weight f4 [2, 1]
00000000: a10d 66bf 39a0 a13e
-0.89864546 0.31567553

model._layers.0.bias f4 [2]
00000000: 03b6 313d 4e80 27bf
0.04338647 -0.6543015

model._layers.1.weight f4 [32, 2]
00000000: 75b1 8bbe abf8 a3be b06c 6c3f 7be2 493e
00000010: 1e2f 423f 17a4 093e 6609 92bf 684d 933f
00000020: 0b14 c9be 1a25 8f3e 5a3b c1be a115 e43e
00000030: 7ec4 44bf 25ad 563f 2c0d 0a3f 5625 ba3c
00000040: 61b4 55be 79e3 253e f508 eb3e 0795 f0be
00000050: 48be 883e d719 093f c63d e73e 8f92 023f
00000060: c1f2 88bf 4d51 943f 4557 10bf d2fa 193d
00000070: 8e1a f93e 00cc 143e b8b2 f43e 606a 1dbf
00000080: 1868 113f 02de 3a3f 3ddd 4fbf 743f a83f
00000090: 4044 3e3f cda5 22bf 8af1 83bf a2b2 8e3f
000000a0: cd56 abbd c534 053f d459 c93e b978 43bf
000000b0: 1fe8 15bf 33d9 033f 83e8 0f3f ffac 37be
000000c0: 388e a8be 37e6 e83e ac4d 9cbe fef8 a83f
000000d0: bde3 763f 0d03 5bbf 009e 923d b3d7 0dbf
000000e0: df69 71bf 6acd 083f 5d33 b1bf f617 103f
000000f0: 8d7f 22be 08cc 603f 58ee a13f 82a8 a7bf
-0.27283826 -0.32025656 0.92353344 0.19715302 0.75853145 0.13441502 -1.1409118 1.1507998
-0.39273104 0.27957994 -0.37740594 0.44547752 -0.76862323 0.8385795 0.5392635 0.022722881
-0.2086959 0.16200055 0.4590527 -0.469887 0.26707673 0.53555053 0.45164317 0.5100488
-1.0699083 1.1587311 -0.5638316 0.037592717 0.48653072 0.14530945 0.47792602 -0.6149044
0.5679946 0.7299501 -0.8119696 1.3144364 0.7432289 -0.6353424 -1.0308087 1.1148264
-0.08366165 0.52033645 0.39326346 -0.76356083 -0.58557314 0.51503295 0.5621416 -0.17937087
-0.32921004 0.4548814 -0.3052801 1.3200986 0.9644125 -0.8555153 0.07159042 -0.55407256
-0.9430217 0.53438437 -1.38438 0.5628656 -0.1586897 0.87811327 1.2650862 -1.30983

model._layers.1.bias f4 [32]
00000000: 5581 953e a69a 20be db2f 51bb 37e2 563f
00000010: 5aef 773d 90fa 4b3f 2d43 4f3f b4ea a8bd
00000020: 5a42 413f 405a f4bb 0ada 1bbd 9d07 28be
00000030: 954f 4a3f 4c91 7f3d d554 c3be c6c9 9c3d
00000040: dbd7 533e 2f42 d43e 6fdb 8bbe 3ddd 343f
00000050: a642 79bd e0f6 3fbf 4c4d 4ebe 854a 48bf
00000060: 826a 613e 523b 503f e97e 3cbf c8fb b83d
00000070: 0bd1 3c3f 242a 503f 199e 4e3f 116e 43bf
0.29200235 -0.15683994 -0.0031919393 0.83938926 0.060530998 0.79679203 0.8096188 -0.08247891
0.7549187 -0.0074570477 -0.038049735 -0.16409154 0.7902768 0.062394425 -0.3815066 0.07655673
0.20687811 0.41456744 -0.27315852 0.7065008 -0.060854577 -0.74986076 -0.20146674 -0.7823871
0.22013286 0.81340516 -0.7363115 0.090323985 0.73756474 0.813143 0.8070999 -0.76339823

model._layers.2.weight f4 [2, 32]
00000000: 2da1 603d d0d9 e4be 77d9 903d ce65 24bf
00000010: 6395 29bf bb70 5dbe 1b58 e6be ce0f b93d
00000020: 3719 d43c b111 2d3b 9dcc be3e b002 873e
00000030: c89b dabe cefc 1fbf 1fa3 25be 4f39 95be
00000040: 462d 4dbe 4a60 dfbe c4d2 053f 77b3 e2be
00000050: b2fc 41be d012 093f 9711 433e 1391 7b3e
00000060: 2590 8bbe ea48 57bf 9c93 713f 8bf5 75bc
00000070: c466 66bf dc3f 09bf 1f0c 84be ef6f 303f
00000080: bc1f 17bf d611 1cbf 07e1 44bf 5932 8a3f
00000090: 94e7 6d3d 1e99 353d 32f6 353f 48fb f7be
000000a0: 8e63 bbbe 3aa8 4dbf a1cd 733f c483 2c3f
000000b0: d20f 5a3f 4a46 ce3d 79e2 283d 9d3f 52bf
000000c0: 7daa 06bf a9f7 3a3f ea99 04bf 3a27 883f
000000d0: 577a 313f 38a8 d03e 91f6 363f 298e a2bd
000000e0: f9cd 113f e136 993f cce5 80bf 8142 36bf
000000f0: 259c 5c3f eefb 7b3f 4d91 ac3c f790 76bf
0.05484121 -0.44697428 0.07072728 -0.6421784 -0.6624357 -0.21625035 -0.44989094 0.09036218
0.02589093 0.002640825 0.37265483 0.26369238 -0.42696977 -0.62495124 -0.16175507 -0.29145285
-0.20036802 -0.4362815 0.5227473 -0.44277546 -0.18944052 0.5354433 0.19049679 0.2456706
-0.2725841 -0.84095633 0.9436586 -0.015012155 -0.9000056 -0.53613067 -0.25790498 0.689208
-0.590328 -0.60964715 -0.76905864 1.0796615 0.05808218 0.044335477 0.7107879 -0.484339
-0.36599392 -0.8033482 0.9523564 0.6738856 0.8518039 0.10072 0.041231606 -0.82128316
-0.52603894 0.7303415 -0.51797354 1.0636971 0.693273 0.4075334 0.7146998 -0.07937271
0.56954914 1.1969873 -1.0070128 -0.71195227 0.8617576 0.9843129 0.021065379 -0.9631495

model._layers.2.bias f4 [2]
00000000: ee6a 6dbe c744 0e3f
-0.23185322 0.55573696

model._layers.3.weight f4 [1, 2]
00000000: 28c5 e9bd 7e04 12bd
-0.11414558 -0.035648815

exp_avg f4 [2, 1]
00000000: 3dfe 213a 0c89 e2b6
0.0006179547 -6.751279e-06

exp_avg_sq f4 [2, 1]
00000000: f5cb 3e38 bd94 2b38
4.548948e-05 4.09081e-05

exp_avg f4 [2]
00000000: 4c4e 0b3c 15b0 a6bb
0.008502554 -0.0050869086

exp_avg_sq f4 [2]
00000000: 3258 0f39 c21f 3439
0.00013670398 0.00017177968

exp_avg f4 [32, 2]
00000000: 44b3 ea39 d24b 03b9 05cc 4aba 5c2f 143b
00000010: 92d0 ffb7 f931 323a bd09 303a 7318 cbb9
00000020: ad3f 33b9 5f63 cd3a f821 ff3a 7610 e0ba
00000030: 9399 9539 8a4a 5eb8 dd1f 95b9 3197 143a
00000040: fc31 163a 01dd e2b9 440f aab8 e6c7 653a
00000050: 3274 6bb8 79b1 b2ba 5357 24ba 5742 84b9
00000060: ca90 4339 e393 0cb9 584a fab8 add6 b43a
00000070: f6e0 afba d9a6 de3a 72b6 d9b8 b69c a33a
00000080: d5df 8d3a d319 a2b8 a59e e238 a442 87b8
00000090: aaae 3fb9 3cc7 c4b9 42cd 093a c7fb 2fba
000000a0: f663 15b9 8b4c e5b8 e96b 77ba 49bd e0b9
000000b0: d78a a6b8 5277 4aba 5e4b 00bb 1b47 e63a
000000c0: 935b 813a 15c3 73ba 5240 293b 900f 03bb
000000d0: f2cf b1ba e43a a539 8fdc eb38 09b8 003a
000000e0: 9316 d83a 7256 3cba e7cf 693a ccc3 1bba
000000f0: 6152 173b e333 f8ba b54a eeb8 aee5 7eb9
0.0004476552 -0.00012521379 -0.000773609 0.0022611236 -3.0495492e-05 0.00067976076 0.00067153183 -0.00038737393
-0.00017094491 0.0015669874 0.001946508 -0.001709475 0.00028533916 -5.2998344e-05 -0.00028443235 0.0005668281
0.0005729494 -0.0004327074 -8.109075e-05 0.0008765444 -5.613658e-05 -0.0013633213 -0.0006269116 -0.0002522643
0.00018650587 -0.00013406533 -0.000119347766 0.0013796889 -0.0013418484 0.001698698 -0.000103813494 0.0012482617
0.0010824153 -7.729572e-05 0.000108060696 -6.4497144e-05 -0.00018280247 -0.00037532474 0.0005256721 -0.0006713238
-0.00014246986 -0.00010933828 -0.0009438382 -0.00042865638 -7.941358e-05 -0.00077234686 -0.0019576172 0.0017568799
0.000986921 -0.0009298784 0.0025825691 -0.001999829 -0.0013566001 0.0003151513 0.000112467555 0.0004910236
0.001648622 -0.0007184512 0.00089192245 -0.0005941957 0.0023089873 -0.0018936362 -0.000113626396 -0.0002430889

exp_avg_sq f4 [32, 2]
00000000: d173 2139 81e7 2a39 bcd0 8739 7544 8e39
00000010: 8a53 043a 6b0d 073a effd 5739 338a 5c39
00000020: 6814 cd3a 8af7 d23a 938e 593a 1bb6 5e3a
00000030: f9ef 8a38 c947 8c38 6d48 503a 9adf 563a
00000040: 213c 8e38 4beb 9538 95f7 a739 e217 ab39
00000050: 7b3d 8c3b 62c3 8f3b 1135 ec3a 1b7e f53a
00000060: a7bd 3b38 4ee9 3c38 8934 f33a 102c fa3a
00000070: 1dab 913a 6d52 903a 0e19 b939 4e52 be39
00000080: cc00 2b3b 2666 323b 9319 e137 8285 f337
00000090: 4dbe 6939 f90a 7739 6a44 2f39 4947 2e39
000000a0: 1b73 9f38 eda8 a338 5cd8 d939 d913 d839
000000b0: 9b74 c538 f24d cf38 3bde 603a 41b3 673a
000000c0: 3efe e53a 883e f03a 87e4 e83a 98e6 ee3a
000000d0: b67f 5c3a 9e19 6a3a a027 9439 66de 9839
000000e0: 6c50 903a a8d1 973a bb6a 9c39 a264 9d39
000000f0: 30b9 973a 8030 993a 94e1 2e38 496a 3d38
0.00015397301 0.00016298705 0.00025904726 0.00027135355 0.00050478487 0.0005151841 0.00020598595 0.00021032318
0.001564634 0.0016095501 0.0008299138 0.0008495764 6.625051e-05 6.689091e-05 0.00079453626 0.00081967714
6.7822875e-05 7.1487004e-05 0.00032037185 0.00032633456 0.00427979 0.004387305 0.0018021186 0.0018729599
4.47609e-05 4.5039975e-05 0.0018555085 0.0019086618 0.0011113618 0.0011010893 0.00035304617 0.00036300946
0.0026093004 0.002722153 2.6833999e-05 2.9030027e-05 0.00022291504 0.00023559843 0.00016714787 0.00016620489
7.603151e-05 7.8039106e-05 0.00041550666 0.00041213518 9.4154115e-05 9.8850476e-05 0.0008578037 0.00088386616
0.0017547084 0.0018329183 0.0017768302 0.0018226681 0.00084113644 0.0008930209 0.00028258283 0.000291574
0.0011010296 0.0011582868 0.0002983416 0.0003002035 0.0011575576 0.0011687428 4.169492e-05 4.5160097e-05

exp_avg f4 [32]
00000000: d91a 9dba dc2d 00bb f298 a1ba f67c 14bb
00000010: 717d 64bb f73d 45bb b8ae adba 741d c939
00000020: d815 80ba 055d baba 5aa3 6b3b 8c0d 483b
00000030: 068c 74ba abbf 5bbb 30b7 e539 e1d3 1bbb
00000040: f324 7cbb ef31 39ba 53a0 063b a2d1 82ba
00000050: d6f0 f139 1957 803b 53e3 f43a 85c7 463b
00000060: cf1d 0fbb f386 abbb 2a86 a33b 6534 b4ba
00000070: 69db a2bb 23a0 16bb f148 71bb 6fc6 e13a
-0.0011986151 -0.0019558584 -0.0012328906 -0.002265749 -0.0034864808 -0.0030096748 -0.0013250923 0.00038359652
-0.0009772135 -0.0014218396 0.003595552 0.0030525653 -0.00093287264 -0.003353099 0.0004381477 -0.0023777413
-0.0038474172 -0.00070646306 0.0020542338 -0.0009980688 0.0004614654 0.003916633 0.001868347 0.0030331325
-0.0021837836 -0.005234593 0.004990359 -0.0013748525 -0.0049700034 -0.0022983633 -0.0036817158 0.0017225276

exp_avg_sq f4 [32]
00000000: bf2c 9c39 ad1b d439 68c7 423a 7a77 9839
00000010: a6be 223b e99e 943a 303a 9b38 6214 9b3a
00000020: 920b 0239 3f3e 033a e72f cb3b 5eb9 3c3b
00000030: 90ad 6038 990a 393b 67b6 af3a 206e 2c3a
00000040: a642 873b f6ce 7538 62d4 dd39 196e 4639
00000050: e9dd f838 7ab3 f339 08a5 7a39 66cc a33a
00000060: 25f7 323b 6d20 183b 2dc6 c13a cde3 f739
00000070: df16 e23a 5aff b839 9806 bc3a 51dc e338
0.00029787977 0.0004045641 0.00074302265 0.00029080716 0.0024832874 0.0011338863 7.401814e-05 0.0011831636
0.00012402076 0.0005006529 0.0062007788 0.002879701 5.3567404e-05 0.0028235076 0.00134058 0.0006577689
0.004127818 5.86053e-05 0.00042310642 0.00018923766 0.000118668955 0.00046482292 0.00023903337 0.0012496829
0.0027307954 0.0023212687 0.0014783792 0.00047281236 0.0017249248 0.00035285467 0.0014345227 0.000108652406

exp_avg f4 [2, 32]
00000000: 7d2f 9ab9 2c6f f2b8 662c f6ba 3286 f53a
00000010: b2f3 89b9 82a1 a63a 3711 ef3a c44b 8139
00000020: 26fc 7f3a 3727 3dba 3d9e a939 e818 5b38
00000030: 3388 cf3a 4af4 d438 84f2 d6ba c7f1 24b9
00000040: d0a8 21bb ee33 d8b9 3b96 3fb8 e3a2 cf3a
00000050: c024 de39 ddc9 beba 9d13 8c39 4686 beba
00000060: 7a05 69ba eeab 5b3a 58d5 02bb 03dd 9db9
00000070: 3540 0e3b 79d4 323b 468a 583a 0017 a0ba
00000080: a90c 0e3b 48ae ccb7 cb3c 5c3a 45bd f8ba
00000090: 29d3 2bbb b58f 433b aaf1 adb8 76f2 a83a
000000a0: 4fb3 673b 5631 073b c4f5 79ba 22a3 afba
000000b0: 72ae 03bb 4566 09bb d642 2ebb c98d 333b
000000c0: 03e5 42b9 c0f4 3ebb 8206 3b3b 0e0e 04bb
000000d0: b51e 01bb f2d6 36ba 5373 48bb f7e2 57bb
000000e0: b51e c7ba dae5 28b9 4040 823a 1c8f 103b
000000f0: a5e7 b539 1541 47ba c5c8 0d3b af28 293b
-0.0002940855 -0.000115601666 -0.0018781542 0.001873201 -0.00026312243 0.0012712928 0.0018239383 0.00024661247
0.0009765051 -0.00072156213 0.0003235209 5.2236865e-05 0.0015833437 0.0001015445 -0.001639918 -0.00015730328
-0.002466727 -0.0004123742 -4.567786e-05 0.0015841391 0.0004237052 -0.001455601 0.00026717494 -0.0014535866
-0.00088890607 0.00083798065 -0.0019963589 -0.0003011004 0.002170575 0.0027287288 0.00082603504 -0.0012213886
0.0021675027 -2.4399851e-05 0.0008401393 -0.0018977305 -0.002621839 0.0029840295 -8.294296e-05 0.0012889642
0.003535468 0.0020628772 -0.0009535218 -0.0013400058 -0.0020092991 -0.0020965498 -0.002659013 0.0027397743
-0.00018586595 -0.0029137582 0.0028537815 -0.0020149979 -0.001970214 -0.00069747784 -0.0030586317 -0.0032941678
-0.0015191647 -0.00016107355 0.0009937361 0.0022057956 0.000346956 -0.00076009455 0.002163456 0.0025811603

exp_avg_sq f4 [2, 32]
00000000: 16c2 3c3b c662 6639 dad0 0b3b 84d5 873b
00000010: 1f44 cb3a baa5 9d3a 9ba7 ac3a 62e2 6039
00000020: 95f0 3f3b 569d 5e3b e449 9f3a bb2a c23a
00000030: a201 863b c1fc 923a 98d0 153a 8b78 8f3b
00000040: d566 733a 8795 6b3b 9998 343b 199b 893b
00000050: 0782 383b e30e d739 a397 a53b 48bf d03a
00000060: 4582 5339 eaed 823a e06b 3d3b f427 4e3b
00000070: 91c2 783a af02 2c3b 388b d839 49c8 b43b
00000080: f0cb 4f3a 297f 1339 fe78 f539 e2dd e43a
00000090: bd74 073b e3b4 e43a 3ecc f138 f17b 513a
000000a0: 7d81 1d3b e1fd 943a cdfe 9838 e560 2639
000000b0: 986d ee3a 9599 d63a 3961 9f3a 7d0b f43a
000000c0: f734 1138 66ac 033b 1e26 273b 39db e43a
000000d0: 4cf3 4b3a 3265 1038 f70c 173b cf51 013b
000000e0: f07e 433a 9ba3 a437 31b1 313a 0a85 813a
000000f0: 712d 0038 f6de 533a 0151 883a 0268 1d3b
0.0028802208 0.00021971305 0.0021334202 0.004145326 0.0015507973 0.001202754 0.0013172509 0.00021446639
0.0029287685 0.0033968291 0.0012152758 0.001481376 0.00408955 0.0011214243 0.0005714982 0.0043783835
0.00092850375 0.003594728 0.0027556776 0.0041993973 0.0028153674 0.00041019087 0.005053477 0.0015926147
0.00020171057 0.0009989117 0.002890341 0.003145692 0.0009489442 0.0026246717 0.00041302457 0.00551704
0.00079268124 0.00014066383 0.00046820188 0.0017461146 0.0020668947 0.0017448928 0.000115298186 0.0007991186
0.002403348 0.0011367166 7.295385e-05 0.0001586709 0.001819062 0.0016372675 0.0012159712 0.0018619146
3.462002e-05 0.002009177 0.0025504897 0.0017460353 0.00077800895 3.442652e-05 0.00230485 0.00197326
0.0007457575 1.9626508e-05 0.0006778418 0.0009881568 3.05599e-05 0.0008082235 0.0010400118 0.0024018292

exp_avg f4 [2]
00000000: 8b05 023c 9346 02bb
0.007935892 -0.0019878491

exp_avg_sq f4 [2]
00000000: 727b 3d3c 420d af3b
0.011565076 0.0053421566

exp_avg f4 [1, 2]
00000000: 085c f5bd 14b9 17bd
-0.11980444 -0.03704174

exp_avg_sq f4 [1, 2]
00000000: 6c6c 9c3c 428a 523c
0.019094668 0.012850346
