corai/tests/pytorch_light/model_hp_opt/epoch=79-step=79-v2.ckpt (torch, 9495 bytes, 21 tensors)

model._layers.0.weight f4 [4, 1]
00000000: a25e dc3e 8530 1e3f 3a07 8e3f d597 d7be
0.4304095 0.61792785 1.1095955 -0.42108026

model._layers.0.bias f4 [4]
00000000: e371 dabe ea7a 5fbc f3d8 6ebe 18c1 b33e
-0.42665014 -0.013640145 -0.23324947 0.35108256

model._layers.1.weight f4 [8, 4]
00000000: 7779 edbe ced5 763e f825 0fbf 5e46 2bbf
00000010: c664 9fbf 52c0 48bf 7be2 67be fb6b 05bf
00000020: 256c a9be 5862 99be 77d6 b8be 984b afbe
00000030: f775 8ebf 13b3 c63d 3305 c83e 7632 50bf
00000040: 7537 663f efcd 6d3e 00e1 0dbf 6a0e 953d
00000050: 4ffd 22bf 0641 df3e 3104 673f 403a 8a3f
00000060: a088 2a3f bcfb d6be b04c 7cbe 3516 1ebf
00000070: e32a 563e ff1e af3e 02e8 3fbf 5745 39be
-0.46381733 0.24104998 -0.5591731 -0.66904247 -1.2452629 -0.7841846 -0.22644989 -0.5211789
-0.3309032 -0.29957843 -0.36101124 -0.3423736 -1.112975 0.097021244 0.39066467 -0.81327
0.8992837 0.23223089 -0.5542145 0.0727814 -0.6366777 0.43604296 0.9024077 1.0799026
0.66614723 -0.41988933 -0.24638629 -0.61752635 0.20914797 0.34203336 -0.7496339 -0.18092857

model._layers.1.bias f4 [8]
00000000: e539 243e 6ebc fa3c 96bd 183f cfbf 8cbe
00000010: 8678 86be 0ae8 94bc 5a3d 8fbe edc1 0c3e
0.1603771 0.030607428 0.59664285 -0.27490088 -0.26263827 -0.018177051 -0.27976495 0.13745852

model._layers.2.weight f4 [4, 8]
00000000: 067f 8abf ec36 3cbe be09 173e 9968 20bf
00000010: f128 5f3f 4571 8cbe 1ef5 263e f069 07bf
00000020: 9fb6 0fbf e4c0 3dbc 5ce4 31be 1e32 ee3e
00000030: befc 14be 96df 06bc f293 8abd e710 22bf
00000040: 54c0 5fbf d7b0 0bbe a64b f23e 5c3b f3be
00000050: 05fe 313e 780c 863e 3187 cbbe 6a7a ebbe
00000060: 4d0a 29bf 5403 663e e0aa 1f3f 4a77 fcbd
00000070: 7877 b4bf d94e 5d3f 2cbf d3bf 74b6 93bf
-1.0820014 -0.18380326 0.1474981 -0.62659603 0.87171847 -0.27430168 0.16304442 -0.5289602
-0.5613803 -0.011581633 -0.17372268 0.4652261 -0.14549538 -0.008232018 -0.067664996 -0.6330704
-0.87402844 -0.13641678 0.4732334 -0.47506225 0.17382057 0.26181388 -0.3975158 -0.45991832
-0.6603134 0.22462207 0.6237011 -0.1232744 -1.4098959 0.86448437 -1.6542716 -1.1540055

model._layers.2.bias f4 [4]
00000000: 028d 54bd 5070 47bc 52fb 3cbd 5ca4 cf3d
-0.051892288 -0.0121727735 -0.046138115 0.10138771

model._layers.3.weight f4 [1, 4]
00000000: 8e7c bdbe b5f7 843f 4076 393f 1a5c 8c3e
-0.3700909 1.0388094 0.7244606 0.27414018

exp_avg f4 [4, 1]
00000000: ce9f 1bbb 423f 99bb 449e c23b 8d3d 0e3c
-0.0023746374 -0.0046767304 0.005939277 0.008681667

exp_avg_sq f4 [4, 1]
00000000: 8e9b 173a 9b29 2538 dcb6 8038 523f 163a
0.00057833723 3.9377814e-05 6.137576e-05 0.00057314814

exp_avg f4 [4]
00000000: af8e 433c b8e8 ddbb 6903 6a3c 7a61 c53b
0.011935874 -0.006772127 0.01428304 0.006023583

exp_avg_sq f4 [4]
00000000: 95fd 3839 b241 ec37 5cb3 5339 f504 b039
0.00017642074 2.8163984e-05 0.00020189345 0.0003357303

exp_avg f4 [8, 4]
00000000: 9888 15bc 688b f7ba 58ca 2dbb 2cc4 003c
00000010: f24c 1839 1ab1 49ba 6efc baba 3127 9037
00000020: 94d0 6d3a 0df4 92bb 0aba fcbb b04b 1a39
00000030: 91a4 b2ba d754 eabb a55d 00bc 20dc 983a
00000040: d2e3 c8bb 25be a9bb b7cf 88bb b305 be3b
00000050: 2603 8f3b 2e3b 9c3a 5078 7cba 0588 5fbb
00000060: dd77 22bc 3e2e 15bc 83e6 e6bb 38cd 173c
00000070: 8010 4a3c 90f7 f8b9 7e59 19bc 0aed 1dbc
-0.009126805 -0.0018886151 -0.0026518311 0.007859271 0.00014524514 -0.00076939317 -0.0014265904 1.7184388e-05
0.0009071913 -0.0044846595 -0.0077126073 0.0001471478 -0.0013629367 -0.007151227 -0.007834827 0.0011662282
-0.006130674 -0.0051801377 -0.004175152 0.0057990192 0.004364389 0.0011919492 -0.0009630965 -0.0034108174
-0.009916273 -0.009105263 -0.007046522 0.009265237 0.0123330355 -0.00047486695 -0.0093597155 -0.009639034

exp_avg_sq f4 [8, 4]
00000000: cef9 d339 1704 e039 846e 053a 440b dc39
00000010: 7c10 ee34 6902 2f35 d0b8 9f35 fdc1 5535
00000020: 6906 e837 cfa7 2438 eea8 7138 46f8 1c38
00000030: b97b e039 2acf ee39 7477 0b3a b2af ee39
00000040: 1c3c d238 eebb eb38 d740 1139 892d f238
00000050: b81c 7138 453e 7e38 8623 8138 eb32 7638
00000060: 6dde 3639 ca47 3e39 645e 5439 383b 4539
00000070: e1a1 9c39 3a54 9f39 ead7 b439 5cb0 a739
0.00040431175 0.00042727657 0.00050900155 0.00041970063 4.4342949e-07 6.519609e-07 1.1900211e-06 7.9630973e-07
2.765954e-05 3.925693e-05 5.7616206e-05 3.742452e-05 0.0004281679 0.00045549247 0.0005320229 0.000455258
0.000100247766 0.00011240678 0.00013852432 0.00011547941 5.7485624e-05 6.0616312e-05 6.157816e-05 5.869839e-05
0.00017439733 0.00018146556 0.00020253059 0.00018809445 0.00029875248 0.00030389597 0.00034493144 0.0003198412

exp_avg f4 [8]
00000000: eedb 07ba 0e31 26bb 284a d1bb 7258 51bc
00000010: cd32 babb 38b4 17b9 0a9f 16bc ba40 adbc
-0.00051826134 -0.0025358829 -0.006387014 -0.012777435 -0.0056823255 -0.00014467619 -0.009193191 -0.021149028

exp_avg_sq f4 [8]
00000000: 21a9 063a 4a7f 8837 75bf 7e38 d1fe 183a
00000010: a658 2d39 c981 8738 67e8 a039 95a8 e239
0.00051368965 1.6271737e-05 6.0736627e-05 0.00058363104 0.0001653159 6.461476e-05 0.0003069073 0.00043231683

exp_avg f4 [4, 8]
00000000: 581e adbb e29c 7abc 4bda a73b 65de f13b
00000010: 9212 70bb f154 7e3c 3292 57bc 7f00 0dbc
00000020: 9d48 a43a 0e25 db3b c4e8 12bc 1439 83bb
00000030: a797 49bc fa76 16bc dcc5 25bc c29d 74bc
00000040: 1941 7a3b 8c7e 03bd 919a 7b3b 9ca0 5fbc
00000050: 6e68 693c d081 aebb f3ab a1bb 9734 3f3b
00000060: 3321 913a b5af f33a 4f14 99ba d5ed 04bb
00000070: 5b57 d03a 57f7 36bb dded 883a 7ea3 da3a
-0.0052831583 -0.015296193 0.005122458 0.007381248 -0.0036632163 0.015523181 -0.013157414 -0.008606075
0.0012533847 0.006687767 -0.008966628 -0.004004607 -0.012304223 -0.00918364 -0.010117974 -0.0149301905
0.0038185774 -0.032103106 0.003839169 -0.013649132 0.014246089 -0.0053255334 -0.004933828 0.0029175633
0.0011072516 0.0018591793 -0.0011679026 -0.002028336 0.0015895175 -0.0027918422 0.0010446865 0.0016680805

exp_avg_sq f4 [4, 8]
00000000: f77e 5d37 e731 0f39 bb31 5638 22ab 9338
00000010: 07a7 d738 fa66 0b38 f94d ee38 acfa a937
00000020: 68f7 1b39 4ffb 563a 48b1 cf39 774d bd39
00000030: d0bd 4039 94ba e038 89de 6d39 aebc 2538
00000040: 7dd9 cc39 a55d 203a 5bc0 9d39 fa5a 8b39
00000050: 59a6 6339 8ab8 cc38 7ff3 5f39 97d3 f437
00000060: 7a97 0734 81f9 1b35 1a25 4f34 742b 8a34
00000070: a925 5f34 ebdb cc34 5fb3 e933 60b8 3334
1.3202188e-05 0.00013656133 5.106789e-05 7.041382e-05 0.0001028311 3.3236087e-05 0.00011363248 2.0263098e-05
0.00014874118 0.00082009 0.00039614202 0.00036106605 0.00018381258 0.00010715905 0.00022684982 3.9514787e-05
0.00039071954 0.000611747 0.0003008869 0.0002657993 0.00021710376 9.761851e-05 0.00021357647 2.9185596e-05
1.2627962e-07 5.8105076e-07 1.9291875e-07 2.573612e-07 2.0782194e-07 3.8157972e-07 1.08825354e-07 1.673775e-07

exp_avg f4 [4]
00000000: f03d 533c 3b7f e1bc 1675 823b 7668 873b
0.012893185 -0.027526489 0.003981243 0.0041323258

exp_avg_sq f4 [4]
00000000: 7e63 4939 6d7b f939 234a 413a 55c2 a235
0.00019205917 0.0004758494 0.0007373413 1.2126499e-06

exp_avg f4 [1, 4]
00000000: e6fa 85bc 0664 173d 6ddd 2e3d 9669 80bd
-0.01635499 0.036960624 0.042691637 -0.06270139

exp_avg_sq f4 [1, 4]
00000000: ec20 933a dfbd f13b d8d8 ae3b d374 543a
0.0011225021 0.0073773707 0.0053359084 0.00081045664
