corai/tests/pytorch_light/model_hp_opt/epoch=119-step=119-v2.ckpt (torch, 109847 bytes, 21 tensors)

model._layers.0.weight f4 [32, 1]
000000 f6 d9 a4 bd ac 43 05 3f ff 89 bf be 56 17 cf be
       -0.08049385 0.52056384 -0.3740997 -0.4044749
000010 ed 58 cf 3e 43 d8 9d be a5 40 c2 be 2f 52 7e be
       0.40497532 -0.30829057 -0.37939945 -0.24836038
000020 05 9b 0d bf 43 69 74 be 69 72 f2 be 40 87 d8 3e
       -0.55314666 -0.23868279 -0.47352913 0.42290688
000030 37 fb bc be 3e 2b 11 3f 7d 3a 61 be 8b 13 01 bf
       -0.36910412 0.5670661 -0.21994968 -0.50420445
000040 7b 22 09 3e ba b1 48 be 0f bb ba be 5e c4 d6 be
       0.1339206 -0.19599047 -0.3647084 -0.4194669
000050 9e 9c 03 bf 3e f2 ec 3c 9f 98 e3 bd 91 f9 8a be
       -0.51410854 0.028924104 -0.111130945 -0.2714353
000060 d0 3e c2 be 8e ff ea be 5e e9 bb bc 03 c3 db be
       -0.37938547 -0.45898098 -0.022938427 -0.4292222
000070 be 07 e6 be ea 7a f8 be a9 3c 93 be 55 88 c8 be
       -0.44927782 -0.48531276 -0.28757218 -0.39166513

model._layers.0.bias f4 [32]
000000 ab f5 e4 be 2d 2d 50 bf 89 0f 0d bf a5 1a 43 be
       -0.4471868 -0.8131893 -0.5510183 -0.19053133
000010 3e cd 6f 3e a5 3b 28 bf 85 7e 9a be 3f 5e 29 bf
       0.23418137 -0.6571601 -0.30174652 -0.66159433
000020 e3 a9 19 bf 30 98 2a bf 43 1a 8c be bf 98 75 bf
       -0.6002485 -0.6663847 -0.27363786 -0.959362
000030 09 b4 09 be 91 7d fe 3e a1 c1 28 bf ec e2 29 bf
       -0.13447584 0.49705175 -0.65920454 -0.6636188
000040 39 c5 e7 be 8e 73 29 bf 5c 2d 2a bf 21 49 1d bf
       -0.45267656 -0.6619195 -0.6647546 -0.6143971
000050 2a 0e 28 bf 77 a5 28 bf 6c 6f 29 bf 7f be 28 bf
       -0.6564661 -0.6587748 -0.6618564 -0.65915674
000060 9b f9 28 bf bb 42 d4 be 77 c9 28 bf 6b 45 e6 be
       -0.6600587 -0.4145716 -0.6593241 -0.44974837
000070 b3 58 dc be 78 23 e8 be 90 72 9a bd 0f cc 28 bf
       -0.43036422 -0.4533956 -0.07541382 -0.6593637

model._layers.1.weight f4 [128, 32]
000000 aa 65 10 bf 52 b0 27 39 ba b7 8e 39 dc f7 78 b8
       -0.5640513 0.00015992046 0.00027221238 -5.9358645e-05
000010 b4 f4 2e b9 6a 14 f5 be 50 8f 62 39 1a e6 1f bf
       -0.00016685092 -0.47867137 0.00021606428 -0.6246048
000020 55 44 65 b8 92 58 ff be 7b 52 9b 39 a5 5d 56 39
       -5.4661494e-05 -0.4987226 0.00029625357 0.00020443516
000030 0c 10 96 38 a1 b8 f9 be 48 0e f1 be 36 2d a2 b8
       7.155546e-05 -0.48773673 -0.47081208 -7.733183e-05
000040 41 f5 f5 be 9d 07 04 bf bd 2f 05 bf 24 e4 3c b9
       -0.48038676 -0.51574117 -0.5202597 -0.00018014066
000050 4d 78 97 39 3a e2 fa be 43 d3 e7 be d0 33 f8 be
       0.00028890595 -0.49000722 -0.45278367 -0.4847703
000060 ec 2e 08 bf 2a 72 90 39 ce ee 14 bf f0 0f 16 bf
       -0.531966 0.0002755088 -0.5817689 -0.5861807
000070 e6 85 56 b9 55 cf 71 39 f6 94 02 39 61 89 f3 be
       -0.00020458511 0.00023060788 0.00012453258 -0.4756575
000080 e6 ce 7f be f2 96 02 39 dc 93 bb 39 48 77 31 b9
       -0.24981269 0.00012453998 0.00035777583 -0.00016924471
000090 0c 9b e5 b9 5f 0a 14 39 ff b3 ee 39 6a 96 3f ba
       -0.00043793803 0.00014118243 0.00045529005 -0.0007308485
0000a0 df 85 96 39 d7 3d 8f 3a 77 3c 83 38 76 e7 cb b9
       0.0002870997 0.0010928464 6.257829e-05 -0.0003889163
0000b0 0a 3e 64 39 50 32 7c be fe cf 08 ba 31 40 d7 b9
       0.00021766886 -0.24628568 -0.00052189815 -0.00041055822
0000c0 55 be ab be e3 17 15 bb 4c e5 75 38 7a eb 86 39
       -0.3354365 -0.0022749833 5.86261e-05 0.00025733915
0000d0 ca 7c 93 b8 78 8c 43 be a4 ef be bc e0 57 9a b6
       -7.03275e-05 -0.19096553 -0.023307629 -4.5997876e-06
0000e0 a8 9d fd b8 dc 3b 2b bb e2 25 05 be f3 86 31 39
       -0.00012093346 -0.0026128208 -0.13002732 0.00016930308
0000f0 28 cb 95 3b 57 b0 de b8 2b a9 26 b9 f0 9a 8f b9
       0.0045713373 -0.00010618631 -0.00015894014 -0.00027390523
000100 48 0e f2 be 94 b7 20 38 da 38 10 b8 1a 64 a1 39
       -0.4727652 3.8317943e-05 -3.4385223e-05 0.00030782894
000110 74 69 80 39 08 14 8b b8 a8 4e 19 b8 a2 6a ca b9
       0.0002449263 -6.6317676e-05 -3.6551297e-05 -0.0003860789
000120 80 f4 b1 36 f8 af be 38 78 7c 17 b9 2e 6b 20 39
       5.3034746e-06 9.092683e-05 -0.0001444685 0.00015298717
000130 86 f5 cb 38 dd f4 ed ba 62 85 e8 38 d0 d0 e1 b8
       9.7255266e-05 -0.001815464 0.000110874666 -0.000107677304
000140 75 de 0a bf 07 a9 04 39 7c 58 1a 38 c0 95 99 38
       -0.5424569 0.00012651469 3.679887e-05 7.3235016e-05
000150 c5 45 a1 38 12 0f a6 39 5a 82 33 b9 50 af 1b 39
       7.690074e-05 0.00031673216 -0.0001711933 0.00014847261
000160 b3 a3 52 39 f4 4e 83 39 e7 8b b9 3a b3 22 8f be
       0.00020088143 0.00025045092 0.0014156074 -0.2795616
000170 a0 fd 8c 36 70 2e 98 38 70 f0 47 39 b5 c9 ae 39
       4.201851e-06 7.2565745e-05 0.00019067689 0.0003333815
000180 c5 20 d5 3b 32 5b 5c be 80 63 d4 38 64 ab fb 38
       0.0065041506 -0.21519163 0.00010127481 0.00012000537
000190 95 74 0e be 48 96 b6 39 eb 7b 04 b9 51 29 80 b9
       -0.1391166 0.00034825713 -0.00012634664 -0.00024444846
0001a0 bb 40 70 39 48 1f 21 38 6d dd 25 b9 86 80 62 be
       0.00022912298 3.8414524e-05 -0.00015818114 -0.2211934
0001b0 0e b4 35 39 b9 92 ab be 60 f7 15 39 f7 0d c6 b9
       0.0001732858 -0.33510378 0.00014301902 -0.00037775908
0001c0 9f 53 5c be 98 71 15 b9 be 9f 0c 38 11 96 6d be
       -0.21516274 -0.00014252064 3.3527373e-05 -0.23201777
0001d0 50 ff e5 b8 d2 33 a8 bd d8 f7 e5 38 b2 78 4b b9
       -0.000109671266 -0.08213009 0.000109657354 -0.00019404551
0001e0 09 00 29 b9 e0 ef af 38 fa 0b 73 3b 91 55 96 39
       -0.00016117109 8.3893305e-05 0.0037085996 0.0002867398
0001f0 72 10 97 39 b0 5d 8a b8 f6 a6 e9 b8 30 32 fd b7
       0.00028813217 -6.5978034e-05 -0.00011141405 -3.018332e-05
000200 bc 49 3a bf 00 98 27 b5 c0 6a f6 b8 0e a2 87 b9
       -0.7276876 -6.2433537e-07 -0.00011750078 -0.00025869947
000210 a5 c3 97 38 74 8c 47 bf 96 d1 a2 39 04 77 b3 be
       7.236683e-05 -0.7794869 0.00031055202 -0.3505174
000220 5e 43 8e be dd 5e 8e be 30 50 42 b9 00 ae b9 b6
       -0.27785772 -0.2780675 -0.00018531154 -5.533686e-06
000230 ed 4b 5f b9 8e 46 be 38 7e e9 1c bf 36 37 e4 be
       -0.00021295222 9.073048e-05 -0.6129378 -0.44573373
000240 dd 80 42 bf 71 94 60 bf 7b 53 28 bf 79 43 0f 39
       -0.7597788 -0.87726504 -0.6575238 0.00013662678
000250 57 c5 a1 be 94 59 02 bf f0 17 12 bf eb 53 fe be
       -0.3159587 -0.50917935 -0.57067776 -0.496734
000260 a9 6f 92 be d4 4e 9e b9 66 ee bd be 6c af 3e bf
       -0.28600815 -0.0003019484 -0.37095946 -0.7448642
000270 04 a8 94 38 9a c4 9e 38 16 93 99 b9 4a e4 a5 be
       7.088485e-05 7.570647e-05 -0.00029292022 -0.32400733
000280 ce 98 4b 3e 57 8b 00 bf 69 47 4d 3e d1 ce 57 bd
       0.19882509 -0.50212616 0.20046772 -0.05268747
000290 c1 ef dd bd 7b 14 71 3e 29 6b af 3e 1e a0 0f 3e
       -0.10836745 0.23542969 0.34261444 0.14025924
0002a0 e5 6d da b8 78 95 6e 3e cb 7e ab 3a cc 22 de be
       -0.000104155195 0.23299205 0.0013084052 -0.43385923
0002b0 24 7b 63 bd cd f5 a1 be 2d 01 7c 3e 0d 68 c7 3e
       -0.055537358 -0.31632844 0.24609824 0.38946572
0002c0 e2 07 8a 3e 41 c5 01 3f 46 1f b4 3e ce 73 39 bf
       0.2695914 0.5069161 0.3518011 -0.7244233
0002d0 c2 1a ab 3e 7c 61 6f 3e 02 26 dc 3e ec 60 94 3e
       0.33418852 0.23377031 0.42997748 0.28980196
0002e0 78 03 0e 3f 46 2b 05 bf 74 01 67 3e 4f c0 2c 3f
       0.5547404 -0.52019155 0.22559148 0.6748094
0002f0 c5 05 02 bf c6 ca 8b 3e 61 69 e4 be 4c 89 a5 3e
       -0.50790054 0.2730314 -0.44611648 0.32331312
000300 12 ff e7 be 3a 60 95 b9 f0 db dd b8 d0 56 db 38
       -0.4531179 -0.0002849119 -0.00010579068 0.00010458904
000310 a6 7f 95 b9 63 d9 f2 be de 51 d3 b8 e8 b9 17 bf
       -0.000285146 -0.47431478 -0.00010076513 -0.59268045
000320 82 ad 30 bf 6d 25 de be 67 9c 0c b9 d4 09 94 37
       -0.6901475 -0.4338793 -0.00013409705 1.7647551e-05
000330 32 0b d4 b8 59 a4 3a 39 9a ad b4 be 2b b8 48 bf
       -0.00010111033 0.00017799567 -0.35288697 -0.7840602
000340 d6 db da be fc 98 cf be ca 8e 20 bf e8 f4 b1 38
       -0.42745847 -0.40546405 -0.6271788 8.485635e-05
000350 68 a1 ab be 65 63 2d bf 0c 0e 06 bf df c8 b0 be
       -0.3352158 -0.6772979 -0.52365184 -0.34528252
000360 46 b4 d2 be ac f2 c9 b9 74 63 55 bf 90 f9 22 bf
       -0.41153163 -0.00038518512 -0.8335488 -0.6366205
000370 91 02 38 b9 f4 3e 7d b8 5a 69 92 39 43 9c 19 bf
       -0.00017548563 -6.037853e-05 0.00027925783 -0.6000406
000380 f0 1b 53 bf 8c 96 13 39 47 cf 18 b9 fe bc 8b 39
       -0.82464504 0.00014075096 -0.00014573066 0.00026652956
000390 80 e9 ad b8 57 9a 09 bf 2c 8c ba 38 ca 24 02 bf
       -8.2927756e-05 -0.5375113 8.89528e-05 -0.50837386
0003a0 fd 56 28 bf 78 c8 bf be 20 f3 99 b8 40 b9 d5 36
       -0.65757734 -0.37457633 -7.340894e-05 6.3694606e-06
0003b0 70 f1 0b 37 7b 42 b6 39 3f 78 94 be 2e a2 fe be
       8.34126e-06 0.00034763277 -0.2899799 -0.49733108
0003c0 17 be b6 be 9e 47 a3 be e0 54 09 bf a9 a0 ce b8
       -0.35691902 -0.31890577 -0.53645134 -9.852771e-05
0003d0 43 08 cb be 75 e2 fe be 48 7e 31 bf 87 6e c2 be
       -0.3965474 -0.49782148 -0.69333315 -0.3797495
0003e0 0d bc f1 be 5a 4a 12 39 4e e2 54 bf 4c 7a 51 bf
       -0.47213784 0.00013951343 -0.83157814 -0.81827235
0003f0 03 4d 57 39 ce ba cf b9 68 59 90 37 94 2e fe be
       0.00020532687 -0.00039621297 1.720777e-05 -0.4964491

model._layers.1.bias f4 [128]
000000 0a 10 07 bf 0c ba da be fa 43 0a bf e0 48 e9 bd
       -0.5275885 -0.42720068 -0.54009974 -0.11390853
000010 5c b1 19 bf 38 26 9d 3e 9b a3 19 bf f2 b3 19 bf
       -0.60036254 0.3069322 -0.6001527 -0.600402
000020 cd d4 06 bf 8d 99 19 bf f0 90 01 bf ad 00 9e be
       -0.5266846 -0.59999925 -0.5061178 -0.3085989
000030 3e d4 16 be d0 26 e8 be 0c 45 e7 be 9a 43 e0 be
       -0.14729401 -0.45342112 -0.45169866 -0.43801576
000040 02 5f 02 3f 6d 65 04 bf 7b 9a 30 bf 85 90 0d bf
       0.5092622 -0.51717263 -0.6898572 -0.55298644
000050 ec 47 0e bf dc 02 0c bf 40 66 19 bf 6e c1 37 3e
       -0.55578494 -0.54691863 -0.59921646 0.17944881
000060 57 f2 4d bf ac 9b e0 be 47 a8 19 bf d4 79 19 bf
       -0.80447906 -0.43868768 -0.60022396 -0.5995152
000070 e1 7b 0c bf d2 b4 0b bf 1e 1c ef be fa 28 ba be
       -0.54876524 -0.54572785 -0.4670114 -0.36359388
000080 57 0a 60 be bf af 19 bf 72 9b 8f be 23 10 0e bf
       -0.21878944 -0.6003379 -0.28048283 -0.5549337
000090 c1 e6 b6 be 5d ac f0 be 43 85 19 bf 38 66 19 bf
       -0.35722926 -0.47006503 -0.59968966 -0.599216
0000a0 24 d8 e7 be ab 23 e3 be fe 9c 19 bf ce 15 df 3e
       -0.4528209 -0.4436315 -0.60005176 0.43571323
0000b0 ce 97 19 bf 90 e9 07 bf d0 3d cf be 50 f0 01 3f
       -0.5999726 -0.53090763 -0.40476847 0.5075731
0000c0 aa ad 19 bf fa b7 d3 be eb 11 02 3f 16 c6 eb be
       -0.60030615 -0.413513 0.5080859 -0.46049565
0000d0 d9 d1 28 bf 70 72 e8 be 2f a4 19 bf 5c ec e5 be
       -0.659452 -0.4539981 -0.6001615 -0.4490689
0000e0 a3 6c 19 bf be 29 55 bf ee 49 61 be 84 80 19 bf
       -0.5993139 -0.8326682 -0.22000858 -0.59961724
0000f0 fa 8c 0b bf 31 39 e4 be df 7b 19 bf de 4a 0e bf
       -0.5451199 -0.44574884 -0.5995464 -0.5558299
000100 82 4d 0e bf 56 3f ea be 06 9a 0d bf c3 4c 0e bf
       -0.5558702 -0.45751446 -0.55313146 -0.5558588
000110 90 38 9f be 01 46 0e bf 6b 4c 0e bf 81 ae 19 bf
       -0.3109784 -0.5557557 -0.55585355 -0.60031897
000120 68 2a 15 3f 66 b2 19 bf ec 00 fd be 06 5d 19 bf
       0.5826783 -0.6003784 -0.49414766 -0.5990757
000130 44 42 07 be 5f 6a ea be 58 5e ea be f9 6a e8 be
       -0.13208872 -0.4578428 -0.45775104 -0.45394114
000140 30 94 19 bf 59 4b 0e bf 7e f0 e0 be b9 03 e5 be
       -0.5999174 -0.5558372 -0.4393348 -0.44729403
000150 d2 07 07 3e d8 69 19 bf 1e 42 19 bf eb 89 04 bf
       0.13186577 -0.5992713 -0.5986651 -0.51772946
000160 1f 2e 19 bf 3b 85 19 bf ed 72 e5 be a9 e4 e0 be
       -0.59836 -0.5996892 -0.44814244 -0.43924454
000170 e9 a3 19 bf 43 9d e8 be 43 71 e6 be b2 84 af 3e
       -0.6001573 -0.4543248 -0.45008287 0.34280926
000180 17 aa e9 be 97 41 d9 bd 99 e0 e3 be 1e 4a 0e bf
       -0.4563758 -0.106082134 -0.44507292 -0.55581844
000190 62 3a e9 be 0a 9a 19 bf 7e 41 d6 be ca 8b 07 bf
       -0.45552355 -0.6000067 -0.41846842 -0.52947676
0001a0 06 39 0d bf 03 71 38 be 00 16 28 bf 33 49 ea be
       -0.55165136 -0.1801186 -0.6565857 -0.45758972
0001b0 81 ca b0 be 0b 4b 0e bf 5e ad 19 bf ee 38 0c 3f
       -0.34529498 -0.55583256 -0.6003016 0.5477437
0001c0 46 4b 0e bf 21 85 19 bf d8 a7 19 bf c1 97 1b 3c
       -0.5558361 -0.59968764 -0.60021734 0.00949663
0001d0 4a fd e4 be 06 71 19 bf 8a 0b e6 be 33 c5 e9 be
       -0.44724494 -0.59938085 -0.4493068 -0.45658264
0001e0 a5 ef ea be ac 7a d1 be c6 2a 2b bd f0 b4 04 3f
       -0.4588596 -0.40913904 -0.04178884 0.5183859
0001f0 d3 fc 0a bf 8b a1 19 bf 09 6d a2 3e 3b fe 92 3e
       -0.5429203 -0.6001212 0.31723812 0.28709587

model._layers.2.weight f4 [32, 128]
000000 c2 5c 00 bf 79 6b 86 39 5c 79 55 bd 74 0d 4a b8
       -0.5014154 0.00025638545 -0.05211769 -4.8173082e-05
000010 0e 5a a4 3e 87 78 13 bf 0e 06 bb 3e b6 9d 3d 3f
       0.32099956 -0.57605785 0.36528057 0.7406877
000020 a1 25 74 ba 2b c7 45 3f 56 54 d9 38 bb 6d 99 be
       -0.00093134685 0.7725703 0.00010363075 -0.2996653
000030 4e 43 33 be d4 63 11 bf 27 28 05 bf 23 9f ce be
       -0.17506143 -0.5679295 -0.5201439 -0.40355787
000040 af 86 aa be dd f7 35 ba d7 c3 5d be 40 72 be bd
       -0.3330588 -0.00069415366 -0.21656738 -0.09299135
000050 31 7d f3 be 77 ad 31 be de eb ec 3e 1f 18 2d 3d
       -0.4755645 -0.17351328 0.46273702 0.04225933
000060 17 34 1d 3b 4d d2 bd be cc 90 b1 3e f8 26 e3 3e
       0.0023987347 -0.3707451 0.34680784 0.44365668
000070 79 2a a0 ba 70 27 1c 3a 4c ab 15 bf 14 24 15 3f
       -0.0012219689 0.00059568044 -0.58464503 0.58258176
000080 6d 9f 11 b9 d7 32 df 3e 9b b8 20 39 3a 5f da be
       -0.00013887668 0.43593475 0.0001532756 -0.42650777
000090 2c c8 f6 b8 0e 78 db 3a 6f 69 d6 3e ce a5 fc 3e
       -0.00011767479 0.0016744153 0.41877314 0.4934525
0000a0 39 62 f0 be 54 8e a1 bd f3 b9 2e 3f 28 e0 8e be
       -0.46949938 -0.07888475 0.68252486 -0.27905393
0000b0 28 aa 51 3f 6c 82 8c be 2d b0 89 be f9 3f 13 3e
       0.8190026 -0.27443254 -0.26892224 0.14379872
0000c0 7d 2e 2d 3f 04 b3 4c ba 88 03 f4 be 89 12 30 bf
       0.6764906 -0.0007808658 -0.47658944 -0.6877828
0000d0 8c 72 2e bf 39 93 fb be 78 bf 24 3f e0 b5 16 be
       -0.68143535 -0.4913576 0.6435466 -0.14717817
0000e0 ea 75 31 3f d2 96 bc be f6 0a 41 be 4d 81 f8 3e
       0.6932055 -0.36833817 -0.18851838 0.4853615
0000f0 e4 bf 9b bd d3 9e 82 bd 28 e9 aa 3a 4e a8 f4 be
       -0.076049596 -0.063779496 0.0013039457 -0.47784656
000100 92 ff 19 bf 53 94 db be be 23 82 be 2d 1f 18 bf
       -0.60155594 -0.428866 -0.25417894 -0.5942257
000110 fb d1 37 bf e1 69 d4 be 39 6a ff be 0d 6f d6 3e
       -0.7180478 -0.4148703 -0.4988573 0.418816
000120 e3 0e ca be 6b 4b 03 3f 5e 28 77 3a f9 fb 2e 3f
       -0.39464483 0.51286954 0.00094283174 0.6835323
000130 f8 50 c4 bd e0 1c 8f be 98 b8 3d bf 94 4e 35 bf
       -0.09585756 -0.27951717 -0.7410979 -0.70823026
000140 db 56 3f 3f e3 19 ef be 84 6e 8c 38 64 a3 2a bf
       0.74741906 -0.46699437 6.696305e-05 -0.66655564
000150 29 6a a3 3e 90 16 3e 3e 5c ee f6 3e e0 a6 4f be
       0.3191693 0.18563294 0.4822873 -0.20278502
000160 2a 0a 44 3f fa ac 4a 3f e8 b7 0a be 57 5e 0c bf
       0.7657801 0.7917019 -0.13546717 -0.5483145
000170 c7 1a ab 3e 86 12 72 be 8e ae 0c bf 0f 22 c8 be
       0.33418867 -0.23639879 -0.5495385 -0.39088485
000180 6a 3d 29 be 30 fb aa 3e d8 69 d8 be 5b d4 20 bf
       -0.16527334 0.33394766 -0.42268252 -0.6282403
000190 31 fd 11 bf 89 21 03 3f 6c 1f 26 38 5c 48 c2 3e
       -0.57026964 0.51223046 3.9606748e-05 0.3794583
0001a0 11 6b ba be 7a ff 34 bf 23 34 12 bf e4 df d7 be
       -0.3640981 -0.70702326 -0.57110804 -0.42163002
0001b0 72 ee 94 3e 1e 1f 0e bf 59 cd 21 3f 90 ee 26 bf
       0.2908817 -0.5551623 0.6320396 -0.6520777
0001c0 10 c1 e6 be 54 19 57 3f 59 51 c8 3e a3 23 35 bf
       -0.4506917 0.8402302 0.39124563 -0.707575
0001d0 5c 7d 75 be a1 6e 0e 3f ec f8 18 bf c0 40 86 be
       -0.23973602 0.55637556 -0.59754825 -0.26221275
0001e0 d4 5b 29 bf 4a 3d 9d be 27 4c 48 be 8d 06 10 bf
       -0.66155744 -0.30710822 -0.195603 -0.56259996
0001f0 23 2c 48 be 84 77 e2 3e b0 8a 27 bf 3a 3d 4e be
       -0.19548087 0.44231808 -0.65445995 -0.20140544
000200 c6 81 18 bf 07 f3 69 39 30 bb b2 bd fd 60 be ba
       -0.5957302 0.00022311146 -0.087271094 -0.0014524754
000210 38 21 02 3f f1 fb 25 bf e8 90 1d 3f ab b3 a4 3e
       0.5083194 -0.6483756 0.61549234 0.32168326
000220 4b bc 2d 3a d6 3c 1b 3f 10 39 44 ba 9d d2 ca 3f
       0.0006627484 0.60639703 -0.00074853096 1.5845524
000230 10 2f f9 3e 96 42 07 bf 4e 9c 33 bf a5 d0 1f bf
       0.48668718 -0.5283598 -0.7016038 -0.6242774
000240 9c 8a 09 bf 1e ee a6 3a c4 95 5e 3f 59 59 3d be
       -0.53727126 0.0012735759 0.86947274 -0.18491115
000250 85 7c 14 bf e5 a7 58 be c8 51 13 3f 82 65 a4 3e
       -0.580025 -0.21157797 0.57546663 0.32108694
000260 32 3c b9 3f 58 7a 0e be 4c 20 1e 3f 0e 36 1f 3f
       1.4471495 -0.13913858 0.6176803 0.62191856
000270 1f 61 85 3a 2e 01 f5 39 0e 7f 13 be 3c 7d 25 bf
       0.0010176039 0.0004673092 -0.14403936 -0.6464422
000280 75 09 cc ba 12 0d f0 3e f0 14 6d b8 16 a4 30 bf
       -0.0015566783 0.46884972 -5.6524703e-05 -0.69000375
000290 08 8c 91 39 37 29 9b 39 a4 5f e5 3e 80 ba 21 3f
       0.00027760887 0.0002959461 0.4479953 0.631752
0002a0 ad a2 38 bf dc 28 2b be d8 89 b5 3e 4f 04 e8 3e
       -0.72123224 -0.16714805 0.3545673 0.45315787
0002b0 f2 4c 48 3f 86 28 ec be 43 c0 8c b9 09 a4 14 bf
       0.7824241 -0.46124667 -0.00026846127 -0.580628
0002c0 88 2e 33 3f 44 20 05 ba e5 c1 31 bf e0 e1 15 be
       0.69992876 -0.00050783553 -0.69436485 -0.14636946
0002d0 9c 60 51 be 3f 95 27 bf 22 09 57 3f 98 15 a1 be
       -0.2044701 -0.65462106 0.8399831 -0.31461787
0002e0 79 49 06 3f 9c 7f 02 40 f8 c6 85 3d bb 1a 50 3f
       0.5245586 2.0390387 0.06532091 0.8129079
0002f0 20 8f 86 39 8a 59 86 38 f8 62 07 3f 4b 82 04 bf
       0.00025665108 6.406296e-05 0.5288539 -0.5176131
000300 bc d2 ea be 39 39 fc be a3 8c f9 be 2f 50 05 bf
       -0.45863903 -0.49262407 -0.4874011 -0.52075475
000310 69 c4 e9 3f 2f 94 0d bf bc 14 40 bf 9d ae 45 3f
       1.8263065 -0.55304235 -0.7503164 0.77219564
000320 00 8d f6 be 49 55 43 3f ef a8 88 3a 1f 22 ee 3e
       -0.4815445 0.7630201 0.0010426323 0.46510407
000330 f4 80 4b bf e5 4b 32 be 0e 59 d4 be ac c0 9e be
       -0.7949364 -0.17411764 -0.41474193 -0.31006372
000340 6f b7 4a 3f 83 ac 12 bf ac 4b 0c b8 8c 88 bf be
       0.7918615 -0.5729448 -3.3449076e-05 -0.37408864
000350 66 f1 37 bf 92 c3 28 3f d0 8f a1 3e 74 ef d3 3f
       -0.7185272 0.65923417 0.31555033 1.655745
000360 a1 1d 0e 3f bf 11 48 3f 61 c9 02 bf c0 f7 3a bf
       0.5551396 0.7815208 -0.5108853 -0.73034286
000370 a2 73 32 3f 4e c8 42 bf 3d df 3b bf 56 7c 20 bf
       0.6970769 -0.7608689 -0.7338751 -0.6268972
000380 b5 5f 4c be fb 18 db be ae c8 cf be 05 36 1c bf
       -0.19958384 -0.42792496 -0.40582794 -0.6101993
000390 90 a4 3d bf 85 bc 5a 3f 01 a2 88 3a 3b f7 b6 be
       -0.7407923 0.8544391 0.0010424257 -0.35735497
0003a0 aa ab af be 83 41 d6 3f 6c 00 ba be d4 1f 9f be
       -0.34310657 1.6738743 -0.36328447 -0.3107897
0003b0 58 50 10 bf 5d 66 0a bf 58 3c da 3e 73 9d df be
       -0.56372595 -0.54062444 0.42624164 -0.43674812
0003c0 eb 57 fe be aa 58 38 3f 10 5a e8 3e 88 0c d7 3f
       -0.4967645 0.7201029 0.45381212 1.6800699
0003d0 88 c4 00 bf 38 f4 50 3f 00 de 30 bf 66 de d5 be
       -0.5029988 0.8162265 -0.69088745 -0.4177124
0003e0 96 dd 09 bf 64 b3 b0 3a 61 56 02 3f a2 11 41 bf
       -0.5385374 0.0013481197 0.50913054 -0.7541753
0003f0 15 40 58 be a8 10 5a 3f 02 de d3 be f8 37 1b bf
       -0.21118195 0.85181665 -0.41380316 -0.60632277

model._layers.2.bias f4 [32]
000000 75 a6 e9 be 49 12 e8 be 55 12 1f bf af b5 18 bf
       -0.4563481 -0.4532645 -0.6213735 -0.5965223
000010 c3 f9 7f be 15 8d 39 bf fe 8e e9 be 17 0b 70 3e
       -0.2499762 -0.724809 -0.45616907 0.2344173
000020 07 d4 1a bf 23 5b e9 be 4a b3 e8 be a7 18 83 bf
       -0.6047978 -0.45577344 -0.45449287 -1.0241898
000030 b4 e5 26 bf ac d4 e9 be 0d 11 1a bf 53 63 e8 be
       -0.6519425 -0.45670068 -0.6018227 -0.45388278
000040 4b 85 9d be 88 2c eb be 10 b0 e8 be f8 26 e9 be
       -0.30765757 -0.45932412 -0.45446825 -0.45537543
000050 e0 81 1a bf f9 9c e7 be 98 f8 e8 be f5 74 e8 be
       -0.60354424 -0.45236948 -0.45502162 -0.4540173
000060 17 44 e8 be 6e 76 3b bf 8d 32 e8 be 7f 44 e7 be
       -0.45364448 -0.73227584 -0.45351067 -0.45169446
000070 3b 6d e9 be 3a b7 b0 3e b1 99 23 bf 8a c9 e9 be
       -0.4559115 0.3451479 -0.6390639 -0.45661575

model._layers.3.weight f4 [1, 32]
000000 92 b9 57 3e c9 07 08 bc 62 07 9d bd e6 38 9c bc
       0.21066883 -0.008302637 -0.07667424 -0.0190701
000010 0a a1 a8 bd e5 76 cb be 27 cd 5a 3e ae 23 8a bd
       -0.08233841 -0.39739147 0.21367322 -0.067450866
000020 5e 40 ce bd 4a ff 28 3e 3a 5f d9 3e 29 06 04 bf
       -0.10070871 0.16503635 0.42455465 -0.515719
000030 4c a2 92 be cb f1 0a 3e c3 07 39 be f6 3e c3 3e
       -0.28639448 0.13568799 -0.18069367 0.38133973
000040 ff 32 2d 3e 41 30 7c 3e c1 02 d4 3e 28 a0 16 3d
       0.16913985 0.24627782 0.4140835 0.03677383
000050 06 7b 82 bd fa 3c 29 3e f2 e0 26 3e b2 bb 04 3e
       -0.06371121 0.16527167 0.16296747 0.12962225
000060 f4 f5 53 be 1f 35 43 3d 86 90 1c 3e 2a d1 09 3e
       -0.20699292 0.047658082 0.15289506 0.13458696
000070 c9 89 92 bd 0d cc 5a 3f 70 4a 85 3d c9 f5 55 bd
       -0.07155187 0.85467607 0.065083385 -0.052236352

exp_avg f4 [32, 1]
000000 6d 9c 8d 38 e2 5f 1f bc 8a 65 73 b6 60 b5 8a b6
       6.7525405e-05 -0.00972745 -3.6268925e-06 -4.1338353e-06
000010 cf 04 9c 3a b3 bb c4 39 15 03 7d b6 53 56 d4 39
       0.0011903289 0.0003752388 -3.7701732e-06 0.00040500108
000020 42 b3 37 b6 df 79 83 39 e6 2a a0 b6 3f 63 a6 bb
       -2.7373467e-06 0.00025077068 -4.7733656e-06 -0.005077749
000030 87 23 80 b6 1e 55 6a ba 2d 24 01 3a bd 89 be 39
       -3.818833e-06 -0.0008939075 0.000492635 0.00036342247
000040 44 fa 19 bd 73 4c fb 39 56 1b a5 39 44 c6 81 b6
       -0.037592188 0.0004793141 0.0003149162 -3.8675807e-06
000050 a5 91 fb 39 6a b0 30 3a 0d 20 f8 39 83 31 29 3a
       0.00047982964 0.0006740155 0.00047326126 0.0006454216
000060 86 55 d4 39 9e 3e 9b b6 d8 4a 2a 3a 35 25 93 39
       0.0004049951 -4.6266496e-06 0.0006496138 0.00028065746
000070 42 57 97 b6 6c 36 a3 b6 d0 fd 4e b6 9b 92 0f 3a
       -4.510309e-06 -4.864114e-06 -3.084413e-06 0.0005476863

exp_avg_sq f4 [32, 1]
000000 1f 90 d4 41 64 8c 95 3a cb a6 0f 38 15 ad b5 32
       26.570372 0.0011409638 3.4249195e-05 2.1149882e-08
000010 93 c8 11 3a f6 39 47 44 36 08 3e 36 95 5c 62 44
       0.0005561199 796.90564 2.8316986e-06 905.4466
000020 10 78 5c 3d 69 db ab 43 dc 06 f2 33 2f 1f 9b 3a
       0.053825438 343.71414 1.1270251e-07 0.0011834855
000030 25 e9 20 32 35 5f 51 3f 4a 05 a9 44 db 7b 38 44
       9.366237e-09 0.817859 1352.1653 737.93524
000040 56 48 b3 44 78 d7 9d 44 a0 91 08 44 64 e9 9e 37
       1434.2605 1262.7334 546.2754 1.8943749e-05
000050 ce 35 a4 44 5a fd 1c 45 15 91 99 44 53 fc 10 45
       1313.6814 2511.8345 1228.5338 2319.7703
000060 bc c2 65 44 38 1d 03 34 21 a2 11 45 a8 11 e8 43
       919.0427 1.2210955e-07 2330.133 464.13794
000070 5e 73 9e 34 05 2c dd 34 56 77 2c 31 75 bf d1 44
       2.9513734e-07 4.1196486e-07 2.5097129e-09 1677.983

exp_avg f4 [32]
000000 2f 5c 42 37 73 8d 3c bb ec 28 b8 b6 b8 15 14 b6
       1.1584764e-05 -0.0028770834 -5.4883913e-06 -2.206636e-06
000010 fe 7e 82 3a a1 08 ae 38 78 81 4b b6 79 b8 bd 38
       0.000995606 8.298574e-05 -3.0324718e-06 9.046583e-05
000020 85 df b4 b6 c6 33 61 38 7e a5 48 b6 87 15 6d b9
       -5.390439e-06 5.3692398e-05 -2.9898652e-06 -0.00022610101
000030 66 f7 dd b5 c0 54 a1 36 41 a8 e8 38 9f 99 a0 38
       -1.6537786e-06 4.80804e-06 0.00011093962 7.658009e-05
000040 d5 dc 72 bc 8d 84 e2 38 3f 06 91 38 35 6c c8 b6
       -0.014823158 0.00010801209 6.915302e-05 -5.9730614e-06
000050 9b 6a ce 38 c1 18 22 39 b2 a3 de 38 26 55 1b 39
       9.842702e-05 0.00015458745 0.000106162755 0.00014813672
000060 13 4d bd 38 96 6d 8f b6 f7 e7 1b 39 fe f1 84 38
       9.0265785e-05 -4.2744896e-06 0.00014868366 6.339325e-05
000070 31 20 94 b6 06 85 9a b6 3e 5e 8a b5 8c 62 02 39
       -4.4144913e-06 -4.6050436e-06 -1.0309229e-06 0.00012434478

exp_avg_sq f4 [32]
000000 ab 81 bd 3f 6c d2 e2 38 36 fb 2e 36 64 fb 3f 30
       1.4805197 0.00010815714 2.6074244e-06 6.9842643e-10
000010 f6 b7 91 38 78 67 32 42 96 9d 5a 34 fa 00 4e 42
       6.948404e-05 44.601044 2.0360162e-07 51.500954
000020 4f 4f 29 3b b1 ce 9c 41 30 91 e2 30 a8 21 b7 38
       0.0025834625 19.600924 1.6484929e-09 8.732389e-05
000030 14 1f e1 2f 0d a5 60 3d b0 7b 98 42 2e a6 16 42
       4.0949344e-10 0.054844905 76.24158 37.662285
000040 eb 4c a4 42 56 91 8f 42 3c 76 f8 41 82 75 54 36
       82.15023 71.78386 31.057732 3.165886e-06
000050 f4 02 76 42 97 b7 0f 43 da 06 8b 42 06 21 04 43
       61.502884 143.71715 69.51338 132.129
000060 37 a6 4e 42 cc 04 48 32 5a 01 05 43 cd ab d2 41
       51.66232 1.1642623e-08 133.00528 26.333887
000070 7d 2b 8d 32 58 f5 29 33 f0 9c 7f 2f 69 35 bd 42
       1.6434337e-08 3.9571518e-08 2.324787e-10 94.60432

exp_avg f4 [128, 32]
000000 50 b9 bb b6 ba 5f 97 30 e6 49 04 b0 12 f4 3a 2f
       -5.5946075e-06 1.1013903e-09 -4.8126336e-10 1.7003313e-10
000010 c4 e7 66 2f da 78 a0 b6 a0 73 44 ad 55 1c d1 b6
       2.1000718e-10 -4.7824406e-06 -1.1166984e-11 -6.2319837e-06
000020 95 56 97 ae 23 b7 a6 b6 6a 84 00 af b9 8c 0a af
       -6.882065e-11 -4.9685054e-06 -1.1688575e-10 -1.2601022e-10
000030 5b 52 65 af 6e 99 a3 b6 76 44 9d b6 16 73 8f 2f
       -2.0856687e-10 -4.87564e-06 -4.6869345e-06 2.6093322e-10
000040 3a a6 9e b6 15 39 ac b6 a6 f1 ae b6 ee ab 94 b0
       -4.7281183e-06 -5.1326447e-06 -5.2137357e-06 -1.0817283e-09
000050 5c 39 80 30 38 85 a2 b6 a2 a6 96 b6 fa 41 a2 b6
       9.329528e-10 -4.843485e-06 -4.489747e-06 -4.835657e-06
000060 6b 33 b3 b6 36 8d 5b b0 58 92 c1 b6 12 e2 c5 b6
       -5.3406015e-06 -7.987241e-10 -5.768885e-06 -5.8973756e-06
000070 2c e8 41 ae 88 81 8c 30 52 26 06 b0 ef 77 a0 b6
       -4.408933e-11 1.0223156e-09 -4.880337e-10 -4.7823337e-06
000080 b4 75 39 b6 51 4e e6 af e0 15 1e 2d c0 a2 60 2f
       -2.763566e-06 -4.1892403e-10 8.986117e-12 2.0430502e-10
000090 df 6e 5b b1 44 3a 0f ae 5a de ce af 78 59 00 31
       -3.1931717e-09 -3.2566186e-11 -3.7629172e-10 1.8677309e-09
0000a0 40 dc ce 2c b2 5d ab 30 fb cd ac 2e 69 b7 4d 30
       5.879325e-12 1.2468517e-09 7.858244e-11 7.4839207e-10
0000b0 18 22 b1 2e d8 91 36 b6 83 4d 2a 32 66 6c 46 2f
       8.0550844e-11 -2.7205006e-06 9.9129265e-09 1.8046506e-10
0000c0 12 1a 6e b6 01 69 a9 b2 ef 1e 8e 2e 50 6b 8a af
       -3.5479939e-06 -1.972194e-08 6.462907e-11 -2.5178304e-10
0000d0 47 a1 9c af 58 90 15 b6 d7 9f e8 b4 46 27 31 30
       -2.849083e-10 -2.228675e-06 -4.3329666e-07 6.4448036e-10
0000e0 76 2e aa 2e d8 91 49 b2 24 85 d8 b5 5f ea cf af
       7.738958e-11 -1.1732901e-08 -1.6132003e-06 -3.781961e-10
0000f0 da 2a 2a 33 ca 50 6f 2f e4 18 1d 2e be 11 b6 2f
       3.9620183e-08 2.1765625e-10 3.5719774e-11 3.3118214e-10
000100 e4 53 a2 b6 ee ab 0b af 8c d9 3c 2f e3 34 83 b0
       -4.8377424e-06 -1.2703058e-10 1.7175789e-10 -9.546536e-10
000110 38 4f 54 30 d6 49 75 ae 18 2a bb ae 08 59 50 30
       7.723773e-10 -5.577213e-11 -8.511253e-11 7.579648e-10
000120 af ef 3c 30 85 9f 9f af 97 3a c1 2e 4e d3 74 30
       6.873461e-10 -2.9035277e-10 8.7870315e-11 8.9066965e-10
000130 02 ab 09 b0 47 5d 5c 32 50 ac e4 2d 84 67 e9 2d
       -5.0083326e-10 1.2826894e-08 2.5997121e-11 2.6535003e-11
000140 84 92 b9 b6 d0 41 2b 2e bb 28 62 2f 47 72 3f 2f
       -5.5304863e-06 3.8939352e-11 2.056905e-10 1.7411948e-10
000150 27 36 38 af 6f 4b 94 b2 c4 23 5b 2f 55 00 a5 ae
       -1.6753941e-10 -1.726377e-08 1.993064e-10 -7.50339e-11
000160 29 25 8a af c9 3b e8 2f 54 8c 93 30 21 db 41 b6
       -2.5128458e-10 4.2243034e-10 1.0735541e-09 -2.888679e-06
000170 12 85 9f af 15 7f d2 af d0 d3 62 af e4 d8 f9 af
       -2.9016484e-10 -3.8289075e-10 -2.0629831e-10 -4.5446946e-10
000180 1b b8 79 33 64 45 27 b6 c1 41 09 b0 25 7f 5c b0
       5.8142273e-08 -2.492533e-06 -4.993375e-10 -8.0216217e-10
000190 b7 99 e5 b5 88 98 2b b0 c8 cf 38 2f 54 69 d3 2e
       -1.7106566e-06 -6.24262e-10 1.6808521e-10 9.613879e-11
0001a0 e9 c6 8c 30 83 ac ca 2e ca 10 44 b0 85 ce 28 b6
       1.0242874e-09 9.216541e-11 -7.1328243e-10 -2.515416e-06
0001b0 96 1b 15 2f cf 98 6f b6 a4 db 42 ae 9e 6e 0b 30
       1.3561272e-10 -3.5702722e-06 -4.4305573e-11 5.07251e-10
0001c0 ad cd 21 b6 61 0f e5 2e 3f 74 d3 2e 1f 07 30 b6
       -2.4110589e-06 1.0416446e-10 9.6158186e-11 -2.6230189e-06
0001d0 92 e6 ff 2e 70 81 93 b5 f7 5a a0 b0 33 21 aa af
       1.1637015e-10 -1.0990025e-06 -1.1667386e-09 -3.094641e-10
0001e0 b3 36 b3 2f 99 a1 a1 b0 ab fc 4a b3 cc 9c 3f 30
       3.2598776e-10 -1.1760221e-09 -4.726159e-08 6.9708217e-10
0001f0 22 67 8c af 3e b2 3b 2f de a9 7a 2e 3e 0d e7 af
       -2.5539132e-10 1.7070875e-10 5.699429e-11 -4.2028064e-10
000200 fa cf bd b6 92 f5 ce 2f d9 2d 84 30 68 53 8e 30
       -5.6568506e-06 3.764567e-10 9.617295e-10 1.0355565e-09
000210 da aa 04 af dd ab ef b6 f8 d9 bc af 6f 88 e2 b5
       -1.2066029e-10 -7.1427626e-06 -3.4351877e-10 -1.687802e-06
000220 e6 86 2c b6 86 1a 71 b5 14 2b 6b b0 00 8e 20 b0
       -2.5708518e-06 -8.9818093e-07 -8.555372e-10 -5.8409455e-10
000230 98 1f 30 b0 9a f1 3c b0 51 f3 8c b6 b6 15 7c b6
       -6.4073324e-10 -6.873734e-10 -4.200651e-06 -3.7563564e-06
000240 7a 55 a8 b6 da 9c e1 b6 10 3e b0 b6 b2 1a db 2f
       -5.016741e-06 -6.7237825e-06 -5.2524338e-06 3.9854836e-10
000250 92 28 2a b6 d6 0e 0b b6 26 8f 5c b6 f4 1c 5b b6
       -2.535559e-06 -2.072125e-06 -3.2865878e-06 -3.2650396e-06
000260 73 38 da b5 f8 eb 36 b0 70 91 75 b5 9e 08 f7 b6
       -1.6258695e-06 -6.6546546e-10 -9.148125e-07 -7.362177e-06
000270 68 96 9e 2e 04 32 f1 af 06 55 e6 2f bb 7a 0a b6
       7.211726e-11 -4.3873183e-10 4.189717e-10 -2.063504e-06
000280 83 dc cc 35 56 e2 a9 b6 9c 1a 07 36 a6 b2 54 b5
       1.5263362e-06 -5.0629415e-06 2.0132056e-06 -7.923612e-07
000290 23 f4 cc 37 89 bc 09 36 00 b3 67 36 b3 c6 8f 35
       2.443238e-05 2.0524333e-06 3.4525874e-06 1.0712159e-06
0002a0 4e 3f d4 2e eb 74 05 36 da 35 04 31 f4 16 93 b6
       9.651889e-11 1.98866e-06 1.923914e-09 -4.3836135e-06
0002b0 9c 24 55 b5 3b 17 ba b6 a4 21 0e 36 24 5e 80 36
       -7.9401957e-07 -5.5459363e-06 2.117923e-06 3.8256567e-06
0002c0 e2 d0 0e 36 df 1a 9e 36 39 07 59 36 66 16 f6 b6
       2.1281235e-06 4.711895e-06 3.2339724e-06 -7.333979e-06
0002d0 52 5d 5e 36 0c c7 fb 35 00 e5 82 36 b9 17 2d 36
       3.3134897e-06 1.8758888e-06 3.900961e-06 2.5792817e-06
0002e0 59 11 b1 36 a1 3e ae b6 9f fd f3 35 20 d7 d8 36
       5.2770306e-06 -5.192895e-06 1.8178724e-06 6.4623455e-06
0002f0 3b 64 a9 b6 fe b0 4e 36 2d 61 9c b6 8e af 47 36
       -5.048261e-06 3.0799415e-06 -4.660475e-06 2.9755497e-06
000300 be ad 7c b6 a0 e6 25 30 cf 90 a4 af 71 50 08 af
       -3.7652057e-06 6.035439e-10 -2.993432e-10 -1.2397706e-10
000310 00 6f ad ad ad d0 94 b6 9b 4f 09 30 5b 0a aa b6
       -1.9717117e-11 -4.4350368e-06 4.9953436e-10 -5.0676003e-06
000320 48 5b e4 b6 cb 70 67 b6 ba b0 4e 2f 23 5d 51 af
       -6.805556e-06 -3.4487337e-06 1.8798377e-10 -1.9041528e-10
000330 cd 0f 20 30 22 f9 94 30 cc 9d 2f b6 9b fc fb b6
       5.8230115e-10 1.0839225e-09 -2.6168882e-06 -7.50979e-06
000340 66 f6 4c b6 83 16 4f b6 eb 76 bd b6 17 cf 9e 30
       -3.0541792e-06 -3.0858507e-06 -5.646483e-06 1.1554872e-09
000350 d6 2b 4d b6 58 5b b3 b6 d1 4f 89 b6 e4 b2 31 b6
       -3.0572896e-06 -5.3452495e-06 -4.09221e-06 -2.6479183e-06
000360 6d 04 6d b6 d9 29 51 30 07 5b eb b6 c3 61 d4 b6
       -3.5318328e-06 7.6093226e-10 -7.0141427e-06 -6.3294733e-06
000370 00 4b 6e b0 f2 df 89 ae f1 7d 82 30 3e ae b6 b6
       -8.6690477e-10 -6.2698194e-11 9.49454e-10 -5.444307e-06
000380 1e a8 cf b6 59 a7 99 30 7c 85 a0 2f 4a 84 87 2f
       -6.188652e-06 1.1179778e-09 2.9198677e-10 2.4650354e-10
000390 10 31 32 b0 86 8e 98 b6 4a f3 30 30 95 3f 3a b6
       -6.4825745e-10 -4.546545e-06 6.437416e-10 -2.775317e-06
0003a0 36 ce d3 b6 59 d0 b5 b5 6d 6f f1 2f 3a f0 ec 2f
       -6.312296e-06 -1.3546188e-06 4.3916817e-10 4.309884e-10
0003b0 64 fa 5f 30 74 ed b1 2f 2c 82 f1 b4 c3 ff 88 b6
       8.1482754e-10 3.2364833e-10 -4.498446e-07 -4.0828904e-06
0003c0 43 0a 9c b4 d2 6c 1d b5 44 3e 77 b6 d8 2b 39 ad
       -2.906473e-07 -5.864541e-07 -3.6842112e-06 -1.0525768e-11
0003d0 fa ec 54 b6 6d 5a 99 b5 04 7e 81 b6 88 78 db b5
       -3.17284e-06 -1.1425706e-06 -3.8591697e-06 -1.6351851e-06
0003e0 7c a4 53 b6 06 ff 0f af 33 ea 9f b6 8d 6b 07 b7
       -3.1537193e-06 -1.3096377e-10 -4.7658336e-06 -8.071668e-06
0003f0 00 66 d5 ae cc 5d a0 ae 66 9d 14 2f e2 de 68 b6
       -9.7042374e-11 -7.292619e-11 1.3516441e-10 -3.4700429e-06

exp_avg_sq f4 [128, 32]
000000 d0 5e 44 37 d7 89 0a 29 ac be 73 28 71 23 17 27
       1.1704586e-05 3.0761712e-14 1.3530555e-14 2.0974672e-15
000010 0e cd 9b 27 1f 9e b4 35 42 7d d2 27 5d ea 44 36
       4.3243463e-15 1.3457064e-06 5.8422514e-15 2.9342693e-06
000020 0a 4d bf 26 00 01 60 36 d7 33 3d 28 d5 61 b4 27
       1.3274169e-15 3.3379183e-06 1.05028486e-14 5.0066106e-15
000030 38 fa 48 27 b5 a6 9b 35 80 e7 79 36 c2 c6 88 27
       2.789122e-15 1.1596918e-06 3.7238642e-06 3.7963076e-15
000040 d5 04 e9 37 4d 7b 9c 36 b0 9c 15 35 ce 09 0b 29
       2.7778015e-05 4.6635164e-06 5.5734836e-07 3.0872704e-14
000050 19 ea 0d 29 ce 4a 89 37 be 09 0b 37 12 47 15 36
       3.1511337e-14 1.6366506e-05 8.287314e-06 2.2244099e-06
000060 05 a5 b3 34 aa 1f c5 28 d3 6e 5a 37 31 59 58 34
       3.3461416e-07 2.1885126e-14 1.3019616e-05 2.0149015e-07
000070 4d a7 d0 27 a5 53 0c 29 e9 f1 25 28 7b cc 6b 34
       5.7912985e-15 3.1158795e-14 9.211796e-15 2.196047e-07
000080 57 c8 b4 30 5f 45 08 28 81 dd 8f 28 07 94 9b 27
       1.3153664e-09 7.564559e-15 1.5972251e-14 4.3181634e-15
000090 f1 c2 ff 2a f5 41 1a 27 10 01 f1 28 84 47 82 2a
       4.5432367e-13 2.1407549e-15 2.6756836e-14 2.3142263e-13
0000a0 1e 73 3a 28 59 6b 8d 2b 9f d8 dd 26 1b ba f8 28
       1.0350036e-14 1.0048448e-12 1.5393671e-15 2.7614241e-14
0000b0 7b 3a f9 27 d6 74 b9 30 92 81 48 2c d2 23 b9 28
       6.917479e-15 1.3493728e-09 2.8493635e-12 2.055466e-14
0000c0 9b 6e 81 31 1d c4 42 2d 8f ba bf 26 ef f4 1d 28
       3.7669685e-09 1.1071169e-11 1.3303854e-15 8.768362e-15
0000d0 0d f6 c6 27 f9 7a 31 30 66 64 ff 2e 90 eb 80 28
       5.522281e-15 6.456698e-10 1.1613892e-10 1.4313014e-14
0000e0 f2 47 fd 26 85 90 63 2d d0 6c d4 2f 98 6f 06 28
       1.7574902e-15 1.2935546e-11 3.863989e-10 7.462692e-15
0000f0 80 30 2c 2e 7e 2b 67 27 29 b5 5b 27 a0 6f 42 28
       3.915135e-11 3.2081267e-15 3.0490562e-15 1.0793368e-14
000100 9c 0e ac 32 b7 38 cd 26 2b d8 0e 27 0b 3c fe 28
       2.0030079e-08 1.4240105e-15 1.9823644e-15 2.8225704e-14
000110 4e 54 da 28 d8 92 c0 26 38 46 bd 26 00 f4 f8 28
       2.4239423e-14 1.3362478e-15 1.3133542e-15 2.7639349e-14
000120 0a 61 82 28 20 8a a0 27 e5 99 1c 27 1a 60 d6 28
       1.4474983e-14 4.4558676e-15 2.1732775e-15 2.380045e-14
000130 61 16 27 28 f4 07 9d 2d 7d d3 02 27 21 0b c7 26
       9.275215e-15 1.7852365e-11 1.8155772e-15 1.3811415e-15
000140 ee 98 ef 32 0c 25 3a 27 b1 bf 71 27 fc 72 74 27
       2.7892806e-08 2.5832768e-15 3.3549385e-15 3.3924135e-15
000150 b8 8a 0c 27 3a 06 06 2d 3b 63 9b 27 d6 61 1e 27
       1.9504103e-15 7.618401e-12 4.312873e-15 2.1979942e-15
000160 6b 39 db 27 2a ad 89 28 6c d9 a6 2b f7 23 2f 32
       6.0846963e-15 1.5285153e-14 1.1855356e-12 1.0194518e-08
000170 4a 8a a4 27 21 22 e5 27 1b 35 b7 27 81 b9 96 28
       4.5669077e-15 6.359727e-15 5.085028e-15 1.6733795e-14
000180 ff e9 1d 2e 9a 1a 3f 30 15 ec 26 28 35 cc 9f 28
       3.5905497e-11 6.95232e-10 9.266043e-15 1.7741107e-14
000190 f0 5b e0 2f e3 fc c0 28 70 63 44 27 a4 b6 ff 27
       4.0810688e-10 2.1425954e-14 2.725437e-15 7.0974737e-15
0001a0 ae 49 0c 29 01 f6 d2 26 84 ce a8 28 d3 be 6d 30
       3.115015e-14 1.4638357e-15 1.8741309e-14 8.6491275e-10
0001b0 32 7f cd 27 0d 3f 4c 31 c6 bc 1a 27 99 b2 be 28
       5.7036835e-15 2.9721747e-09 2.1474128e-15 2.1171692e-14
0001c0 c2 91 91 30 df 5a 1d 27 6a 94 d2 26 b1 95 80 30
       1.0591565e-09 2.1837388e-15 1.4611905e-15 9.355771e-10
0001d0 29 90 ed 26 f0 b4 8a 2f 0e 39 04 29 4d 2f 33 28
       1.6484253e-15 2.5230618e-10 2.9359375e-14 9.946753e-15
0001e0 dd 1a df 27 a1 d3 04 29 b4 3a 74 2e dc 53 dc 28
       6.192406e-15 2.9493447e-14 5.5531316e-11 2.4461275e-14
0001f0 1d 79 40 28 f8 2b 0d 27 0e 63 c9 26 be 99 0d 28
       1.0684403e-14 1.9591516e-15 1.3974026e-15 7.86041e-15
000200 7a 39 94 3c 81 5b e9 27 25 eb cb 28 20 82 00 29
       0.018093813 6.47697e-15 2.2639505e-14 2.8534575e-14
000210 d3 54 ca 26 de 3d 40 3b 89 67 6f 28 ee 85 ba 3c
       1.4039557e-15 0.002933375 1.3289616e-14 0.02276894
000220 8b 48 9c 39 08 21 c8 3c d7 b6 d7 28 81 17 52 28
       0.00029808687 0.024429813 2.394909e-14 1.1662438e-14
000230 c6 c9 aa 28 e5 9b 7f 28 d8 17 d2 3c e7 00 5e 3b
       1.8961297e-14 1.4189148e-14 0.025646135 0.003387505
000240 88 20 3c 3d b7 17 ed 3c b1 a5 45 3c c5 6f 30 28
       0.04592946 0.028941972 0.01206343 9.794199e-15
000250 b4 e7 2f 3b 1c c0 80 3d 9d 67 25 3d 61 a7 a3 3c
       0.0026840987 0.06286642 0.040382016 0.019977273
000260 33 08 2c 3c f0 19 dd 28 16 92 5c 3d 13 ef 66 38
       0.010500002 2.4547177e-14 0.053850256 5.505893e-05
000270 39 32 f2 26 8c 09 0a 28 f9 ac 71 28 d3 56 1c 3c
       1.6805736e-15 7.662609e-15 1.3415695e-14 0.009542185
000280 1f 75 0d 3c a5 95 6f 33 cb 4b 45 34 1a bc 3a 2f
       0.008633881 5.5782625e-08 1.8374628e-07 1.6983429e-10
000290 35 4d 39 35 7f 3f cd 3a d7 c5 f3 33 04 96 31 3b
       6.903022e-07 0.0015659182 1.1351556e-07 0.0027097473
0002a0 b5 e5 cc 26 34 47 45 3b 86 ad fc 2b 33 b3 76 33
       1.4217606e-15 0.0030102255 1.7953839e-12 5.743932e-08
0002b0 7f 3d 58 2f 02 25 5b 39 fc 82 54 3b f8 68 ec 37
       1.9666933e-10 0.00020899254 0.0032426706 2.8182272e-05
0002c0 cb 04 96 3c 26 a5 7d 3b d8 6a 75 3a 85 11 74 33
       0.018312832 0.0038703172 0.0009361929 5.682661e-08
0002d0 91 d6 c5 36 b6 dd 34 3c f5 42 ca 3b 37 f5 10 3b
       5.8960363e-06 0.011039188 0.0061725327 0.0022118816
0002e0 e4 f4 3c 3a f7 d1 e3 35 ac 3d 14 3c eb ac 34 3a
       0.00072081224 1.6973926e-06 0.009047907 0.0006892222
0002f0 91 7d ad 36 31 9d 85 30 7c c7 cd 31 5a 75 1c 3a
       5.1704196e-06 9.7217e-10 5.988964e-09 0.00059684145
000300 44 89 84 3b fb 81 99 28 10 c3 ef 27 cd e2 00 27
       0.0040446837 1.7042782e-14 6.6547313e-15 1.7886517e-15
000310 18 24 3a 28 22 e5 2b 3a 75 f1 26 28 df c7 a6 3b
       1.0332901e-14 0.0006557276 9.267209e-15 0.0050897445
000320 40 bd 8b 38 64 f2 b2 3b d3 4f 64 27 62 23 27 27
       6.663287e-05 0.005461024 3.168463e-15 2.3195087e-15
000330 58 35 4d 28 1d fc 0a 29 46 db bb 3b 3a 81 46 3a
       1.1391353e-14 3.086083e-14 0.0057329265 0.0007572357
000340 16 37 28 3c 97 ff d3 3b 43 ba 30 3b 57 bd 08 29
       0.01026704 0.0064696777 0.002696649 3.0362292e-14
000350 8a 49 1d 3a fa 3e 66 3c d5 e5 13 3c 16 55 92 3b
       0.0006000033 0.014053101 0.009026964 0.0044657094
000360 de d2 19 3b 0c 06 f9 28 6f 39 45 3c f6 7d 4e 37
       0.0023471634 2.7647176e-14 0.012037619 1.2307884e-05
000370 6d 4d d7 28 47 eb bf 26 7c a4 0d 29 9a ca 0b 3b
       2.3903373e-14 1.3317059e-15 3.1450957e-14 0.0021330477
000380 60 29 ef 3c 48 12 0a 29 fb 3a bb 27 31 23 60 28
       0.029194534 3.0658012e-14 5.1966873e-15 1.2442129e-14
000390 cf 77 84 28 a4 17 9b 3b 4a a2 84 28 79 7a 16 3d
       1.4706903e-14 0.004733043 1.4725326e-14 0.036737893
0003a0 5d 29 fc 39 7c 74 21 3d f0 1d 0a 28 d7 cd 0c 28
       0.00048096004 0.03941773 7.6670305e-15 7.8161956e-15
0003b0 c5 e7 a3 28 2c 0c b1 28 6f 7e 29 3d 27 1a b3 3b
       1.819715e-14 1.9656226e-14 0.041380342 0.005465764
0003c0 ca c5 97 3d 9b 46 3f 3d f2 73 9f 3c dd f6 d8 26
       0.07410772 0.046698194 0.019464467 1.5054923e-15
0003d0 81 e9 8d 3b 76 bd cf 3d e0 70 85 3d 51 07 04 3d
       0.0043308144 0.10143559 0.0651567 0.03223354
0003e0 9d c9 8a 3c b7 ce 20 27 3f f2 b1 3d 80 4e ba 38
       0.01694184 2.231652e-15 0.08688783 8.883793e-05
0003f0 8f 73 b3 27 31 22 b5 28 b1 55 07 27 1b 41 7c 3c
       4.980777e-15 2.0109865e-14 1.8781467e-15 0.015396382

exp_avg f4 [128]
000000 22 67 b0 b6 bf 2f 93 b6 7f 80 b5 b6 24 45 c4 b5
       -5.257215e-06 -4.3864998e-06 -5.4091793e-06 -1.462326e-06
000010 ad 36 a8 b6 da c6 d1 b9 c5 d9 b9 b6 1b 3a 9f b6
       -5.0131553e-06 -0.00040011742 -5.5387814e-06 -4.7453336e-06
000020 02 bf b1 b6 26 29 be b6 13 1f aa b6 ce d3 05 b9
       -5.2972473e-06 -5.6672316e-06 -5.0700123e-06 -0.00012762772
000030 9b 90 c2 b5 f0 6f d1 37 52 c9 ed 37 b2 55 ce 37
       -1.4496212e-06 2.4966866e-05 2.8346349e-05 2.4597019e-05
000040 f8 be 3d b8 4d 87 ac b6 fb 5e f4 ba 39 85 b7 b6
       -4.5238965e-05 -5.1417505e-06 -0.0018644029 -5.469334e-06
000050 0d 09 79 b6 fc 32 b7 b6 3c 83 c4 b6 56 78 f7 35
       -3.710916e-06 -5.4597604e-06 -5.856533e-06 1.8437956e-06
000060 ee 81 8c ba 87 56 d3 36 6f 75 b6 b6 a0 43 c3 b6
       -0.0010719874 6.298363e-06 -5.4376937e-06 -5.8193255e-06
000070 36 8f b7 b6 96 ee b6 b6 a2 7c 6e 37 7f 12 6a b6
       -5.470497e-06 -5.4517977e-06 1.4214924e-05 -3.4879483e-06
000080 c3 37 18 b6 a9 1c ac b6 32 e6 4c b6 10 b1 b3 b6
       -2.2682223e-06 -5.129336e-06 -3.053236e-06 -5.3552285e-06
000090 ff d3 7b b6 b8 87 9f b6 71 1b c2 b6 a9 83 c4 b6
       -3.7525313e-06 -4.754369e-06 -5.784845e-06 -5.8565824e-06
0000a0 44 9f 6a 37 2c 48 99 b6 f9 fc bc b6 58 55 be 3a
       1.3984569e-05 -4.5681572e-06 -5.6322865e-06 0.0014521284
0000b0 b7 ac be b6 ae 8f b0 b6 48 c8 87 b6 9e 57 b4 39
       -5.682548e-06 -5.2619353e-06 -4.0466293e-06 0.00034397555
0000c0 4b f9 af b6 c9 85 8f b6 1d be 1e ba 28 ea 3e 37
       -5.244428e-06 -4.2773067e-06 -0.0006055551 1.1379401e-05
0000d0 0a 49 1d 38 98 0f 11 38 37 7f b9 b6 0a a6 c5 37
       3.749974e-05 3.4585217e-05 -5.5282394e-06 2.3561548e-05
0000e0 e4 2c c4 b6 00 cc c1 38 f6 6e 13 b6 f4 a4 c2 b6
       -5.846481e-06 9.240955e-05 -2.1969295e-06 -5.8008536e-06
0000f0 96 8e b5 b6 58 b6 94 b6 b9 16 c3 b6 9e 88 13 b6
       -5.4108195e-06 -4.4319713e-06 -5.814098e-06 -2.1984229e-06
000100 94 92 e2 36 d4 28 0c 38 1c 73 b7 b6 ca 95 d2 35
       6.752389e-06 3.3416625e-05 -5.4672255e-06 1.5689814e-06
000110 5c de ef b6 a7 75 8a b6 f0 8c bd 34 58 8c ae b6
       -7.148641e-06 -4.126417e-06 3.530654e-07 -5.2019423e-06
000120 02 e4 3b 39 42 0f a5 b6 7c 5c a7 b6 02 e9 c4 b6
       0.00017918649 -4.9191594e-06 -4.9877544e-06 -5.868381e-06
000130 88 da ae b5 3d 6e e3 37 9d b0 69 38 88 56 0c 38
       -1.3027611e-06 2.7111842e-05 5.5716013e-05 3.345919e-05
000140 ec 97 bf b6 8a de e3 b5 af c8 96 b6 b8 25 94 37
       -5.7099296e-06 -1.6977585e-06 -4.493711e-06 1.7660539e-05
000150 52 80 ae 35 2f 54 c4 b6 88 b2 c5 b6 5d 36 c3 b9
       1.3001356e-06 -5.8510554e-06 -5.8918413e-06 -0.00037233802
000160 ff 0f c6 b6 fe 1b c2 b6 8c 1a c8 37 fd 2a 0e 37
       -5.902722e-06 -5.7849093e-06 2.385422e-05 8.473869e-06
000170 df ae b9 b6 2d 6b ee 37 62 1f 21 37 e7 d8 4a 36
       -5.5337873e-06 2.8421719e-05 9.603655e-06 3.02266e-06
000180 30 28 28 38 55 7b 8e b5 46 7a 00 38 7a d7 39 b6
       4.009175e-05 -1.0615719e-06 3.0631454e-05 -2.7692572e-06
000190 e6 ed e0 37 f2 02 be b6 30 bd 91 b6 97 9e b0 b6
       2.6813661e-05 -5.662784e-06 -4.343361e-06 -5.263671e-06
0001a0 b1 ce b7 b6 59 5f 3c 39 08 6f c8 37 f8 0b 1d 38
       -5.477887e-06 0.00017964597 2.389356e-05 3.7442864e-05
0001b0 f0 fe 59 b6 fc 9d 07 b6 a2 6d b0 b6 22 3f 69 b9
       -3.2483913e-06 -2.0208527e-06 -5.2579717e-06 -0.0002224413
0001c0 70 9f ec b5 f7 1f c2 b6 85 d7 b6 b6 76 13 16 b8
       -1.7629773e-06 -5.7853717e-06 -5.4491125e-06 -3.578091e-05
0001d0 a7 b1 cd 37 96 e8 c3 b6 57 8f e7 37 e6 a8 9f 37
       2.452063e-05 -5.8385294e-06 2.7604094e-05 1.9032927e-05
0001e0 26 cb fc 37 78 80 8b b6 ae 8e cf b4 14 3e 8f b8
       3.013534e-05 -4.1574785e-06 -3.8660568e-07 -6.830334e-05
0001f0 18 3e b6 b6 5b 00 bb b6 b0 63 51 36 92 c7 82 ba
       -5.4312513e-06 -5.5730757e-06 3.1201453e-06 -0.000997769

exp_avg_sq f4 [128]
000000 3b b1 65 36 6e 38 83 32 c0 9a 4a 35 12 ec aa 2f
       3.422682e-06 1.5276068e-08 7.5476055e-07 3.1090558e-10
000010 d3 9f dd 3b d1 2a 3f 3b be ac c1 3a 93 f2 32 3c
       0.0067634373 0.0029169808 0.0014776213 0.010922092
000020 8a f8 67 34 80 97 48 3a b4 4d 19 35 45 5a e2 37
       2.160397e-07 0.000765197 5.7110014e-07 2.6983334e-05
000030 52 99 bf 36 ee d1 9c 40 22 64 c4 40 ad 8d a0 40
       5.7100924e-06 4.900626 6.1372232 5.0172944
000040 e7 bf 12 3d 31 9c a8 36 58 a8 87 37 b3 73 bf 37
       0.035827544 5.0249732e-06 1.6171645e-05 2.2822851e-05
000050 9f 32 9c 3c 02 9f 1e 36 35 b0 07 39 66 61 01 37
       0.019067107 2.363639e-06 0.00012940246 7.7116765e-06
000060 b6 ba 17 37 02 8a 2d 3f 19 11 10 3b c3 04 62 39
       9.043773e-06 0.6778871 0.0021982847 0.00021554813
000070 4e 49 7c 36 a8 c8 f6 35 55 ac f3 3f 65 de 1d 39
       3.7593595e-06 1.8386827e-06 1.9036967 0.00015055535
000080 7c 38 10 32 53 97 ac 3b 54 74 f4 30 ad d6 5e 39
       8.394746e-09 0.0052670627 1.7786399e-09 0.00021251543
000090 12 d4 a3 31 9e fe 93 33 e2 b8 a3 39 f5 94 07 39
       4.768034e-09 6.8915355e-08 0.0003122753 0.00012930094
0000a0 27 5a f7 3f f2 c1 5a 32 88 7e 75 3a 62 5d 81 39
       1.9324387 1.2733368e-08 0.0009364863 0.00024674373
0000b0 68 4d 36 3a 77 ef 4a 37 22 94 42 35 0e ed 82 38
       0.00069542835 1.2095893e-05 7.2486193e-07 6.243038e-05
0000c0 57 08 82 3b 33 7c 26 32 41 1f 28 3d 2d 56 b3 3f
       0.0039682793 9.690711e-09 0.04104543 1.4010674
0000d0 23 55 2b 41 f2 7f 09 41 7c a9 ca 3a 26 99 90 40
       10.708285 8.593737 0.0015461887 4.518695
0000e0 b1 24 1e 39 1d 37 a0 37 0b 4f 2c 35 6d 1e 8b 39
       0.00015081723 1.909915e-05 6.4190016e-07 0.00026534815
0000f0 00 f6 c2 36 5b e8 3a 36 d5 4c 70 39 5d 3d 81 3d
       5.8102887e-06 2.7851409e-06 0.00022916806 0.06310532
000100 64 ec 58 3f 0d 21 00 41 a4 30 d4 37 45 6a 91 3e
       0.84735703 8.008069 2.529502e-05 0.2840139
000110 58 f9 34 37 03 91 3b 3c 4a 0f 48 3e d8 0b 91 3b
       1.0786891e-05 0.011448148 0.19537082 0.0044264607
000120 53 2e 24 37 f6 e0 04 3c f9 3c d6 33 66 0a de 38
       9.785947e-06 0.0081102755 9.9762424e-08 0.00010587722
000130 f9 e1 3c 37 94 06 b2 40 95 61 a1 41 0c 2b 02 41
       1.1258287e-05 5.563303 20.172647 8.1355095
000140 7c b7 17 3a d8 a2 aa 3d 92 f9 af 32 42 ab 34 40
       0.0005787534 0.08331841 2.0486173e-08 2.8229527
000150 ea 0b 69 39 ea bd 13 39 50 b2 87 38 ef 1d 74 37
       0.0002222505 0.00014089761 6.470515e-05 1.4550503e-05
000160 90 d0 48 38 ac 9d a3 39 8f 8e 94 40 a4 45 7c 3f
       4.7877955e-05 0.00031207257 4.642402 0.98543763
000170 74 e9 c5 3a f8 48 c3 40 69 c1 91 3f 41 ba 54 3b
       0.0015099482 6.1026573 1.1387149 0.0032459649
000180 5c be 31 41 cf 30 08 35 17 74 e5 40 53 17 32 3d
       11.108974 5.0734974e-07 7.170421 0.043479275
000190 72 2c b0 40 63 10 4e 3a 0f 73 0b 32 0f 80 d5 36
       5.5054255 0.0007860718 8.117026e-09 6.3628027e-06
0001a0 e2 27 33 37 c9 c4 0e 38 69 91 a5 40 9d b3 1c 41
       1.0678517e-05 3.403871e-05 5.1740003 9.793851
0001b0 7c 83 a3 39 b5 43 8f 3d d2 d5 7a 3b 1a 37 03 3e
       0.00031187746 0.06995336 0.003827442 0.12813988
0001c0 16 eb a4 3d 19 e2 a2 39 34 45 0a 3b 59 e9 27 38
       0.080526516 0.00031067504 0.0021098377 4.0033225e-05
0001d0 88 45 9b 40 71 ed 30 39 0d 0e bc 40 0a 81 46 40
       4.8522377 0.00016873122 5.876715 3.101626
0001e0 e4 05 d5 40 c3 79 19 33 2a f1 13 37 d3 44 69 3e
       6.656969 3.573383e-08 8.818033e-06 0.2278016
0001f0 ea d0 96 35 39 d4 a5 3a cf 84 bb 38 3f 39 4a 39
       1.1236673e-06 0.0012651748 8.9415924e-05 0.00019285547
