corai/tests/pytorch_light/model_hp_opt/epoch=19-step=19-v5.ckpt (torch, 10583 bytes, 21 tensors)

model._layers.0.weight f4 [2, 1]
00000000: bdfa 8cbf 57e0 573f
-1.1014019 0.8432669

model._layers.0.bias f4 [2]
00000000: 0000 0000 041d dabd
0.0 -0.106500655

model._layers.1.weight f4 [32, 2]
00000000: cd81 d33e 2e07 4c3f 2a99 65bc 7a2e 433d
00000010: b680 d1bc c8ad 03be 5871 ab3e 4863 273f
00000020: fd7e 84bc f09f 00bd c4da dd3c 8ea6 17bc
00000030: 1d8e a73e 0b21 dabe f229 af3c 46fb e53e
00000040: 28d3 1a3e dab8 f33e a718 c23e 1bbe b9be
00000050: 3897 89be c84c 53be a5f9 bebe 2288 ea3e
00000060: 3e98 a33c 9f82 813e d9b7 90be 254a a1be
00000070: bac0 06bd ff5d 0fbd 114f 393e 1ab1 063e
00000080: 0dd5 90bc 7c95 b4be 94fe dcbe 15d2 75bd
00000090: e2c3 a8be 4bb0 4fbe c4cc d1b9 f78b 893e
000000a0: 58b2 37be 81c1 603e cfef a63a 0092 f13e
000000b0: 0026 ad3a ddfc eb3d 5710 023d bbce 263d
000000c0: 3d33 193d ba8e 00bf 5a42 bb3d 6993 333f
000000d0: 1979 f13e 28ad 57be a751 a63e c2c8 693e
000000e0: 92bc c7bd e346 32bd ea8d 0a3e 0890 e2be
000000f0: 705a 67be b66b 87bd f0f7 3ebe c5eb 603e
0.41309968 0.79698455 -0.014013568 0.047651745 -0.02557407 -0.12859261 0.33484912 0.65385866
-0.016173834 -0.03140253 0.027081855 -0.009256018 0.3272561 -0.42603335 0.021382306 0.4491827
0.15119612 0.47601968 0.37909433 -0.3627785 -0.26873183 -0.20634758 -0.3729984 0.45806986
0.019970056 0.25294968 -0.28265265 -0.3150188 -0.032898642 -0.03500175 0.18096568 0.13153496
-0.017679716 -0.35270298 -0.43162978 -0.060014803 -0.32961947 -0.20282094 -0.0004001615 0.26864597
-0.17939126 0.21948816 0.0012736263 0.47181702 0.0013210177 0.11522839 0.031753864 0.040724497
0.03740238 -0.50217783 0.09143515 0.70146805 0.47162703 -0.21062148 0.3248417 0.2283049
-0.09752764 -0.043524634 0.13530698 -0.44250512 -0.22593093 -0.06612341 -0.18649268 0.21964939

model._layers.1.bias f4 [32]
00000000: c1c1 cb3d 9e83 313d 0000 0000 6ad4 de3d
00000010: 3b8b 0fbd 2687 5ebc 0000 0000 ee4e 71bd
00000020: c46a bbbd 0000 0000 0000 0000 e399 e9bd
00000030: e8a3 90bd 0000 0000 0000 0000 e6e0 c73d
00000040: 0000 0000 0000 0000 0000 0000 7ab0 fd3c
00000050: 3208 e8bd e84d 3fbd 1b3c eabd 7339 153d
00000060: 0000 0000 3434 d63d 0000 0000 f5e1 e2bd
00000070: 30b7 43bd 0000 0000 0000 0000 978a eebd
0.09949065 0.04333841 0.0 0.108803585 -0.03504489 -0.013582027 0.0 -0.058913164
-0.09151223 0.0 0.0 -0.11406305 -0.07062513 0.0 0.0 0.09759693
0.0 0.0 0.0 0.03096794 -0.11329688 -0.046705157 -0.114372455 0.03643174
0.0 0.10459176 0.0 -0.11078254 -0.047782123 0.0 0.0 -0.11647528

model._layers.2.weight f4 [2, 32]
00000000: 1f19 45be 76ec 64be 2cfc 5dbe 0bbb 29bf
00000010: c2df 0d3f 4db2 1cbd e790 96be d0ca 1fbd
00000020: f631 f2bc a785 8abe 2864 943e 0b81 103f
00000030: e052 eebd de3a 253b 9b89 193e 68a3 e6be
00000040: 6d2b db3e b840 e73b 57ab 12be b7f3 26be
00000050: 8767 b03e 3d47 5ebd a2e2 7b3e eb0c a1be
00000060: 5c1b c4be 6088 31bf 9ec3 4fbc 8dfe 593e
00000070: daf8 a53d 3fa2 ad3e 7040 483c 36fc 04bd
00000080: 0183 e13d fed6 a4be 919e 04bd 41a0 dcbe
00000090: 0ca8 7cbe 0b93 5dbe a698 d93e 3ccd c3be
000000a0: ce1c d3bd a410 f8be 709a e7bd e0b2 f6be
000000b0: 0d68 933e 98e5 fdbd 5095 a03c c7c0 f43e
000000c0: 5161 65bd 6a11 d63c f318 a7be 8c22 ab3e
000000d0: 4436 73bc 4b29 0ebf c309 b13d da59 04bc
000000e0: 414e c23e bd94 23bf 9546 cd3d ffda 12be
000000f0: f975 a0be dab1 82bc 840d c1bc 043b 0d3e
-0.19247864 -0.22355828 -0.21678227 -0.6630103 0.5541955 -0.03825598 -0.29407427 -0.039011776
-0.029564839 -0.27055094 0.28982663 0.56446904 -0.11636901 0.002521209 0.14993899 -0.45046544
0.4280657 0.0070572756 -0.14323173 -0.16303907 0.34453985 -0.054267157 0.24598172 -0.31455168
-0.38302124 -0.69348717 -0.012680916 0.2128851 0.08104105 0.33912846 0.012222394 -0.03246709
0.11011315 -0.32195276 -0.032377783 -0.43091014 -0.2467348 -0.21638124 0.42499274 -0.3824252
-0.103082284 -0.48450196 -0.113087535 -0.48183346 0.28790322 -0.12397307 0.019602448 0.47803327
-0.05600101 0.02613135 -0.32636222 0.33424795 -0.014844481 -0.5553176 0.0864444 -0.008078063
0.37950328 -0.6389883 0.10023228 -0.14341353 -0.31340006 -0.015953947 -0.023566015 0.13792044

model._layers.2.bias f4 [2]
00000000: 2c8c f0bd 994a fbbd
-0.11745486 -0.12270088

model._layers.3.weight f4 [1, 2]
00000000: 7931 6c3e ed48 51bf
0.23065747 -0.817519

exp_avg f4 [2, 1]
00000000: 90c9 2cb7 5991 e73c
-1.0298929e-05 0.02826755

exp_avg_sq f4 [2, 1]
00000000: 4db2 4a2c 4e80 d239
2.8804903e-12 0.00040149916

exp_avg f4 [2]
00000000: 0000 0000 2b9f 973b
0.0 0.0046271286

exp_avg_sq f4 [2]
00000000: 0000 0000 cd7b 4137
0.0 1.1532521e-05

exp_avg f4 [32, 2]
00000000: 242c 8e36 6e41 e8bb 56fc b1b3 b7c6 ebba
00000010: e207 f7b2 616b e4b5 e9e0 6d36 42c5 b2bc
00000020: 3040 9134 073f 4f3a 52a9 53b3 9367 0838
00000030: e45c 6936 ed01 92b6 d102 8a33 f594 103b
00000040: f1e1 ff35 93cf 6a3b 3f15 8436 1d7a 7eb6
00000050: 2880 46b6 ac2d 21b6 f645 82b6 e98d 6d3d
00000060: e158 3635 16d4 0cbb b4cd 4eb6 0015 62b6
00000070: a3fc 58b5 4e86 5eb5 6aeb 1136 7287 bbbc
00000080: e3e7 a5b3 b57d 78b6 aaaa 93b6 6e7d 8fb5
00000090: bfc4 6ab6 ba0f 1fb6 9e96 60b1 35cf 9bbb
000000a0: 9ff8 10b6 1c9f 0d3d b066 882e c5d6 e43a
000000b0: f842 f431 9e27 ce3c 69f6 5535 662f efba
000000c0: 8ad1 6435 cb90 a8b6 50cf b635 3b55 a5bc
000000d0: c184 9f36 23be 23b6 3bed 6736 a924 bb3c
000000e0: fd56 beb5 156e cb3a 5498 ec35 e3e3 96b6
000000f0: 08eb 2cb6 6936 97b5 3c3f 15b6 ce6e 643b
4.2370684e-06 -0.007087878 -8.2881044e-08 -0.0017988299 -2.875817e-08 -1.7018575e-06 3.5446667e-06 -0.021822575
2.7055057e-07 0.0007905815 -4.928126e-08 3.2521388e-05 3.4773775e-06 -4.3513633e-06 6.426638e-08 0.0022061442
1.9064738e-06 0.003582929 3.93638e-06 -3.7920029e-06 -2.9578896e-06 -2.4017454e-06 -3.8824464e-06 0.057996664
6.792962e-07 -0.0021488718 -3.0816127e-06 -3.3688848e-06 -8.0833905e-07 -8.2896884e-07 2.1743713e-06 -0.022891734
-7.725591e-08 -3.702805e-06 -4.4008093e-06 -1.0690835e-06 -3.4983238e-06 -2.3702e-06 -3.2681906e-09 -0.0047549256
-2.1602389e-06 0.034575567 6.202805e-11 0.0017459026 7.108948e-09 0.025165375 7.970726e-07 -0.0018248379
8.524154e-07 -5.0236463e-06 1.3620393e-06 -0.020182243 4.754024e-06 -2.4399567e-06 3.4559769e-06 0.02284463
-1.418142e-06 0.0015520478 1.7627704e-06 -4.496878e-06 -2.5766803e-06 -1.1266212e-06 -2.2239537e-06 0.0034856084

exp_avg_sq f4 [32, 2]
00000000: 6b0f 152b a462 8d37 44f8 0927 96ec 0034
00000010: 3ae2 8127 2df9 ed29 7087 d62a c4fb d439
00000020: a529 4928 6196 2835 a190 c027 7bf9 332f
00000030: d124 cf2a 1ea0 1c2b 5e21 4327 b580 4037
00000040: e8bf 0f2a 558b 7f37 1c0f 022b 8ecc f22a
00000050: 8287 9a2a 8fac 552a ef93 fd2a 70e3 cc3a
00000060: 91a0 f928 3933 1235 715a a62a f682 c32a
00000070: f3ff 1b29 5555 2129 0fd1 332a e009 6d39
00000080: c562 2227 7366 e82a eaf4 1f2b a782 6629
00000090: bd6d d12a 6ecc 502a 4761 9a23 b319 cd36
000000a0: 8bcf 312a 3f98 1c3a b030 2623 54d1 d436
000000b0: fccd 7824 d4b0 ac39 ad20 1929 eecc e433
000000c0: 0783 2729 91f1 4c2b 975c a629 035f d739
000000d0: f8c7 382b 15a8 5b2a 87d2 cc2a b036 8f39
000000e0: 3d45 b129 6c41 3037 8b36 fc29 b487 262b
000000f0: bbc0 712a 5609 7929 0ff2 3a2a 84fa 4337
5.295683e-13 1.6854443e-05 1.9147154e-15 1.2006998e-07 3.6049968e-15 1.05681394e-13 3.8108015e-13 0.0004062337
1.1166772e-14 6.2803707e-07 5.3447512e-15 1.6368588e-10 3.6796133e-13 5.564454e-13 2.7079775e-15 1.1474059e-05
1.2767532e-13 1.5231625e-05 4.6206246e-13 4.3129774e-13 2.7449923e-13 1.8978069e-13 4.5044478e-13 0.0015631747
2.7714188e-14 5.4463777e-07 2.955028e-13 3.472983e-13 3.4638914e-14 3.5823195e-14 1.5970925e-13 0.0002260576
2.253556e-15 4.1282567e-13 5.6828034e-13 5.1183582e-14 3.7202004e-13 1.8545037e-13 1.6737912e-17 6.112468e-06
1.5792764e-13 0.0005973614 9.009188e-18 6.3424613e-06 5.3950903e-17 0.00032938144 3.4001166e-14 1.0654354e-07
3.7195097e-14 7.28106e-13 7.3879427e-14 0.00041078785 6.5647444e-13 1.9509423e-13 3.6383762e-13 0.0002731583
7.87239e-14 1.050565e-05 1.120051e-13 5.9163373e-13 2.1471967e-13 5.5297204e-14 1.66041e-13 1.1681233e-05

exp_avg f4 [32]
00000000: 3247 37ba 600a 16ba 0000 0000 963d 73bb
00000010: 1420 8f38 7d54 0e37 0000 0000 b45d 8eb9
00000020: f8f6 d739 0000 0000 0000 0000 39fd 1b3c
00000030: 8aa4 fa39 0000 0000 0000 0000 d786 0fbb
00000040: 0000 0000 0000 0000 0000 0000 b941 f339
00000050: 7944 c13b cf97 68b9 8d7a 903b 1cfe dab9
00000060: 0000 0000 0229 50bb 0000 0000 19b3 6d3b
00000070: ed9b 8739 0000 0000 0000 0000 a211 6d3a
-0.0006991505 -0.0005723592 0.0 -0.0037115566 6.8247464e-05 8.483531e-06 0.0 -0.00027154165
0.00041192002 0.0 0.0 0.009520822 0.00047806307 0.0 0.0 -0.002190044
0.0 0.0 0.0 0.0004639754 0.005898055 -0.00022181797 0.0044091404 -0.00041769526
0.0 -0.0031762724 0.0 0.003627008 0.0002586538 0.0 0.0 0.000904346

exp_avg_sq f4 [32]
00000000: 2b8c dd34 4042 5132 0000 0000 bf0a 1537
00000010: 0184 a131 7339 412d 0000 0000 4b3e a734
00000020: ebca cf34 0000 0000 0000 0000 4666 2738
00000030: 1e15 4f33 0000 0000 0000 0000 4b3d b536
00000040: 0000 0000 0000 0000 0000 0000 a0b2 5834
00000050: fe47 8137 a0fd 3c34 9316 0e37 a366 bc31
00000060: 0000 0000 55bc 0837 0000 0000 51f0 e536
00000070: 3bfc 9c34 0000 0000 0000 0000 5ae3 aa34
4.1266443e-07 1.2180465e-08 0.0 8.883594e-06 4.700724e-09 1.0983536e-11 0.0 3.1151498e-07
3.8704397e-07 0.0 0.0 3.9911152e-05 4.821515e-08 0.0 0.0 5.401356e-06
0.0 0.0 0.0 2.0181551e-07 1.5411522e-05 1.7601133e-07 8.4691155e-06 5.4831886e-09
0.0 8.150081e-06 0.0 6.8527083e-06 2.9240786e-07 0.0 0.0 3.1830388e-07

exp_avg f4 [2, 32]
00000000: d932 453d 42ab 4939 da6f 27b6 4f8c b13c
00000010: cd35 3537 ab19 db36 4e9c 55b6 8c16 1d3d
00000020: cf2e 2b3d 0596 47b6 6014 5336 8fbd 433d
00000030: 8749 4a3c 3a1a 0535 fe5b fe35 009e 873b
00000040: 2f9c 9236 3499 cfb4 7d39 f6b5 e0b4 633c
00000050: bc1b c33c e6ef 203d 720d 6d3c fc57 fc38
00000060: a43f 85b6 ae2e a83c ca39 22b5 7f17 c23c
00000070: 6a90 5838 436c 7036 9904 b433 115d aa3c
00000080: 3203 143b 4f8b 1fb6 999c 57b5 4c6f 7fb8
00000090: 6449 fc33 7d91 79b6 f3b2 9136 f24c 403a
000000a0: 2137 443a f054 a3b6 b978 d1b5 0e97 a7b8
000000b0: 3822 6e39 e2c8 deb5 3efb 9933 3879 093a
000000c0: b163 8ab5 b8dc c3b3 c6d4 68b6 a88e 423a
000000d0: 6a5f 5c39 e06d 9eb8 4d3d f138 d990 46b7
000000e0: 5434 8436 5884 7637 d2ac c135 edc9 1139
000000f0: 441e 64b6 59e2 9234 0f94 2334 8b87 b539
0.048144195 0.00019232652 -2.4950045e-06 0.02167335 1.0800967e-05 6.5296967e-06 -3.1830455e-06 0.03835158
0.041792687 -2.9740634e-06 3.145331e-06 0.0477882 0.012346632 4.9584526e-07 1.8951248e-06 0.004138708
4.3693212e-06 -3.8668225e-07 -1.834516e-06 0.013898104 0.023816936 0.039291285 0.014468538 0.00012032685
-3.9711176e-06 0.020530071 -6.0433797e-07 0.023692844 5.163291e-05 3.5825803e-06 8.3827395e-08 0.02079633
0.0022584912 -2.3773935e-06 -8.032162e-07 -6.090039e-05 1.1748014e-07 -3.7188577e-06 4.342169e-06 0.00073356845
0.00074850215 -4.8676666e-06 -1.5606848e-06 -7.991317e-05 0.00022710196 -1.6598754e-06 7.1703184e-08 0.0005244198
-1.0310815e-06 -9.1205436e-08 -3.4694544e-06 0.000742177 0.0002101638 -7.554493e-05 0.00011503194 -1.1835445e-05
3.9399984e-06 1.4693556e-05 1.4429918e-06 0.00013903501 -3.3992264e-06 2.735931e-07 1.5234421e-07 0.00034623998

exp_avg_sq f4 [2, 32]
00000000: 0d78 863a b6df 9b30 566c 642a 2a17 cf39
00000010: 672f 1a2e f497 e32c 6860 b02a 2158 3c3a
00000020: 2cdb 5e3a cb0c 9c2a 729d ac2a 0063 903a
00000030: 3391 5938 2dc1 ad28 2450 0e2a 519e 1636
00000040: c7d4 1d2b f59b 8728 33c4 062a 8b0e 7238
00000050: 3b89 a239 6589 3d3a 7e2e 0839 f6ca 0630
00000060: fb2f 042b ded9 dd39 91d2 d828 5525 9c39
00000070: 9ca4 4132 6ebf da2a 3e82 ff26 4c2a 7439
00000080: cd66 6e35 b339 122e bab0 1a29 d512 4533
00000090: e1df b02c 66ab 0e2b 8602 1c2b 6a97 ed33
000000a0: f7de 4734 bc26 412b b29c ce29 767c 1633
000000b0: 4227 2133 5e68 e429 92f9 3127 a2a0 9032
000000c0: 42b0 5a29 b76c e327 6448 ce2a a757 9f33
000000d0: 4641 8a33 29c0 5332 685a 0133 89a7 1b2d
000000e0: a447 022b dc0d ea2e bb37 b629 f9d7 3933
000000f0: 03de 072b 37db 4a28 22f1 0c28 2703 a733
0.0010259167 1.1341317e-09 2.0288055e-13 0.00039499375 3.5057648e-11 6.4685982e-12 3.1330776e-13 0.0007184763
0.0008501287 2.7720044e-13 3.0662587e-13 0.0011015832 5.187206e-05 1.9290635e-14 1.2639938e-13 2.2443894e-06
5.607289e-13 1.5055646e-14 1.1969661e-13 5.771084e-05 0.00031001293 0.0007230251 0.0001298729 4.903734e-10
4.6962407e-13 0.00042314728 2.4072136e-14 0.00029782453 1.1271506e-08 3.885741e-13 1.7729482e-15 0.0002328541
8.8811504e-07 3.3247804e-11 3.4348155e-14 4.5884764e-08 5.0270764e-12 5.06864e-13 5.5425835e-13 1.10637146e-07
1.8614433e-07 6.862113e-13 9.17542e-14 3.5037793e-08 3.752144e-08 1.0143339e-13 2.4698977e-15 1.6836854e-08
4.8558603e-14 6.3123026e-15 3.6643182e-13 7.419958e-08 6.437999e-08 1.2325509e-08 3.0117377e-08 8.84793e-12
4.62847e-13 1.064355e-10 8.092091e-14 4.3270095e-08 4.826974e-13 1.1260787e-14 7.8238485e-15 7.777117e-08

exp_avg f4 [2]
00000000: 1d1a 513c 47ca 513b
0.012762574 0.0032011436

exp_avg_sq f4 [2]
00000000: a291 8038 9f03 4e35
6.130642e-05 7.674625e-07

exp_avg f4 [1, 2]
00000000: c7a3 9b3d 4ec2 5eba
0.075995974 -0.00084975816

exp_avg_sq f4 [1, 2]
00000000: c7bd 4d3b 5d58 cd33
0.0031393634 9.5621296e-08
