corai/tests/pytorch_light/model_hp_opt/epoch=259-step=259-v1.ckpt (torch, 8855 bytes, 21 tensors)

model._layers.0.weight f4 [2, 1]
0	0xbf06058b	-0.5235221
1	0xc00db624	-2.214242

model._layers.0.bias f4 [2]
0	0x3fb43729	1.4079334
1	0x3fd6658a	1.6749737

model._layers.1.weight f4 [4, 2]
0	0x3f81cd45	1.0140768
1	0x3db026fd	0.086011864
2	0xbf43082d	-0.7618435
3	0x3f0239c8	0.5086942
4	0xbf9a6cc3	-1.2064441
5	0x3f176e27	0.59152454
6	0xbf21640a	-0.6304327
7	0x3ed590c4	0.4171201

model._layers.1.bias f4 [4]
0	0x3e922ecc	0.28551328
1	0x3eb2dc5d	0.3493375
2	0x3e958e58	0.29210162
3	0x3e90e5d7	0.28300354

model._layers.2.weight f4 [2, 4]
0	0xbf6b2b4b	-0.91862935
1	0x3f55a782	0.8345872
2	0x3f8b9fda	1.0908158
3	0x3fb5d53f	1.4205703
4	0xbe51feb6	-0.20507321
5	0x3fb57f7d	1.4179531
6	0x3edafef4	0.4277264
7	0x3fb2e3b5	1.3975741

model._layers.2.bias f4 [2]
0	0xbcd17163	-0.025566762
1	0x3e21637a	0.15760604

model._layers.3.weight f4 [1, 2]
0	0xbed44a81	-0.41463092
1	0xbefda63b	-0.49540886

exp_avg f4 [2, 1]
0	0x3c1d45db	0.009599174
1	0xb93cf4f8	-0.00018020335

exp_avg_sq f4 [2, 1]
0	0x3b2c6fd8	0.0026311781
1	0x35c9739b	1.5009313e-06

exp_avg f4 [2]
0	0x3b623f4b	0.0034522589
1	0xb9940bee	-0.00028237648

exp_avg_sq f4 [2]
0	0x39c01a3d	0.00036640643
1	0x374b60bb	1.2122265e-05

exp_avg f4 [4, 2]
0	0xba279b94	-0.00063937274
1	0xb945eafc	-0.00018874923
2	0x39a73778	0.0003189405
3	0x3ae925ea	0.0017787789
4	0xbaaeb756	-0.0013329785
5	0xb9b74db8	-0.00034962385
6	0x3ae8a8fc	0.0017750557
7	0x3b06758e	0.0020516845

exp_avg_sq f4 [4, 2]
0	0x39ba81ab	0.00035573295
1	0x39e35866	0.00043362676
2	0x395b7b1b	0.00020931328
3	0x396a71dd	0.00022358396
4	0x3a51e60d	0.00080069975
5	0x3a6bcb0a	0.0008994794
6	0x3ba15f08	0.0049246587
7	0x3bacffcb	0.0052795163

exp_avg f4 [4]
0	0x3a9296c5	0.0011183849
1	0xba6cc4ce	-0.0009032012
2	0xbb3e61da	-0.0029050023
3	0xba7aa7de	-0.00095617573

exp_avg_sq f4 [4]
0	0x39f6c16d	0.0004706489
1	0x3973bfa3	0.00023245676
2	0x3a7bd7ba	0.0009607036
3	0x3bb86dfe	0.0056283465

exp_avg f4 [2, 4]
0	0xba0dd1b2	-0.000540997
1	0xb985febd	-0.00025557532
2	0x397a6e93	0.0002388305
3	0xb8b2367d	-8.497851e-05
4	0xb9941e5e	-0.00028251385
5	0x39101f72	0.00013744624
6	0xbabff7a1	-0.0014645943
7	0xba0e353f	-0.00054248044

exp_avg_sq f4 [2, 4]
0	0x39cc5520	0.00038973335
1	0x3acc5465	0.0015589116
2	0x3a525a14	0.0008024287
3	0x38d64686	0.00010217451
4	0x394e0c6b	0.00019650317
5	0x3a4a7b40	0.0007724054
6	0x3983aa55	0.00025113174
7	0x38212f67	3.8429538e-05

exp_avg f4 [2]
0	0xba952201	-0.0011377932
1	0xb9c9a32e	-0.00038459286

exp_avg_sq f4 [2]
0	0x3b075bbc	0.0020654043
1	0x3a9815bf	0.001160316

exp_avg f4 [1, 2]
0	0x3a3c0a48	0.0007173163
1	0x3a99abce	0.0011724175

exp_avg_sq f4 [1, 2]
0	0x3bb9bf0a	0.0056685256
1	0x3af094b0	0.0018354859
