corai/tests/pytorch_light/model_hp_opt/epoch=19-step=19.ckpt (torch, 9495 bytes, 21 tensors)

model._layers.0.weight f4 [4, 1]
000000 9f 06 c4 bf bf 39 33 3f d5 c8 e0 3e d4 7a b0 be
       -1.5314521 0.7000999 0.43903223 -0.3446871

model._layers.0.bias f4 [4]
000000 00 00 00 00 9e 55 87 bd be 1b 88 bd 00 00 00 00
       0.0 -0.06608127 -0.066459164 0.0

model._layers.1.weight f4 [8, 4]
000000 5a 10 de bc bf 0c 49 bf 25 6c 4f 3f 9a 26 0b 3e
       -0.027107406 -0.78535074 0.8102439 0.13588944
000010 3d 95 fb be 82 1f 58 3d 75 8f 36 bf 9b 56 9d be
       -0.49137297 0.052764423 -0.7131265 -0.30730137
000020 a0 00 c4 be 36 0f cd 3c 9d ac be be 58 8f 03 bf
       -0.38281727 0.025031667 -0.37241068 -0.513906
000030 5e ba 2b bf 12 1b 74 3e 8a 12 22 3f e2 34 14 be
       -0.6708125 0.23838452 0.6330954 -0.14473298
000040 75 3c 0c bc b5 87 e2 bc dd 0d b3 bd 5f cb 5a 3f
       -0.008559336 -0.0276526 -0.087428786 0.8546657
000050 f7 93 b6 3e fe 56 74 bf 06 90 b0 be b3 df d2 3c
       0.35659763 -0.9544524 -0.3448488 0.025741434
000060 e9 a6 85 bb 1e 66 45 bf 4b c1 fc 3e 8e 06 79 3f
       -0.004078735 -0.77108943 0.4936622 0.97275627
000070 00 16 66 bc 53 40 01 bf 21 52 5f be e9 2a de 3d
       -0.014043331 -0.50488776 -0.21808673 0.10848028

model._layers.1.bias f4 [8]
000000 00 00 00 00 2b be b3 bc c1 b4 20 bc 70 ad 88 bd
       0.0 -0.021941265 -0.00980872 -0.066737056
000010 d5 8c ac bc 00 00 00 00 00 00 00 00 00 00 00 00
       -0.021063248 0.0 0.0 0.0

model._layers.2.weight f4 [4, 8]
000000 d9 15 53 bf 5d eb d3 3e d0 dd b0 3e 97 43 5d bf
       -0.8245521 0.41390505 0.3454423 -0.8643126
000010 f2 bb 65 bb 16 03 0e bf 8c ff db bc 02 3d 06 3c
       -0.003505465 -0.5547346 -0.026855253 0.008193256
000020 3e 9c fa be b5 2c a8 3e d0 99 10 be b4 85 59 3d
       -0.48947328 0.3284661 -0.14121175 0.053106025
000030 1e 6e e9 be 0c b1 2e 3c dd ee be 3e b5 7d 41 3e
       -0.45591825 0.010662328 0.37291613 0.1889561
000040 51 d0 50 bf 1f ff 45 bd 75 d5 02 bf bb c5 b1 be
       -0.81567866 -0.048339006 -0.5110696 -0.3472117
000050 5f 36 32 3f b4 00 43 bf 94 00 81 be a1 70 47 bf
       0.69614214 -0.7617295 -0.25195754 -0.77906233
000060 f9 14 07 bf 02 4f 9f be 67 0d 19 3f 4d 36 84 3d
       -0.52766377 -0.31114966 0.59786075 0.064556696
000070 d9 82 2c bf d1 56 94 3e 37 aa 3f 3f f5 2f 36 be
       -0.6738716 0.28972486 0.748691 -0.17791732

model._layers.2.bias f4 [4]
000000 f2 fb 41 bb ca 6b 6f bd 5b 8b d2 bc fb 3b 96 bd
       -0.0029599634 -0.058452405 -0.025701215 -0.07335659

model._layers.3.weight f4 [1, 4]
000000 45 be 18 3f 0b 37 8c bf 6a 61 9c be 7b 62 97 bf
       0.5966533 -1.0954298 -0.3054307 -1.1826929

exp_avg f4 [4, 1]
000000 6c 37 6c b7 0c 0d 26 3b 9b ec c9 3b 2b ba 73 b6
       -1.40796e-05 0.0025337366 0.006162239 -3.6318186e-06

exp_avg_sq f4 [4, 1]
000000 78 8c ba 2c a0 5e 96 35 c3 ac 07 37 eb 49 e0 2a
       5.302033e-12 1.120341e-06 8.086851e-06 3.9841684e-13

exp_avg f4 [4]
000000 00 00 00 00 0c 4c 7e 3b f2 42 29 3c 00 00 00 00
       0.0 0.0038802652 0.010330902 0.0

exp_avg_sq f4 [4]
000000 00 00 00 00 09 f1 f1 34 23 24 54 36 00 00 00 00
       0.0 4.5065124e-07 3.1611496e-06 0.0

exp_avg f4 [8, 4]
000000 84 3d 4a 33 de 47 fc b6 f2 d0 01 37 b3 4d ed 35
       4.7087738e-08 -7.5185517e-06 7.737648e-06 1.768049e-06
000010 d0 5d a5 b6 2a ee 7e 35 41 f2 e6 b6 fa 7c 5d b6
       -4.9283044e-06 9.496895e-07 -6.882736e-06 -3.3004312e-06
000020 26 30 85 b6 7f b0 fb b2 81 4d 82 b6 99 09 ac b6
       -3.969314e-06 -2.9300507e-08 -3.8833246e-06 -5.1271168e-06
000030 2b 71 da b6 a6 4b c6 3b fa 16 6f 3b e5 0b f8 b5
       -6.5100808e-06 0.0060514985 0.00364822 -1.8480902e-06
000040 a9 63 c7 32 42 49 b1 36 66 de 03 36 ef 5f 08 37
       2.321197e-08 5.2835394e-06 1.9649974e-06 8.128568e-06
000050 1f ce 7a 36 96 1a 17 b7 c8 d2 73 b6 32 a5 e0 32
       3.7372881e-06 -9.006491e-06 -3.6332513e-06 2.6152154e-08
000060 b0 79 c5 af 8c 11 f8 b6 57 0b a6 36 1c ce 19 37
       -3.5920555e-10 -7.3930187e-06 4.9485056e-06 9.167499e-06
000070 0d 07 26 b5 2d 5e a9 b6 00 38 28 b6 fc d1 cb 35
       -6.185008e-07 -5.047556e-06 -2.5066547e-06 1.5185792e-06

exp_avg_sq f4 [8, 4]
000000 d1 c8 be 27 79 ac dc 2b c4 33 e9 2b 98 77 fd 29
       5.295332e-15 1.5679811e-12 1.6570014e-12 1.1256203e-13
000010 a0 b1 45 2b bb 70 4a 29 9c 47 ba 2b e7 58 bc 2a
       7.0234964e-13 4.4950788e-14 1.323597e-12 3.3457197e-13
000020 93 13 04 2b 0e 26 8a 26 d5 5b fd 2a c9 f5 54 2b
       4.6922985e-13 9.585988e-16 4.500555e-13 7.5658625e-13
000030 c0 7a a7 2b 75 18 1c 37 47 33 69 36 2f 70 08 2a
       1.1900134e-12 9.304019e-06 3.4749553e-06 1.2118148e-13
000040 81 6f 1b 26 15 2b 28 2d 24 b0 3e 2c 77 35 00 2c
       5.3927544e-16 9.5592605e-12 2.7098402e-12 1.8219573e-12
000050 9f 64 ec 2a 25 4a 1c 2c 73 73 e0 2a 40 09 84 27
       4.199184e-13 2.2210092e-12 3.9870502e-13 3.664739e-15
000060 38 56 ba 24 d9 a6 d5 2b 0f 38 47 2b e5 bd 21 2c
       8.08107e-17 1.518087e-12 7.07768e-13 2.2984889e-12
000070 32 d4 de 28 43 c8 4e 2b 11 4d 66 2a b8 b3 c5 29
       2.4738976e-14 7.346382e-13 2.0454841e-13 8.779734e-14

exp_avg f4 [8]
000000 00 00 00 00 dd c7 5b 36 55 04 4c 36 b3 f0 85 3c
       0.0 3.2749879e-06 3.040089e-06 0.016350126
000010 f7 27 8d 38 00 00 00 00 00 00 00 00 00 00 00 00
       6.730848e-05 0.0 0.0 0.0

exp_avg_sq f4 [8]
000000 00 00 00 00 82 fe 05 2c 83 f4 98 2c 83 f0 03 37
       0.0 1.9041717e-12 4.347246e-12 7.864207e-06
000010 ed c0 db 30 00 00 00 00 00 00 00 00 00 00 00 00
       1.598918e-09 0.0 0.0 0.0

exp_avg f4 [4, 8]
000000 c7 ed 03 b7 12 ff 8e 36 7c 87 77 36 e3 ae 14 b7
       -7.86357e-06 4.261624e-06 3.688473e-06 -8.862206e-06
000010 6e 03 be 33 aa 1e b8 b6 46 18 88 33 14 f4 e9 b2
       8.848188e-08 -5.487197e-06 6.337409e-08 -2.7235764e-08
000020 d0 cd a4 b6 21 15 6a 36 a0 c5 f3 b5 a4 f0 a1 bd
       -4.9115406e-06 3.4881016e-06 -1.8162427e-06 -0.07907227
000030 68 dd 9a b6 da 05 b8 b4 b4 3f 82 36 a8 ba 16 36
       -4.6153327e-06 -3.4276928e-07 3.881718e-06 2.246039e-06
000040 60 9e 02 b7 06 2f 80 b5 a3 32 ab b6 4e 3a 75 b6
       -7.785478e-06 -9.550429e-07 -5.102092e-06 -3.6541783e-06
000050 7b 40 e7 36 cb 4d f5 b6 33 7c 3c b6 66 6c fa b6
       6.891843e-06 -7.3106253e-06 -2.8086477e-06 -7.4632e-06
000060 09 1c b0 b6 73 c7 5f b6 30 e0 c4 36 a7 bc 36 bd
       -5.2484725e-06 -3.3345684e-06 5.867354e-06 -0.044613507
000070 9c 58 db b6 dc 04 53 36 d5 73 f1 36 49 15 10 b6
       -6.537024e-06 3.1444279e-06 7.1958443e-06 -2.1470062e-06

exp_avg_sq f4 [4, 8]
000000 4e 8f f0 2b 49 5f 16 2b 74 1c e5 2a 9a a6 0f 2c
       1.7092801e-12 5.342294e-13 4.0698315e-13 2.0414005e-12
000010 77 6d 5a 28 49 10 72 2b b7 18 cc 27 56 f2 23 26
       1.2125167e-14 8.599827e-13 5.664817e-15 5.688041e-16
000020 c5 6e 44 2b e4 4f d0 2a 5c 88 04 2a 66 25 92 3a
       6.978691e-13 3.7003658e-13 1.1771264e-13 0.0011150062
000030 9c d1 2e 2b 15 68 73 28 7a 7d fd 2a a9 2a 3e 2a
       6.210811e-13 1.3511779e-14 4.5028895e-13 1.6890191e-13
000040 c2 fb eb 2b ce 38 44 29 d8 01 53 2b f5 d3 e2 2a
       1.6767631e-12 4.3570013e-14 7.496482e-13 4.029274e-13
000050 c3 49 ba 2b d4 1a d1 2b cc da 8c 2a 42 90 d9 2b
       1.3236568e-12 1.485779e-12 2.5020817e-13 1.5458817e-12
000060 33 8f 5e 2b 35 e7 bf 2a 5a 69 89 2b 45 ca fb 3a
       7.906897e-13 3.4088848e-13 9.763676e-13 0.0019210061
000070 1f ce a8 2b 82 86 ac 2a 26 da ca 2b 59 f1 2f 2a
       1.1994328e-12 3.064667e-13 1.4413512e-12 1.5626857e-13

exp_avg f4 [4]
000000 14 16 fd 3b f7 4f 8a 3d 9e 30 3a 38 30 d5 d7 3d
       0.007723579 0.06753533 4.4391134e-05 0.10538709

exp_avg_sq f4 [4]
000000 20 dd 87 36 2e f8 0b 39 f0 44 3f 30 3a a1 95 39
       4.049056e-06 0.00013348527 6.958336e-10 0.00028539618

exp_avg f4 [1, 4]
000000 e6 2e 3c 39 c6 a2 07 3b 4a e4 71 b6 a4 3f ba 3a
       0.00017946548 0.0020696386 -3.604468e-06 0.001420964

exp_avg_sq f4 [1, 4]
000000 9e c5 e2 30 32 37 46 34 05 15 e8 2a 61 99 15 35
       1.649983e-09 1.8460267e-07 4.1226064e-13 5.573002e-07
