corai/tests/examples_of_tasks/example_hyper_param_sin_estim_models/model_222.pth (torch, 6863 bytes, 7 tensors)

_layers.0.weight f4 [16, 1]
000000 db b3 a2 3e ca 90 43 3f 1a e7 4c bf c0 14 2f bf
       0.31777844 0.76392806 -0.80040133 -0.68391037
000010 8a 4e ad 3e 5c 4a af 3e f0 60 36 3e 33 f6 5b bf
       0.33848983 0.3423642 0.17810416 -0.85922545
000020 b5 fa 0f 3f 37 ea 49 bf 3b 81 18 3f 55 4c bb be
       0.56241924 -0.7887301 0.5957219 -0.36581674
000030 fd e8 c4 3e 83 58 e4 3e 8c 60 08 3e 6f 58 b7 3e
       0.38459006 0.4459878 0.1331808 0.35809657

_layers.0.bias f4 [16]
000000 f1 f1 4f bd fd 3b 32 bd bd cf 7f 3d fc ca 4f 3d
       -0.050767843 -0.04351424 0.062453974 0.05073069
000010 1f e0 58 bd ea 2e 4c bd fa d9 00 bd 69 b4 b0 3c
       -0.052948114 -0.04984943 -0.03145788 0.021570401
000020 59 4b 09 bc 13 17 55 bc 57 b7 f6 bc 6d 07 36 bc
       -0.008379781 -0.01300599 -0.03011672 -0.011110169
000030 24 ec 3f bd f2 1e 3b bd 3e c4 ef bc 22 d0 96 3b
       -0.04685606 -0.04568381 -0.02926838 0.004602448

_layers.1.weight f4 [32, 16]
000000 86 52 bd 3d 0c 03 5d be 14 bf 96 bc 48 63 03 bf
       0.09244256 -0.21583194 -0.01840166 -0.51323366
000010 84 8c ee be c3 41 0f 3d 67 fd 88 3e 97 8e 0f bf
       -0.4659158 0.034974825 0.2675583 -0.5607695
000020 ba 0f 84 3e 10 14 b2 3e 3f b5 ea be ba b8 2a 3d
       0.25793248 0.3478093 -0.45841405 0.041680075
000030 da 82 15 be 75 6d 79 be d3 61 16 be da 6e 03 3f
       -0.14600697 -0.24358161 -0.14685754 0.5134102
000040 b6 78 15 be 9e 99 d5 bc c6 93 5d 3e 49 be 58 3e
       -0.14596829 -0.026074227 0.21638402 0.21166338
000050 e6 a4 c6 3e 7c 06 e3 3e 68 9b fd 3e 81 65 cd 3e
       0.38797683 0.44340885 0.49532628 0.40116504
000060 01 ba fc 3e 34 40 a8 3e 40 05 d7 3e 56 00 74 3c
       0.4936066 0.32861483 0.41996193 0.014892658
000070 6e df 45 3e a9 fc 1a bf 60 08 04 3f 56 93 6f be
       0.19323513 -0.6054178 0.5157528 -0.23396048
000080 7f 3a cf be da 9d 07 bf 4c 2a c7 3d 83 64 37 3e
       -0.40474316 -0.5297524 0.09724864 0.17909436
000090 23 7c cf 3d 35 d1 eb 3e 1a 0c a9 3c 79 6c d9 3e
       0.10131099 0.4605805 0.020635653 0.4246557
0000a0 3e e8 07 3f 38 c5 0c bf 3a 1f 3a 3e ae 06 df be
       0.5308875 -0.5498843 0.18175974 -0.43559784
0000b0 01 27 70 be 6d d8 47 be be 37 06 bf fd 0b 7d bd
       -0.23452379 -0.19516154 -0.52428806 -0.06177901
0000c0 3b ef 97 3d 83 c7 b8 be 05 46 80 3d 7d e3 f6 be
       0.074186765 -0.36089715 0.06263355 -0.48220435
0000d0 64 e9 68 be 71 c7 df be d6 ba ba 3d 8e 44 91 be
       -0.22745281 -0.4370685 0.091176674 -0.28372616
0000e0 0c 8d 8b be 41 d3 e1 be e5 8a 84 3e 34 e0 32 be
       -0.27256048 -0.44106486 0.25887218 -0.17468339
0000f0 10 cc b4 be 86 98 91 be c5 82 23 3e 9a 00 bf be
       -0.35311937 -0.2843668 0.15967853 -0.37305146
000100 88 9d ac 3e 6b 9e e4 bd cc cb 4e 3e cc 02 e8 bd
       0.33713937 -0.11163028 0.2019493 -0.113286585
000110 60 53 12 3f 99 cc 60 3e 45 b6 6d 3e 13 6d eb 3e
       0.5715847 0.21953048 0.23214062 0.45981655
000120 31 e9 fd 3e 44 84 02 bf 9f 87 f6 3e da 27 17 bd
       0.49591973 -0.5098307 0.48150346 -0.03690324
000130 e3 90 f3 be 10 39 af be ab 74 cf 3c ea 4e c1 3e
       -0.47571477 -0.34223223 0.025324186 0.3775552
000140 2a d8 08 3f 34 a5 d0 3d c3 7d 0f bf 16 59 f8 3e
       0.5345484 0.1018776 -0.5605127 0.48505467
000150 5a fe 77 be 7e 20 b1 be 21 26 01 3e 0c 63 03 3f
       -0.24218121 -0.34595102 0.12612201 0.5132301
000160 9a 7e c9 3e 73 17 05 3f ec 04 07 bf 23 8b 98 be
       0.39354402 0.51988906 -0.52741885 -0.29793653
000170 87 a8 05 3f e5 9b 4e be 3c 2e 09 bf 0c ab e0 3e
       0.5221028 -0.20176657 -0.53586173 0.43880498
000180 52 e2 15 bf 8e 09 7d be b8 c9 8f 3e 7b 8f 6c bd
       -0.5854846 -0.24710676 0.28083587 -0.05775402
000190 c0 42 0f bf e5 9e 96 be 22 00 bd 3e 6c 36 20 3e
       -0.5596123 -0.29418102 0.36914164 0.1564576
0001a0 94 a4 dd bd bd 93 41 be 53 38 c5 3e 50 76 5b be
       -0.108224064 -0.18904014 0.38519534 -0.21431851
0001b0 5d 6e db bd d4 b1 e3 bd 0e 3a 5e 3e 12 1f 3c 3e
       -0.107144095 -0.111179024 0.21701834 0.18371227
0001c0 35 0a b8 3d 6b 43 54 3c cb 43 f4 3d bd 41 04 3f
       0.08986322 0.012955527 0.11926993 0.5166281
0001d0 fe 0e 66 be 14 a8 8c bd dd 01 d5 be 2d 2c 7b bd
       -0.22466657 -0.06867996 -0.41602984 -0.061321426
0001e0 27 bf a4 3e b4 ee b2 be 79 65 23 3e bd 2f 9b be
       0.32177088 -0.3494774 0.15956677 -0.3030986
0001f0 f5 1f 1b be 24 3b 80 3e 4d 03 8f be 3f 3b 2a be
       -0.1514891 0.2504512 -0.27932206 -0.16624163
000200 43 fc 7c bd 92 6c fe 3e c6 42 35 be fc bb e5 3d
       -0.061764013 0.49692208 -0.17701253 0.11217496
000210 dd cc b1 be ca 5a b5 3e 3b 70 72 be 24 a4 fa be
       -0.3472661 0.3542083 -0.23675625 -0.48953354
000220 d7 0b 8d 3d d6 3f 09 bf 95 23 0c be 21 35 e5 3e
       0.06887024 -0.5361303 -0.13685448 0.44767097
000230 07 98 df be 82 3b e8 be bd 48 8f be 95 d5 34 be
       -0.43670675 -0.453579 -0.27985182 -0.176596
000240 c2 fe 12 3e 6c de 2b 3e 18 45 1a bd 3a d9 c8 3e
       0.14354995 0.16784066 -0.03766355 0.3922823
000250 70 15 8c 3e 42 f6 6f 3e b8 e8 ea be c3 b2 88 be
       0.27360106 0.23433784 -0.45880675 -0.26698884
000260 95 f8 82 bd 87 8d fe be 19 b7 1b bf a7 28 64 3e
       -0.063950695 -0.49717352 -0.6082626 0.22281133
000270 11 a9 0a 3f 93 29 88 3c c8 7c ad be c4 e7 0d be
       0.54164225 0.016621387 -0.33884263 -0.13857943
000280 b4 e1 8e bd 8b af 1f be 98 ea 83 3e 25 e0 e5 3e
       -0.06976643 -0.15594308 0.25764918 0.4489757
000290 0e e8 bb 3e c4 fe 70 3e ce 9f b7 be 63 8e 2b 3e
       0.3670048 0.23534685 -0.3586411 0.16753535
0002a0 bf c3 a4 be 56 ea 87 be ff 2c de bd 6a 32 91 3e
       -0.32180592 -0.26545972 -0.10848426 0.28358775
0002b0 2b 99 6e be 51 10 03 3f 5b 5f 87 3d 1a c2 c9 be
       -0.23300616 0.5119677 0.066099845 -0.394059
0002c0 da b2 0b bf b1 43 61 bd 9c dd da bd e0 53 03 be
       -0.5456978 -0.054996196 -0.106868 -0.12824965
0002d0 fa 34 81 be 91 7a b0 3e 70 ff 87 3e 60 95 c9 be
       -0.2523573 0.3446851 0.2656207 -0.39371777
0002e0 95 89 54 be b8 3b be bc 73 c8 53 3e bd 64 0e 3f
       -0.20755608 -0.023221835 0.20681934 0.55622464
0002f0 b6 e1 08 3f 00 d3 14 3e ec 1d e1 3e 2e 62 03 3f
       0.5346941 0.14533615 0.4396814 0.51321685
000300 af 32 d4 be e4 2c ff be 7c 55 dc be 8e 6c c8 be
       -0.4144492 -0.49838936 -0.4303397 -0.3914532
000310 c0 03 9e 3e 5e d4 22 3e 82 d9 3b be a4 4e f4 be
       0.30862236 0.15901324 -0.18344691 -0.47716248
000320 00 fc f6 be a1 ee 47 3e 12 49 e5 3b 28 d1 af 3e
       -0.48239136 0.19524623 0.006997236 0.3433926
000330 3a 9b 04 be 20 be a6 be a6 27 a0 be 74 2f 16 3f
       -0.12949839 -0.3256693 -0.3128025 0.5866616
000340 4d 0f 55 3e df 6f a5 be 79 7c 9e be 6d 40 54 3e
       0.20806618 -0.32311913 -0.3095434 0.20727701
000350 a5 86 6c 3e 8f 72 23 be 48 7e f0 be 3b 8b bc 3e
       0.23098238 -0.1596167 -0.46971345 0.36824974
000360 8f a8 41 be 40 58 69 3d 8f 02 3f 3e f8 a8 77 3e
       -0.18911956 0.056968927 0.1865332 0.2418555
000370 2b e3 0c bf b3 dc cc 3e a0 dd 0d 3f 2f 41 b1 be
       -0.5503413 0.4001213 0.554163 -0.34620044
000380 04 e3 a7 3e 6b e6 77 3e 62 a9 ff bb 69 d7 aa bd
       0.32790387 0.24208991 -0.0078021744 -0.083418675
000390 27 c0 1f 3d 3b 98 fc bd 0b 38 ea 3d 54 8f 2d 3d
       0.03900161 -0.12333723 0.114364706 0.042373016
0003a0 78 14 38 3d f7 32 d0 bd 14 b5 f9 be 2a 42 9e be
       0.044941396 -0.10165971 -0.48770964 -0.30909854
0003b0 3b 46 8e be 1e 6e a1 3d da e2 96 3e 8f 87 99 be
       -0.27787957 0.07882331 0.2946995 -0.29986235
0003c0 ad 6d 4d be 90 e9 b0 3e 26 c6 03 bf 03 46 9d 3e
       -0.20061369 0.34553194 -0.51474226 0.30717477
0003d0 bf 08 98 be 17 25 8f 3e d2 16 34 3e 23 0b c7 3c
       -0.29694173 0.27957985 0.1758683 0.024297303
0003e0 9d fb 41 be c6 1d f4 3e 4e e0 b9 be e7 1f 18 3f
       -0.18943639 0.47678965 -0.36303943 0.5942368
0003f0 b6 6d 2b be 81 c8 e8 be 7b 7c c7 3d 42 b9 e7 bc
       -0.1674107 -0.45465472 0.0974054 -0.02828658

_layers.1.bias f4 [32]
000000 6e 64 52 bc 54 7b f0 bc ba c4 96 3c 9c 48 ef 3c
       -0.012841327 -0.029355682 0.018404353 0.029209428
000010 9c 22 87 ba d7 76 3f 3c d4 3b aa bb 8c ca 2d 3d
       -0.0010309997 0.0116860485 -0.0051951203 0.042429492
000020 ce b7 53 bc 70 fb ec bc 16 95 1d 3b aa 80 bb b9
       -0.01292224 -0.028928488 0.002404516 -0.00035763282
000030 c6 fc 54 3d 5e 21 75 bb 09 30 17 bd cd 94 5d 3c
       0.051998876 -0.0037403922 -0.036911044 0.013524246
000040 07 1d f0 bc 2f 3d 28 bc 59 db bd 3b b5 14 fc 3c
       -0.029310716 -0.010268494 0.0057939705 0.030771593
000050 ac fb 4d bb f7 04 91 3d 58 0c 5f bc 6e 76 5d 3a
       -0.0031430526 0.07081025 -0.013613783 0.00084481284
000060 10 0c 87 3c ee 1d 90 bc c9 c0 1e bd 11 f7 e4 3b
       0.016485244 -0.017592397 -0.038758073 0.0069874604
000070 e3 6a 06 3c 26 1c 9f bc 8d a7 ed bc 4c 16 f6 3c
       0.008204195 -0.019422602 -0.029010559 0.030039929

_layers.2.weight f4 [16, 32]
000000 88 fb 30 bd 78 b8 8d be 12 6d ac be e8 f2 0d 3f
       -0.04320863 -0.276798 -0.33676964 0.5544877
000010 6f 43 a7 3e 89 a3 a7 be 76 85 d4 be f9 4c 0b bd
       0.32668635 -0.32741955 -0.41508073 -0.034008954
000020 b9 f3 44 3e 91 a8 86 be 5c 7b be be 81 ff bf ba
       0.19233598 -0.2630048 -0.3720349 -0.001464829
000030 a4 e3 79 be c0 e1 0c 3f a0 fa 19 3e 77 76 a6 be
       -0.24403244 0.5503197 0.15037012 -0.32512257
000040 e3 c7 4c 3e 58 27 26 3e 10 5d 5d be c7 59 43 be
       0.19998126 0.16225946 -0.21617532 -0.19077216
000050 df b3 9c 3d fc 3e df be 9d 53 01 be a9 6f af be
       0.07651495 -0.4360274 -0.12629552 -0.34264877
000060 37 ac 61 3e 10 ce 0a be f3 7e 80 3e 2b 3f ad 3e
       0.22038351 -0.13555169 0.25096855 0.33837256
000070 51 8b f9 be d8 01 b2 be 6c 59 c4 3e b7 87 d2 be
       -0.48739102 -0.34767032 0.38349473 -0.41119167
000080 ab aa 5c be 80 d4 0a bf 30 4e 15 bf 26 fa f2 3c
       -0.2154948 -0.542305 -0.5832243 0.029660296
000090 40 c2 60 3d ab 99 6c 3e d2 d1 78 3e 9b 20 7a bd
       0.05487275 0.23105495 0.2429879 -0.06106625
0000a0 34 74 aa 3e b2 d1 0d 3e 73 cc 93 be 30 9c a4 3e
       0.3329178 0.13849524 -0.2886692 0.32150412
0000b0 2f 45 4b bd 85 c8 16 be 99 2b 84 3d 44 c6 94 3e
       -0.049626525 -0.1472493 0.06453628 0.29057515
0000c0 76 50 0b be e5 d6 00 3f 3b 8a a8 be a6 d2 18 bf
       -0.13604912 0.50327903 -0.3291796 -0.59696424
0000d0 31 05 4e be 03 76 96 be be 0b 0e bd 8f 50 80 be
       -0.20119168 -0.2938691 -0.034679167 -0.2506146
0000e0 d2 9c 87 3e c9 03 b2 be 5e 69 25 be 01 aa 56 3e
       0.26486832 -0.34768513 -0.16153476 0.20963289
0000f0 cc a7 99 bd 6b 65 d2 3e bc 61 b7 bd a8 b4 33 be
       -0.07502708 0.41093 -0.08954188 -0.17549384
000100 b0 84 39 3d 17 7f 6d 3e 03 d4 92 be 42 38 3d 3e
       0.045292556 0.23193012 -0.28677377 0.18478492
000110 32 e9 be be d4 e1 b0 3d e1 d5 fb be 4b 7c 1d 3f
       -0.3728729 0.08636823 -0.49186614 0.6151778
000120 fe 46 5b 3d c6 07 e7 3e f4 0c 1a 3f 9f 93 a8 3e
       0.0535345 0.45123118 0.60176015 0.32925126
000130 d1 20 1e 3e 3b 1c 59 3e d3 5b 14 bf 77 0a 1e 3e
       0.15442206 0.21202175 -0.5795261 0.1543368
000140 3b 5e e2 be 78 12 92 bd 4d 51 76 3c 7e 83 02 3e
       -0.44212517 -0.07132429 0.015034032 0.12745473
000150 30 bf 87 be 52 1e 9a be 2a c0 4d 3e cf c2 9d be
       -0.26513052 -0.30101258 0.20092836 -0.3081269
000160 9f d7 ec bd 69 d9 cd bc 6f f6 a9 be 38 20 d7 bd
       -0.11564564 -0.025128083 -0.33195826 -0.10504192
000170 51 b4 00 3f 49 c2 56 3e 81 c8 a5 3d 38 00 03 bf
       0.5027514 0.20972551 0.08094884 -0.5117221
000180 0a 0f a9 3e 99 6c bd be 82 3a 99 be cb 32 c8 3e
       0.33019286 -0.36996916 -0.2992745 0.39101252
000190 6f de 36 bc fe 8c fe 3e 94 aa c0 3e 9d 5a 36 be
       -0.011161431 0.49716944 0.3763014 -0.17808004
0001a0 98 07 73 be ed d3 f2 3e 40 bc fd be 4d d2 b2 3d
       -0.23733366 0.47427312 -0.49557686 0.08731518
0001b0 ef 2b 8f 3e c4 b1 f8 3e 33 bd e5 be d2 4b 1b 3e
       0.27963206 0.48573124 -0.4487091 0.15165642
0001c0 95 89 8c 3e db 92 09 bf f6 67 cc be 97 e2 bd be
       0.27448717 -0.5373971 -0.39923066 -0.37086937
0001d0 57 07 f8 3e 3f ac ef 3e f1 fb e7 3c bc 67 51 be
       0.484431 0.468111 0.028318377 -0.20449728
0001e0 ec 6e 03 bf 1e b3 e2 bd 01 48 d8 bd c3 1c 3c be
       -0.5134113 -0.1106932 -0.10560609 -0.18370347
0001f0 a6 1b aa 3e da c5 bb be ff 30 b1 3e 96 c6 c4 be
       0.3322422 -0.36674386 0.34607694 -0.3843276
000200 9f ca a0 be 93 de 00 3f 97 ea f6 3d 47 eb 54 3e
       -0.31404588 0.5033962 0.12056463 0.20792876
000210 99 22 ff 3e 4b 16 bc be bf f2 9f 3d b0 5b 98 3c
       0.49831083 -0.36735758 0.07809972 0.018598408
000220 c5 fb 00 3f 54 12 75 bc 04 44 54 be 3b 0d bb 3e
       0.5038417 -0.014957983 -0.20729071 0.36533532
000230 45 ec 03 bf 58 d1 10 3e 1b 9c 2b bd 0e 88 d2 3c
       -0.51532394 0.14142358 -0.04189692 0.025699642
000240 19 b1 50 3d 8f 77 ad 3d e2 aa 83 3e 79 9f a1 bc
       0.050950143 0.084700696 0.2571631 -0.019729363
000250 bf 36 87 be c8 92 be 3e e2 96 07 bf e5 09 48 be
       -0.26408955 0.3722136 -0.52964604 -0.19535024
000260 4b 8f 2f 3d 9b 9f 9e 3c d4 de b5 3e be 09 bf 3e
       0.042861264 0.019363215 0.35521567 0.3731212
000270 f7 36 dd be a1 94 da bd 51 84 0f 3e 76 38 ee 3d
       -0.43205997 -0.1067288 0.14015318 0.11631863
000280 6e 80 00 bf 03 5a d5 3d 30 69 b6 be f5 08 bc bd
       -0.5019597 0.10417559 -0.35627127 -0.09181396
000290 e6 96 d9 3d a7 01 fc be 1c 6a bb 3e 63 2b c9 3d
       0.10624485 -0.4922001 0.36604393 0.098227285
0002a0 72 ed 42 be 04 71 ee be 6c 85 0c 3f 2b cd 93 3e
       -0.1903589 -0.465706 0.54891086 0.28867468
0002b0 c2 fd d0 3d 38 ab 8c be 53 cd 77 3e af af a6 be
       0.102046505 -0.2747438 0.24199419 -0.3255591
0002c0 8c c9 b8 3e 1e a4 6e be 92 3f c8 be bc aa 53 be
       0.36091268 -0.23304793 -0.39111 -0.20670599
0002d0 f7 ab 8b 3e 35 64 cd 3e 86 b0 59 be 6a a4 1d bf
       0.27279636 0.40115514 -0.21258745 -0.61579
0002e0 09 aa 6e 3e 4f d0 bc bd 27 3a 98 be 9f 18 02 bf
       0.23307051 -0.09219419 -0.29731867 -0.5081882
0002f0 b8 0d c8 3e 31 5f dc be ac 88 08 3f 4d c6 d4 bd
       0.39072967 -0.43041375 0.53333545 -0.10389385
000300 45 28 7a bd aa f5 75 3e 4a fc f9 bd a2 da f3 bb
       -0.06107356 0.24019495 -0.122063234 -0.0074418345
000310 87 6e e0 3d 66 c4 67 be d3 41 0b bf 7a c4 2f be
       0.109585814 -0.22633514 -0.54397315 -0.17164794
000320 8e 15 29 be 59 cb 77 3e 69 96 f5 be 39 d1 80 bc
       -0.16512129 0.24198665 -0.47966316 -0.015724765
000330 75 b4 ad be d9 e2 9c 3e 89 ae 0c 3e 8b 15 ad be
       -0.3392674 0.3064182 0.13738455 -0.33805498
000340 f2 bb db 3e 95 40 eb 3e 41 d4 14 bf 13 46 1d 3f
       0.42916828 0.4594771 -0.58136374 0.6143505
000350 f1 5f a3 be 29 5a 8e 3d 79 27 f5 3d 13 b8 df 3d
       -0.31909135 0.069507904 0.119704194 0.10923781
000360 e8 21 0b be 67 98 9e be 60 aa a4 3d b6 eb 9d be
       -0.13587153 -0.3097565 0.08040309 -0.30843896
000370 27 6c ca be 20 dd 9e 3e 14 38 14 bf fe f5 ca 3b
       -0.3953564 0.3102808 -0.5789807 0.0061938753
000380 fa f0 29 be f8 d6 95 3d 8a 4d 14 be 42 d4 e4 3e
       -0.16595832 0.07316393 -0.14482704 0.4469319
000390 82 2b 45 be f2 80 f9 be d9 74 d9 bd 50 d3 e6 be
       -0.19254878 -0.4873119 -0.1061799 -0.45083094
0003a0 e3 39 d4 3d 74 26 da 3e dc 24 f7 3e ba 02 8c bd
       0.103626035 0.42607462 0.4827031 -0.068364576
0003b0 49 87 97 bd 6f b8 bb 3e 65 15 76 be e2 8a de 3e
       -0.073988505 0.3666415 -0.24031599 0.43465334
0003c0 7a e1 e2 3e 15 e6 7a 3d 1a fc 99 3d d5 26 f4 be
       0.4431265 0.06125458 0.07518788 -0.47685876
0003d0 e0 7b 82 3e 60 a7 fb 3e da 34 0b bf 6d 69 06 bf
       0.25485134 0.49151134 -0.5437752 -0.52504617
0003e0 99 a9 8a 3e 43 0e c6 bd 5a 13 13 bf 8d 84 bc 3c
       0.27082518 -0.09670689 -0.57451403 0.023012424
0003f0 7a 9f 16 bf 1c 9b 7d bc 9a 56 87 ba 3a bb 03 bf
       -0.5883709 -0.0154788755 -0.0010325492 -0.5145756

_layers.2.bias f4 [16]
000000 67 5f 42 3c fc 37 31 bc 30 1a 56 bc 35 32 2d bd
       0.011863566 -0.01081657 -0.013067767 -0.04228421
000010 e8 8d b8 3b 1a 73 84 3c e1 ca 39 bc c9 78 e9 bc
       0.005632151 0.016168166 -0.011339874 -0.028499978
000020 1d 17 f4 3a 15 9e e6 3c 5d b9 04 bd 48 ef 98 bb
       0.0018622611 0.028151551 -0.03240334 -0.0046671964
000030 e7 a2 0e 3d 72 f9 98 bc 79 50 15 bc 3a 13 4b 3d
       0.034823325 -0.018673632 -0.009113424 0.049578883

_layers.3.weight f4 [1, 16]
000000 13 42 38 3c b8 df e3 3e fd f7 a7 3e 89 00 b3 3e
       0.011246222 0.4450662 0.32806388 0.34961346
000010 13 76 b2 bd 2b f5 36 bf d0 83 f8 be e3 9f 02 bf
       -0.08713927 -0.71467847 -0.48538065 -0.5102522
000020 72 f2 fa 3e 68 ce 17 bf 33 6e fc be 11 cd f4 be
       0.49013096 -0.59299326 -0.49302825 -0.47812703
000030 28 90 41 bd b4 d6 36 3f be 68 08 bf e6 29 de be
       -0.04725662 0.7142136 -0.53284824 -0.4339134
