corai/tests/examples_of_tasks/example_hyper_param_sin_estim_models/model_6.pth (torch, 2895 bytes, 7 tensors)

_layers.0.weight f4 [4, 1]
0.67393357 -0.5239562 0.62035 1.0898309
00000000: e986 2c3f fe21 06bf 42cf 1e3f 947f 8b3f

_layers.0.bias f4 [4]
-0.3184655 0.47738385 -0.4020749 -0.85199803
00000000: e90d a3be a86b f43e c3dc cdbe 8b1c 5abf

_layers.1.weight f4 [8, 4]
-0.603701 -0.61416113 0.27559316 -0.23464517 0.27090916 -0.31071973 0.83987486 -1.0597296
0.30383298 -0.96061945 -0.8058604 -0.3149281 1.086892 0.6719934 -0.8048568 0.31791666
-0.1933285 -0.39391413 -0.48385856 0.2117605 0.5831875 -0.87812465 -1.3479644 -0.05354435
0.019410493 -0.2141358 0.9239319 -0.8641534 -0.6611021 -1.1351337 -0.144123 -0.2415322
00000000: 268c 1abf aa39 1dbf 8c1a 8d3e d346 70be
00000010: 9bb4 8a3e a816 9fbe 0a02 573f 38a5 87bf
00000020: ff8f 9b3e 28eb 75bf de4c 4ebf 423e a1be
00000030: 471f 8b3f c207 2c3f 180b 4ebf f9c5 a23e
00000040: e8f7 45be 1daf c9be 4fbc f7be bfd7 583e
00000050: c74b 153f c7cc 60bf 198a acbf 5251 5bbd
00000060: c102 9f3c 6a46 5bbe cd86 6c3f 2839 5dbf
00000070: fd3d 29bf 104c 91bf fb94 13be 3854 77be

_layers.1.bias f4 [8]
0.04070603 -0.22798492 -0.025089977 -0.065154426 0.093153186 0.010729103 -0.17697544 0.066039205
00000000: 5ebb 263d e174 69be 7f89 cdbc af6f 85bd
00000010: 19c7 be3d 1fc9 2f3c 0d39 35be 903f 873d

_layers.2.weight f4 [4, 8]
0.53270024 0.10801397 0.41855958 -0.33111775 0.7139816 0.9430927 -0.50391144 -0.21178621
-1.6564778 -0.29864413 -1.1854007 0.44650257 1.3637952 -1.3163269 -0.665561 -0.8123356
0.6153066 -0.55198294 0.44700727 0.2690526 0.2882708 0.62556255 -1.5595362 -1.0688442
-0.5564092 -2.0502906 -1.8540739 1.5326276 -0.06836499 -1.1531029 -2.5890954 -1.19521
00000000: 0b5f 083f 6e36 dd3d 714d d63e 4488 a9be
00000010: 80c7 363f 866e 713f 5700 01bf 7cde 58be
00000020: 7707 d4bf e2e7 98be 36bb 97bf fc9b e43e
00000030: d790 ae3f 667d a8bf 3562 2abf 3af5 4fbf
00000040: bc84 1d3f c14e 0dbf 23de e43e 43c1 893e
00000050: 3b98 933e de24 203f e29e c7bf e3cf 88bf
00000060: d570 0ebf f637 03c0 4b52 edbf 242d c43f
00000070: f202 8cbd e098 93bf bdb3 25c0 a4fc 98bf

_layers.2.bias f4 [4]
0.0015954386 -0.037355617 -0.018043572 -0.03511165
00000000: 091e d13a 3402 19bd 1dd0 93bc 3cd1 0fbd

_layers.3.weight f4 [1, 4]
-1.2646935 0.35309374 0.5461388 0.32309672
00000000: 7ae1 a1bf b4c8 b43e c1cf 0b3f ef6c a53e
