corai/tests/examples_of_tasks/example_hyper_param_sin_estim_models/model_55.pth (torch, 2767 bytes, 7 tensors)

_layers.0.weight f4 [2, 1]
0	0xbeba6b49	-0.36409977
1	0x3fad560b	1.3541883

_layers.0.bias f4 [2]
0	0x3f4371f8	0.7634578
1	0xbf07815e	-0.52931774

_layers.1.weight f4 [4, 2]
0	0x3f056311	0.5210429
1	0x3bfdc6fe	0.007744669
2	0xbf5b3d35	-0.8564027
3	0xbf31b3b5	-0.69414836
4	0x3f03c6bb	0.51475114
5	0xbcad72e1	-0.021172943
6	0x3f0783d4	0.5293553
7	0x3eb51daa	0.35374194

_layers.1.bias f4 [4]
0	0x3e2fa3ba	0.171523
1	0x3ec499bf	0.3839855
2	0xbda315a7	-0.07963114
3	0xbe2e206b	-0.17004554

_layers.2.weight f4 [2, 4]
0	0x3f927142	1.1440814
1	0xbf5005a0	-0.81258583
2	0x3dc13782	0.094344154
3	0x3fa65a79	1.299636
4	0x3f6ccb4f	0.92497724
5	0xbfc9ad8b	-1.5756086
6	0x3e183421	0.14863636
7	0x3f8c8188	1.097703

_layers.2.bias f4 [2]
0	0x3c2e4708	0.010637052
1	0x3b64439d	0.003483034

_layers.3.weight f4 [1, 2]
0	0x3f2b00d1	0.6679812
1	0x3ee1ac62	0.4407683
