corai/tests/examples_of_tasks/example_hyper_param_sin_estim_models/model_243.pth (torch, 3215 bytes, 7 tensors)

_layers.0.weight f4 [2, 1]
00000000: 8c49 2ebf a031 69bf
-0.68080974 -0.91091347

_layers.0.bias f4 [2]
00000000: 0000 0000 0000 0000
0.0 0.0

_layers.1.weight f4 [32, 2]
00000000: dc64 fabd ccce 863e 2d7b 9f3e 3499 e4be
00000010: f868 afbe 0f75 9cbe 707d 9cbc 14ef 06bf
00000020: c2d3 0c3f abe5 a7be b7be 0a3f fbbf 02be
00000030: 9531 0a3f eaa4 0e3f d336 d6bd 610b 85be
00000040: 0743 0e3f 3bc9 3b3e 47e7 3b3e 3b3a 02bf
00000050: d9d6 403e dcbd 9d3e e1d4 0a3e 79aa f53e
00000060: 5808 f4be 932f 033f b709 c4be 511a 913e
00000070: eaa2 bc3c 5623 66bc a657 8bbe d33a e63e
00000080: db4a 773e 52d6 203e ba58 d43d 9950 17bf
00000090: 00d7 7f3e 49b9 55be a7a2 d4bd be30 cebd
000000a0: 7ff8 7cbe 9b05 d1be 53ab 013e 6f36 c33d
000000b0: ed85 94be 7211 d6bd 56b0 72be 738b b93d
000000c0: f0c2 62bd fcce 69ba 8f8a 17bf 7797 083f
000000d0: 175f a03e f755 fdbe 4e90 9b3d ef87 253c
000000e0: 1db8 32be 8d6f a6be 0933 d4bc 74c7 cebe
000000f0: 7db5 ec3d f396 843d 4c8f 053f bc6a 883e
-0.12226269 0.26329648 0.31148663 -0.44648135 -0.34259772 -0.3055806 -0.019102782 -0.52708554
0.55010617 -0.3279241 0.5419726 -0.12768547 0.53981906 0.5572039 -0.10459676 -0.25985244
0.55571026 0.18338482 0.18349944 -0.508701 0.18831958 0.30808914 0.1355777 0.47981623
-0.47662616 0.5124447 -0.38288662 0.2834039 0.023026902 -0.014046511 -0.27215308 0.44966754
0.24149649 0.15706757 0.10368486 -0.5910736 0.2498436 -0.20871462 -0.10382586 -0.100678906
-0.24704169 -0.4082459 0.12663011 0.09531867 -0.29008427 -0.10452546 -0.2370008 0.09059801
-0.055361688 -0.00089190877 -0.591958 0.53356117 0.31322548 -0.49479648 0.07595883 0.01010321
-0.17453046 -0.32506981 -0.025903242 -0.40386546 0.11558054 0.06474104 0.5217178 0.26643932

_layers.1.bias f4 [32]
00000000: 0000 0000 0000 0000 0000 0000 0000 0000
00000010: 0000 0000 0000 0000 0000 0000 0000 0000
00000020: 0000 0000 0000 0000 0000 0000 0000 0000
00000030: 0000 0000 0000 0000 0000 0000 0000 0000
00000040: 0000 0000 0000 0000 0000 0000 0000 0000
00000050: 0000 0000 0000 0000 0000 0000 0000 0000
00000060: 0000 0000 0000 0000 0000 0000 0000 0000
00000070: 0000 0000 0000 0000 0000 0000 0000 0000
0.0 0.0 0.0 0.0 0.0 0.0 0.0 0.0
0.0 0.0 0.0 0.0 0.0 0.0 0.0 0.0
0.0 0.0 0.0 0.0 0.0 0.0 0.0 0.0
0.0 0.0 0.0 0.0 0.0 0.0 0.0 0.0

_layers.2.weight f4 [2, 32]
00000000: cdad 73be ccb8 36be 3785 a63e 1796 01bf
00000010: 48c8 9cbe 305a 88be 3962 863d b977 bfbe
00000020: 9173 0a3b b027 203e 723a 9ebd c991 c93e
00000030: 5140 653d ddc0 febe d2f6 943e 5c6e f7be
00000040: bb2f fabc ede9 103e ab4a 41bd 11f4 9abe
00000050: a1e4 0f3f 1786 98be 9a4a 82bd d40e 7dbd
00000060: 3822 90be 75a4 e7be 64db eb3e c738 933e
00000070: 1403 0ebd 10ed 53be eb8a cb3e 10dd f93e
00000080: 5e4e 0c3a 6080 06bd 3fbb 853e 43ab f93e
00000090: c79e 803d 76d7 023f 820a 31be 865c 003f
000000a0: 5822 8bbe 1e11 0a3f 80a5 d13e 6a09 98bc
000000b0: 5f55 d23e cd7c 47be 27ea a2be 4c34 353e
000000c0: eea2 79b8 28db 103f 4190 0d3f 3430 f6be
000000d0: d3a0 a73e 5fb4 1dbc a5bf 17bf 918b 7ebd
000000e0: 722e ab3e 94cb 063f 5333 923e 3fdc 02bf
000000f0: 7417 023c e463 27be a8e4 96be 4c7a f13e
-0.23796768 -0.17843932 0.3252351 -0.50619644 -0.30621552 -0.26631308 0.06561703 -0.3739603
0.0021126012 0.1564014 -0.07725991 0.39369038 0.05596954 -0.49756518 0.2909456 -0.48326385
-0.030540338 0.14151736 -0.04719035 -0.30264333 0.56208235 -0.29789802 -0.06361885 -0.06178172
-0.28151107 -0.45242658 0.4606582 0.28754255 -0.034670904 -0.20695901 0.39754423 0.4880147
0.0005352254 -0.03283727 0.2611942 0.48763475 0.062802844 0.5111002 -0.17289165 0.5014118
-0.2717464 0.5393237 0.4094658 -0.018559176 0.41080758 -0.19481201 -0.3181927 0.17695731
-5.9517966e-05 0.56584406 0.5529824 -0.4808365 0.32739887 -0.009625523 -0.592768 -0.06214482
0.33433872 0.52654386 0.28554782 -0.5111732 0.007940162 -0.16346699 -0.29471326 0.47163618

_layers.2.bias f4 [2]
00000000: 0000 0000 0000 0000
0.0 0.0

_layers.3.weight f4 [1, 2]
00000000: ac59 36be 5101 0cbf
-0.17807645 -0.5468951
