corai/tests/examples_of_tasks/example_hyper_param_sin_estim_models/model_265.pth (torch, 2767 bytes, 7 tensors)

_layers.0.weight f4 [2, 1]
1.2618821 -0.3836475
00000000: 5a85 a13f 726d c4be

_layers.0.bias f4 [2]
-0.15921268 0.22466211
00000000: a608 23be d30d 663e

_layers.1.weight f4 [4, 2]
1.2148842 1.564751 -0.99772936 0.069512635 -0.13209383 0.35328263 -0.20364411 0.16385832
00000000: 5381 9b3f c349 c83f 316b 7fbf a45c 8e3d
00000010: 9b43 07be 76e1 b43e 1588 50be 7aca 273e

_layers.1.bias f4 [4]
0.03230214 0.03618118 0.45924813 0.36355102
00000000: 404f 043d b832 143d 9222 eb3e 5c23 ba3e

_layers.2.weight f4 [2, 4]
1.0635401 0.6108896 0.24571209 0.9477752 0.26396704 0.9365035 0.46745226 0.67434174
00000000: 1522 883f 4363 1c3f f39b 7b3e 65a1 723f
00000010: b026 873e b2be 6f3f e755 ef3e a9a1 2c3f

_layers.2.bias f4 [2]
0.044942323 0.3005058
00000000: 7115 383d e5db 993e

_layers.3.weight f4 [1, 2]
1.5580533 -0.5172278
00000000: 4a6e c73f 0b69 04bf
