corai/tests/examples_of_tasks/example_hyper_param_sin_estim_models/model_287.pth (torch, 6863 bytes, 7 tensors)

_layers.0.weight f4 [16, 1]
000000 47 5d 7c bd e4 bd 9e 3e 50 35 18 bf 11 26 fa be
       -0.061612394 0.3100425 -0.5945635 -0.48857167
000010 26 5a 17 bf fa d4 f4 be 1b ab a8 be b6 c6 7f 3f
       -0.5912193 -0.47818738 -0.32943043 0.99912584
000020 56 78 33 3d 1a 87 a7 3e b7 8a 93 3e 22 a0 4a bb
       0.043815933 0.32720262 0.2881677 -0.00309182
000030 99 f0 76 bd 57 2e c0 3e 41 5e 35 bf 42 1c ca 3d
       -0.060288046 0.37535354 -0.70846945 0.09868671

_layers.0.bias f4 [16]
000000 0f 8b e5 be 84 39 1a bf 62 ca 0b bf d2 cd 04 bf
       -0.44832656 -0.6024401 -0.54605687 -0.51876557
000010 e0 82 7c bf f1 15 5e bf 90 0e fb be 2a 87 40 3f
       -0.986372 -0.8675223 -0.49034548 0.75206244
000020 9d d4 d0 be ce cc 28 bc cb 32 57 bf 45 5b 13 bf
       -0.4078721 -0.0103027355 -0.8406188 -0.5756114
000030 2c 6b 08 bf 9b bb 29 bf a1 3d 57 bf de 52 30 be
       -0.5328853 -0.6630189 -0.84078413 -0.17219111

_layers.1.weight f4 [32, 16]
000000 50 fa 60 b4 16 86 34 bf cf 64 d4 32 78 d3 12 35
       -2.0952689e-07 -0.705171 2.472589e-08 5.4696966e-07
000010 17 c3 57 b5 ae df 06 34 2c 59 9d be 39 f3 bd 35
       -8.0377635e-07 1.2561097e-07 -0.30732095 1.4152384e-06
000020 dc b4 5d 34 5a 56 04 b5 40 f9 6c bf cc 7f 47 b2
       2.0648025e-07 -4.929949e-07 -0.92567825 -1.1612382e-08
000030 fa 8e 1f bf ff 97 ff 34 9f 9e 62 b3 61 88 b3 bd
       -0.6232754 4.7608043e-07 -5.276399e-08 -0.087662466
000040 75 42 5d bf 11 b6 31 bf c7 c6 b5 34 78 0b bd 34
       -0.8642953 -0.69418436 3.3858507e-07 3.5212338e-07
000050 03 06 a7 be fb a9 8b be 7f fb 3e be 86 1e 59 b5
       -0.32621774 -0.27278122 -0.18650626 -8.0883217e-07
000060 b5 3d 4e be a3 8c 2b 35 52 2a 80 be 90 0e 58 31
       -0.20140727 6.390712e-07 -0.25032288 3.1440415e-09
000070 d1 a3 f7 be 3e 4d a7 bf c5 f4 a9 be bc d2 68 bf
       -0.4836717 -1.3070447 -0.33194557 -0.90946555
000080 95 dd 1d 35 0b af 3f bf d8 7e 60 b4 28 e2 08 b4
       5.88095e-07 -0.7487647 -2.0907771e-07 -1.2748262e-07
000090 5e 1a 3b b4 2a c6 93 35 44 56 0b bf 30 63 9a 35
       -1.7425324e-07 1.1010027e-06 -0.54428506 1.1502761e-06
0000a0 ea 6f a5 be e2 e8 51 35 05 a5 e9 be a1 20 59 b5
       -0.32311946 7.8197456e-07 -0.45633712 -8.088628e-07
0000b0 ee d1 ff be 6c 4f fc be 46 2c 51 b5 f7 18 dd be
       -0.4996485 -0.49279344 -7.7922994e-07 -0.4318311
0000c0 7f f7 29 3f f3 15 ae 3f 1d 31 d9 3e 96 ce c1 be
       0.66393274 1.3600448 0.42420283 -0.37852925
0000d0 13 51 c7 34 13 1c 9b b5 cc 24 90 b3 ef a1 f4 3e
       3.7125628e-07 -1.1556571e-06 -6.712216e-08 0.47779796
0000e0 3e 0b 34 3f 3c 57 a3 3e 99 92 92 3f 8c dd 0d bd
       0.70329654 0.31902492 1.1450988 -0.03463511
0000f0 4d de 20 3f 2b 6b 9a 3f 6c ad a2 34 02 b8 69 3f
       0.62839204 1.2063955 3.0301032e-07 0.912964
000100 96 1f ad be 07 e3 50 bf f3 3e 02 b5 9f a8 28 b3
       -0.3381316 -0.81596416 -4.8520377e-07 -3.9268908e-08
000110 be 28 d8 bd d3 51 e9 be 6b 7f 00 bf 5c 57 44 35
       -0.10554646 -0.4557024 -0.50194424 7.3142814e-07
000120 10 ba 3c be 5c c7 25 b5 4a 94 67 be 16 21 2e 32
       -0.18430352 -6.1757396e-07 -0.22615162 1.0135656e-08
000130 a4 1c 98 bf de f2 82 bf e5 2f 1d bf c8 ef ad be
       -1.188374 -1.0230367 -0.61401206 -0.33972
000140 99 c5 85 3e 7f a6 b3 be 74 0a c2 35 67 6b b0 34
       0.26127318 -0.35087964 1.4457169e-06 3.28607e-07
000150 ac a8 05 bf b1 f3 17 bf b9 09 9c be ad e1 8e b5
       -0.522105 -0.5935622 -0.30476168 -1.0645505e-06
000160 d7 f8 69 3d ac ad a3 b5 68 5d 7c bf 60 91 04 b5
       0.057122078 -1.2194992e-06 -0.98580027 -4.938538e-07
000170 30 9d ae 3d 53 f5 09 bf 11 41 1f be d5 a1 bb bb
       0.08526075 -0.5388996 -0.15552165 -0.005726079
000180 15 21 72 bf cb f7 1d bf 5d ea 5e b4 64 02 b9 b3
       -0.9458173 -0.6170623 -2.0760622e-07 -8.615169e-08
000190 60 6b 6a bf 8a c5 28 bf 6d 56 24 be b8 80 28 b4
       -0.9157009 -0.6592642 -0.16048594 -1.5693047e-07
0001a0 d2 47 01 bf 19 4b 9f 34 50 ec 09 be e0 84 07 35
       -0.50500214 2.96707e-07 -0.13469052 5.048478e-07
0001b0 3b ad 00 bf 9c cb 01 bf 2c b6 00 b5 4e 29 a8 be
       -0.5026433 -0.5070131 -4.794881e-07 -0.32844013
0001c0 86 82 05 bf 33 c8 de be d7 a1 ae 34 68 8d 86 b5
       -0.5215229 -0.43512115 3.252778e-07 -1.0024933e-06
0001d0 da bc 09 b5 a4 dd 55 34 2f 5b 84 b5 6e 1a 3d b0
       -5.131129e-07 1.9917803e-07 -9.861304e-07 -6.879536e-10
0001e0 e8 58 ff be 33 37 24 b5 92 96 01 bf bc a5 df be
       -0.49872518 -6.1175086e-07 -0.5062038 -0.43681133
0001f0 72 ee ce be 67 50 04 bf 20 5b 9a 32 dc a3 d0 be
       -0.40416294 -0.51685184 1.7969398e-08 -0.40750015
000200 1b 24 07 bf 8b ba 47 be c8 1e 99 b4 46 9e 17 b4
       -0.5278947 -0.19504754 -2.8520867e-07 -1.412055e-07
000210 b0 6b 38 bf 3c 1f a6 be f4 6a 20 bf 72 a2 50 b4
       -0.7203932 -0.32445705 -0.626632 -1.9430607e-07
000220 8c fc 08 bf f0 cf bc 35 00 f9 0e bf cf a5 69 35
       -0.53510356 1.4067609e-06 -0.55848694 8.704055e-07
000230 c2 3c 4d bf cf 55 51 bf 64 4c eb b3 fb 42 15 bf
       -0.80170834 -0.8177156 -1.09569356e-07 -0.5830533
000240 da 8d d7 be 21 65 c0 be 50 57 15 33 c0 0e c0 b3
       -0.42100412 -0.37577155 3.4771176e-08 -8.94338e-08
000250 80 3b 94 be b9 04 a8 be 8b 6d 85 bf 3a e9 a5 b4
       -0.28951645 -0.32816103 -1.0424055 -3.090334e-07
000260 4d 04 1d bf 78 9e c2 35 1f f5 93 bf 84 85 aa 34
       -0.6133469 1.4500247e-06 -1.155918 3.1762113e-07
000270 92 ee 87 bc e1 b5 09 bf a2 df 6e bf 82 ea 33 bf
       -0.016593251 -0.5379315 -0.93309987 -0.70279706
000280 01 17 00 bf 6b ec 03 bf 8e 0a b6 b4 5e 5b 7a 35
       -0.500351 -0.5153262 -3.390782e-07 9.3265214e-07
000290 66 d2 bf be 40 27 f4 be d3 2a 27 bf 1c 43 92 34
       -0.3746521 -0.47686195 -0.6529972 2.7243448e-07
0002a0 60 3f 1f bf 08 8c 9a b4 ac 64 00 bf a4 94 c4 34
       -0.6220608 -2.8786621e-07 -0.50153613 3.6615995e-07
0002b0 23 88 0e bf 0e dc 7d be 15 5d 07 34 62 aa 2e bf
       -0.5567648 -0.24790975 1.2606718e-07 -0.68228734
0002c0 02 b5 9d bf e3 ed 37 bf 22 d4 21 33 e8 ca a0 b4
       -1.2320864 -0.7184736 3.7678667e-08 -2.9949956e-07
0002d0 14 9f 6f bf d2 51 af be 36 f3 bf be 5d c3 dd b4
       -0.9360211 -0.3424211 -0.37490243 -4.1306603e-07
0002e0 6d 0d 64 bf 12 b1 5a b3 3b 1e e7 be a5 88 4a b5
       -0.89082986 -5.0918125e-08 -0.45140252 -7.544971e-07
0002f0 98 56 f1 bd 86 cf 08 bf 29 cc b7 be 4c 6e 0c be
       -0.117840946 -0.53441656 -0.3589795 -0.1371395
000300 f5 f4 79 bf cd d7 6d bf 56 57 2d 35 2a f7 ff b4
       -0.976394 -0.9290741 6.457461e-07 -4.7677287e-07
000310 d7 93 d4 b4 c1 f0 16 b3 28 f8 c3 be dc 69 d4 34
       -3.9595645e-07 -3.514356e-08 -0.38275266 3.95651e-07
000320 74 7d 6c bf c6 aa 36 34 05 4c 03 bf 0d a7 d9 be
       -0.92378926 1.7012198e-07 -0.5128787 -0.42510262
000330 57 dc 17 bf 5d 9d 43 bf 0d 62 07 35 de 21 22 be
       -0.59320587 -0.7641199 5.04341e-07 -0.15833232
000340 50 71 e7 b4 62 d2 d4 b4 68 24 1d b5 dc 9b ba b3
       -4.310955e-07 -3.964115e-07 -5.8540036e-07 -8.6896506e-08
000350 1f b6 e9 b4 72 6c 89 b3 5d 77 96 b5 1b d4 66 b5
       -4.3532143e-07 -6.399286e-08 -1.121061e-06 -8.599033e-07
000360 04 f6 a3 b4 2c b5 85 33 fb a0 13 bf 86 fa 0d bf
       -3.0540116e-07 6.22625e-08 -0.5766751 -0.55460393
000370 6a 3a b4 35 d2 b3 21 b4 34 5b 91 b5 d7 34 eb be
       1.3428046e-06 -1.5059712e-07 -1.0829885e-06 -0.4593875
000380 9d 11 6d be 6c b0 99 be cf a8 03 b4 5c 68 24 33
       -0.2315125 -0.30017412 -1.2261738e-07 3.827914e-08
000390 af f5 04 bf e8 1f 2e bf 0b cd ec be f4 b5 ad 32
       -0.51937383 -0.68017435 -0.46250185 2.0222593e-08
0003a0 be 1b 00 bf 3e d3 90 b4 7a 2d 84 bf 7d c6 33 35
       -0.5004233 -2.697579e-07 -1.0326378 6.6971535e-07
0003b0 32 ef 54 bf 40 92 f1 be 59 da 98 be e3 4a 5b bf
       -0.83177483 -0.47181892 -0.29854086 -0.85661143
0003c0 ba a7 12 bf 67 01 30 be 43 9c aa 35 41 f0 13 35
       -0.5728718 -0.17188035 1.2711465e-06 5.511138e-07
0003d0 a8 d1 28 bf 28 21 6e be 27 b5 a8 be 8c cf 86 30
       -0.6594491 -0.23254836 -0.32950708 9.808772e-10
0003e0 22 5b 11 bf f7 16 9b 35 d1 48 39 bf 00 a8 91 b5
       -0.5677968 1.1555084e-06 -0.72376734 -1.0852236e-06
0003f0 04 71 0b bf 7f 76 4f bf 42 63 5d b4 29 fc eb be
       -0.54469323 -0.81040186 -2.0618339e-07 -0.4609082

_layers.1.bias f4 [32]
000000 43 4e 0e bf e3 9b 39 bf d8 94 da be 32 df ab bf
       -0.5558817 -0.7250349 -0.42691684 -1.3427489
000010 08 14 24 bf 84 a5 d1 be 17 73 e5 be fa af eb be
       -0.64093065 -0.4094659 -0.4481437 -0.46032697
000020 6a e2 08 bf af bd 19 bf 32 db 05 bf 35 74 33 bf
       -0.5347048 -0.6005506 -0.5228759 -0.7009919
000030 89 de b1 be b5 e3 02 bf b0 bd 19 bf 67 2c ea be
       -0.34740093 -0.51128703 -0.60055065 -0.45737
000040 a2 85 16 bf b0 bd 19 bf a9 68 7a 3d 52 a1 fa be
       -0.5879766 -0.60055065 0.061134968 -0.48951203
000050 76 e2 b5 3d e6 f8 02 bf 86 37 ed be b0 bd 19 bf
       0.088810846 -0.5116104 -0.46331424 -0.60055065
000060 b9 49 aa be 7d 5d fc bd 02 0f b3 3d 96 3b 03 bf
       -0.3325937 -0.12322519 0.08743097 -0.51262796
000070 30 03 be 3d 4f f0 2e bf ca d6 bb 3d 41 7c 1e 3f
       0.09277952 -0.6833543 0.09171827 0.61908346

_layers.2.weight f4 [16, 32]
000000 74 da fc b0 f1 8a 08 35 c8 45 b9 b4 80 ef 3d be
       -1.8397501e-09 5.0866134e-07 -3.4509708e-07 -0.18548393
000010 2a d3 ba b3 8c 88 22 b5 0c 91 0a b5 59 d5 06 3f
       -8.6997105e-08 -6.0548405e-07 -5.1620077e-07 0.5266929
000020 8a 44 03 33 0b 74 1e b5 46 c7 37 35 bb ef 98 32
       3.056315e-08 -5.902845e-07 6.8462793e-07 1.7804146e-08
000030 3d aa f1 3e 31 13 0e 3f 39 f2 4c b4 da 83 da b4
       0.47200194 0.55498034 -1.90871e-07 -4.07016e-07
000040 48 10 ab 34 85 2f 9b 34 c4 d3 af 3e 9c e9 d1 b2
       3.1863078e-07 2.8905575e-07 0.34341252 -2.4437036e-08
000050 08 ec 28 bf e7 cb 06 3f 86 59 a8 b4 9a 42 59 35
       -0.65985155 0.5265488 -3.1357575e-07 8.093572e-07
000060 b8 d8 09 bf c4 52 bf 3e 18 03 f9 3e 80 7c 71 b5
       -0.5384631 0.37367833 0.48635173 -8.996067e-07
000070 68 2b 11 3e e8 e5 18 b5 9e 9f 59 bf 82 f6 ae 3e
       0.14176714 -5.695897e-07 -0.8500918 0.34172446
000080 c1 c3 91 b4 5e be 5b b5 ac 3b 2f bf 0c b6 ab b1
       -2.7150784e-07 -8.186088e-07 -0.6845043 -4.9974513e-09
000090 34 49 70 b3 e2 83 0f 35 9e 6f 34 b4 04 87 07 3f
       -5.5945932e-08 5.3463566e-07 -1.6804412e-07 0.5294039
0000a0 f6 d4 a3 34 b4 07 52 b4 5d f9 11 b5 61 f6 4e 34
       3.0516065e-07 -1.9560576e-07 -5.437958e-07 1.9274877e-07
0000b0 90 fd fe be a0 b0 3d 34 fe ab 73 33 3c 1a a0 33
       -0.49802828 1.7666252e-07 5.6734272e-08 7.4553526e-08
0000c0 f4 98 1a b4 7b 04 b2 b5 da 91 0a bf 19 ed a3 35
       -1.4398012e-07 -1.3263337e-06 -0.541288 1.2213451e-06
0000d0 cd 7c e9 be e3 7d 5b 35 ac 16 4e b3 5e 9c 0b b5
       -0.45603028 8.1767047e-07 -4.7983733e-08 -5.200908e-07
0000e0 33 cb 0c bf 00 f6 00 bf c4 37 ed be 4c ef 0c bf
       -0.5499756 -0.50375366 -0.46331608 -0.5505264
0000f0 01 01 02 bf b7 96 8a 35 e2 32 ef be 1f f9 e8 be
       -0.5078278 1.0325665e-06 -0.46718508 -0.45502564
000100 81 de 01 bf 13 bc cf 3e 9a 15 fa b4 f4 73 ba 34
       -0.5073014 0.40573177 -4.6581846e-07 3.4729567e-07
000110 71 29 8c 3e fb b4 88 be 39 1f 80 bf 58 71 5e b5
       0.27375367 -0.26700577 -1.0009528 -8.286638e-07
000120 92 85 f9 b0 17 ae 82 3f d6 31 63 b5 97 83 a0 3e
       -1.8155097e-09 1.0209378 -8.463661e-07 0.31350395
000130 c7 c2 bc 34 fe f6 f6 b4 60 d3 82 3c b9 2f f4 be
       3.5159448e-07 -4.600078e-07 0.015969932 -0.4769266
000140 93 b5 78 3d 6a eb 0c 3f 84 f9 e7 be 3d 54 df be
       0.060720038 0.55046713 -0.45307553 -0.43618956
000150 90 5d 21 bf 4d 59 71 35 87 dd 06 3f 74 c7 6c 3e
       -0.6303339 8.9909446e-07 0.52681774 0.2312296
000160 3e 6c 58 34 8f 63 e1 be 87 68 1c bf 94 b8 7d b3
       2.0155946e-07 -0.4402127 -0.61096996 -5.9074026e-08
000170 41 a5 68 3e 3b 16 15 3f 7a 0b b5 be f5 fb 64 bf
       0.2271929 0.58237046 -0.35360318 -0.89446956
000180 b3 9d 71 be 8f 85 3c be 73 b9 96 3e 1c 96 4d c0
       -0.23595314 -0.18410324 0.29438362 -3.212287
000190 cd d3 25 3f 5d 3e d8 3e 5b 20 3b 3f cb 2e d1 be
       0.6477631 0.4223508 0.73096246 -0.40856013
0001a0 82 be c4 3e 2c 6f 8a 3f 65 f4 64 3e eb 30 d4 3d
       0.38426596 1.0815177 0.22358854 0.10360893
0001b0 b4 58 57 be 0f 43 f0 be 7c 6e 1f 3e a8 7e 03 3f
       -0.21029931 -0.46926162 0.1556949 0.5136514
0001c0 60 23 49 3f fc f1 f3 3c d7 bd ad be 68 19 70 3e
       0.785696 0.029778473 -0.339339 0.23447192
0001d0 d3 73 1f 3f 59 ce 13 bf da d8 ba 3e fe f8 a7 3e
       0.6228611 -0.57736737 0.3649357 0.32807153
0001e0 0f ba 46 bf b8 7f 04 3d 8c 0d d7 bd 69 95 e8 be
       -0.7762765 0.032348365 -0.10500631 -0.4542649
0001f0 0e 6c b1 3e 9b 77 03 3c 19 ac d4 3e be f6 2d bf
       0.34652752 0.008024122 0.4153755 -0.67954624
000200 48 fc 6a 35 a5 de 21 be 02 be 43 b4 f8 45 a5 b4
       8.753891e-07 -0.15807588 -1.8229915e-07 -3.0784554e-07
000210 27 6d 11 be 9e fd 81 bf 25 19 79 b4 80 b6 57 31
       -0.14201795 -1.0155523 -2.319908e-07 3.1390357e-09
000220 d4 e5 bb b5 ef 36 16 bf 29 cb 87 b4 3b 3d 7c be
       -1.3999475e-06 -0.5867757 -2.5293528e-07 -0.24632733
000230 36 3f 28 35 a0 04 79 b4 8b 31 20 bf 74 20 8f 31
       6.267686e-07 -2.3191615e-07 -0.62575597 4.1655372e-09
000240 b7 2c 09 bf 78 2e 0a bf 8a fa 95 be ce 44 0b b4
       -0.53583854 -0.53977156 -0.2929271 -1.2970415e-07
000250 92 6c 6b bf ec 66 86 35 1a b6 8a bf 40 0d 3d bf
       -0.9196254 1.0013732e-06 -1.0836823 -0.7384834
000260 54 2e 4a b3 66 e9 1a bf 5a ec 9b be 24 d4 9b 34
       -4.7073925e-08 -0.6051239 -0.3045376 2.9025352e-07
000270 ce 76 8c bf 6d e0 42 bf af f1 ea be 77 6d 04 bf
       -1.0973756 -0.76123697 -0.45887515 -0.5172953
000280 aa 9a ba 35 45 0e 25 b3 be f7 5a 35 d5 8c 08 b4
       1.3903093e-06 -3.8430034e-08 8.157184e-07 -1.2717221e-07
000290 12 84 bd 33 94 b9 68 bf 1a 85 94 be 97 47 2e b4
       8.825022e-08 -0.9090817 -0.29007798 -1.6231057e-07
0002a0 ed 03 47 34 df 85 79 b5 23 95 b9 b5 c9 ac f6 34
       1.8534747e-07 -9.2954537e-07 -1.3826979e-06 4.5946788e-07
0002b0 12 62 07 bf a4 c5 0d b5 d3 39 e9 b4 b6 99 2e bf
       -0.5288402 -5.28142e-07 -4.3441705e-07 -0.68203294
0002c0 36 d3 67 b5 5e 47 61 34 5f d4 37 bf ab 84 29 bf
       -8.636156e-07 2.0980721e-07 -0.7180843 -0.6621806
0002d0 31 47 ea be 4e c0 65 35 4b 8c ac b4 01 fb c2 35
       -0.4575744 8.558899e-07 -3.2139573e-07 1.4527178e-06
0002e0 f2 e1 d9 be 48 71 0e bf 54 0c 3d bf d2 69 bc 35
       -0.42555195 -0.55641603 -0.73846936 1.4037889e-06
0002f0 73 82 b7 be 70 39 1c b5 6c e0 3c be f6 1e 10 bf
       -0.35841712 -5.819811e-07 -0.18444985 -0.5629724
000300 67 d7 70 34 08 67 d9 be 88 01 b5 b3 b7 03 e7 30
       2.2430105e-07 -0.4246142 -8.428748e-08 1.6808518e-09
000310 2d f4 fe be 9a 0f 66 bf 8f bb c1 35 02 24 b7 b3
       -0.49795666 -0.89867556 1.4434207e-06 -8.528151e-08
000320 38 72 ba b1 fe 2a 99 be d9 b0 80 35 8a 50 13 bf
       -5.4262976e-09 -0.29915613 9.588213e-07 -0.5754477
000330 10 f0 5c 35 e2 0c 97 34 d9 65 da be 3f cf 06 35
       8.2305723e-07 2.8135315e-07 -0.4265583 5.022047e-07
000340 7b 1f 12 be 5c cd 31 be 5c 4d 8e bf 9a d1 c2 b5
       -0.14269821 -0.17363495 -1.1117358 -1.4515128e-06
000350 8a d6 7d bf 82 29 28 34 80 5a d2 be f6 35 d4 be
       -0.99155486 1.566132e-07 -0.4108467 -0.4144742
000360 a6 58 bc b4 6a a8 68 bf ea 40 10 bf 32 65 4b 35
       -3.508223e-07 -0.9088198 -0.5634905 7.577065e-07
000370 d4 0b 88 bf 67 13 af be 3d 6b 94 bf 33 53 25 bf
       -1.062861 -0.3419449 -1.1595227 -0.64580077
000380 cf 92 e8 b3 d6 4c a7 33 4f 23 bf b4 9a f5 1b bf
       -1.0830046e-07 7.79052e-08 -3.5602213e-07 -0.60921633
000390 6e f4 b7 b4 9e ca 9b 35 68 a6 98 32 c4 d1 70 b5
       -3.4264252e-07 1.1607369e-06 1.7770802e-08 -8.9712216e-07
0003a0 c0 34 8d 32 24 c2 97 35 12 26 98 35 25 a7 58 33
       1.6438548e-08 1.1306879e-06 1.1335962e-06 5.0443436e-08
0003b0 ca 2d 61 34 9d 97 34 34 42 75 e6 33 0f 37 a8 b4
       2.0971416e-07 1.6818963e-07 1.0731539e-07 -3.13325e-07
0003c0 2a f9 88 35 73 31 0c b3 6f c3 fa be 65 7a f4 34
       1.0205306e-06 -3.2641264e-08 -0.4897723 4.5537595e-07
0003d0 9d fa 02 bf f8 97 ab b5 e4 5e 55 34 96 a1 01 b5
       -0.51163656 -1.2784722e-06 1.9871692e-07 -4.8291383e-07
0003e0 db c0 06 b5 03 86 fe be 9d 1c c6 be 3a 6f ef 32
       -5.019953e-07 -0.49711618 -0.38693705 2.7873842e-08
0003f0 bf 0b c7 be 3c f1 94 b1 78 36 cd be e0 d8 b3 be
       -0.3887615 -4.334792e-09 -0.4008062 -0.351264

_layers.2.bias f4 [16]
000000 87 cc fc be 98 3b 03 bf 71 da 3b be 9d 97 9f 3e
       -0.49374792 -0.5126281 -0.18345048 0.3117036
000010 b0 bd 19 bf 64 e2 08 bf b1 bd 19 bf 71 24 fe bd
       -0.60055065 -0.53470445 -0.6005507 -0.124092944
000020 0d fc 03 bf 78 c5 50 bf b0 bd 19 bf b0 bd 19 bf
       -0.51556474 -0.81551313 -0.60055065 -0.60055065
000030 c9 20 04 bf 1c f0 d4 3e 83 4c 62 3c c5 14 79 bd
       -0.51612526 0.4158944 0.013812187 -0.060810823

_layers.3.weight f4 [1, 16]
000000 7c b2 93 3c d7 e5 c9 be d1 0e 3f bd 39 1b b6 3e
       0.018029444 -0.39433166 -0.04664499 0.35567644
000010 f7 fe e8 3e 4d 46 99 bd fb f5 5d 3d b2 b2 04 bf
       0.45507023 -0.07484112 0.054189663 -0.5183517
000020 2c 3b e1 3e 8f 72 25 3e 1c 16 32 3d d1 57 55 3d
       0.43990457 0.16156982 0.043478116 0.0520857
000030 d3 d4 f4 be 9e c4 d6 3e 71 f6 76 be ae 63 e6 bd
       -0.47818622 0.41946882 -0.24117447 -0.11249481
