corai/tests/examples_of_tasks/example_hyper_param_sin_estim_models/model_341.pth (torch, 2895 bytes, 7 tensors)

_layers.0.weight f4 [4, 1]
-5.8498974 -5.1113815 -5.4825277 -7.089997
00000000: 5c32 bbc0 7090 a3c0 de70 afc0 41e1 e2c0

_layers.0.bias f4 [4]
-7.9203925 -6.0033894 -6.0033894 -3.1912045
00000000: db73 fdc0 c41b c0c0 c41b c0c0 b23c 4cc0

_layers.1.weight f4 [8, 4]
-6.15888 -5.54222 -4.984472 0.005393407 -5.6497765 -5.46344 -6.838072 0.006993766
6.638684 5.88059 6.601385 2.78941 5.915393 0.0032911445 0.0038858375 0.6476245
5.9355335 5.175096 6.432285 -5.590325 -5.8104362 -5.054439 -4.890904 -0.0022159605
7.0582376 5.6932144 5.65574 -0.0071970997 5.804579 0.002638938 -0.0062614796 2.2059202
00000000: 8c15 c5c0 de59 b1c0 cb80 9fc0 2dbb b03b
00000010: f8ca b4c0 80d4 aec0 7cd1 dac0 f62b e53b
00000020: 1970 d440 cb2d bc40 8c3e d340 b285 3240
00000030: e64a bd40 3eb0 573b 89a9 7e3b b8ca 253f
00000040: e4ef bd40 639a a540 47d5 cd40 f1e3 b2c0
00000050: 18ef b9c0 f7bd a1c0 4982 9cc0 a639 11bb
00000060: 15dd e140 d02e b640 d2fb b440 a6d5 ebbb
00000070: 1cbf b940 08f2 2c3b 192d cdbb cc2d 0d40

_layers.1.bias f4 [8]
-6.00339 -6.00339 6.061135 2.500035 3.402218 -6.00339 6.0033903 3.717378
00000000: c51b c0c0 c51b c0c0 d1f4 c140 9300 2040
00000010: f1bd 5940 c51b c0c0 c61b c040 85e9 6d40

_layers.2.weight f4 [4, 8]
-6.060123 -5.588069 -6.9848466 -4.981848 -5.7087736 -4.960793 -6.3047695 -4.9508653
-5.4858527 -5.205788 -6.293515 -4.870861 -7.1435347 -5.501207 -6.462682 -4.8373475
-6.971339 -6.052351 -4.959863 0.0051388643 -5.5542474 -5.539285 -5.0127563 -0.0008064357
-5.0307837 -0.012236455 -5.522076 -5.6177115 -3.0981164 5.999813 -6.2312427 -5.740478
00000000: 87ec c1c0 76d1 b2c0 dd83 dfc0 4c6b 9fc0
00000010: 46ae b6c0 d1be 9ec0 acc0 c9c0 7d6d 9ec0
00000020: 1b8c afc0 d195 a6c0 7a64 c9c0 18de 9bc0
00000030: d697 e4c0 e309 b0c0 4ace cec0 8dcb 9ac0
00000040: 3615 dfc0 dcac c1c0 33b7 9ec0 eb63 a83b
00000050: 65bc b1c0 d341 b1c0 8068 a0c0 fc66 53ba
00000060: 2efc a0c0 6a7b 48bc d9b4 b0c0 4bc4 b3c0
00000070: 8a47 46c0 78fe bf40 5766 c7c0 ffb1 b7c0

_layers.2.bias f4 [4]
-6.0174394 -6.022557 -6.003391 -7.0675216
00000000: dd8e c0c0 c9b8 c0c0 c71b c0c0 2329 e2c0

_layers.3.weight f4 [1, 4]
-4.9494214 -5.294275 -5.8294616 6.1959763
00000000: a961 9ec0 b36a a9c0 f38a bac0 7045 c640
