corai/tests/examples_of_tasks/example_hyper_param_sin_estim_models/model_336.pth (torch, 2895 bytes, 7 tensors)

_layers.0.weight f4 [4, 1]
000000 a5 22 35 c0 71 9f a3 c0 de 7f af c0 24 ec aa c0
       -2.8302395 -5.113213 -5.484359 -5.3413258

_layers.0.bias f4 [4]
000000 f5 15 91 c0 c5 2a c0 c0 c5 2a c0 c0 d4 df b1 c0
       -4.5339303 -6.005221 -6.005221 -5.558573

_layers.1.weight f4 [8, 4]
000000 8c 24 c5 c0 dd 68 b1 c0 cc 8f 9f c0 16 17 a9 ba
       -6.1607113 -5.5440507 -4.9863033 -0.0012900557
000010 f9 d9 b4 c0 80 e3 ae c0 7d e0 da c0 d2 ea 50 3b
       -5.651608 -5.465271 -6.8399034 0.0031878245
000020 27 6d a2 be ca 3c bc 40 8a 4d d3 40 07 9c b0 c0
       -0.31723902 5.8824205 6.603215 -5.5190463
000030 57 40 bd 40 a0 59 32 38 9c 5d 86 b9 27 7c ad 40
       5.914104 4.2521977e-05 -0.00025628216 5.4214053
000040 7d de 82 c0 65 a9 a5 40 4b e4 cd 40 95 f4 b2 c0
       -4.089659 5.176928 6.434118 -5.592356
000050 1b fe b9 c0 f5 cc a1 c0 49 91 9c c0 ce 23 09 ba
       -5.8122687 -5.056269 -4.892735 -0.00052314706
000060 c9 09 5c c0 d0 3d b6 40 d3 0a b5 40 73 67 ac c0
       -3.4380972 5.6950455 5.6575713 -5.387628
000070 83 ac b9 40 24 3a b3 39 52 40 dc 3a 2b fb a2 40
       5.8023086 0.0003418486 0.0016803837 5.09316

_layers.1.bias f4 [8]
000000 c5 2a c0 c0 c8 2a c0 c0 92 59 13 3f c5 92 b1 40
       -6.005221 -6.0052223 0.5755855 5.549166
000010 4a 9b 8f c0 c7 2a c0 c0 dc 8a 8e c0 24 8b b1 40
       -4.487706 -6.005222 -4.4544506 5.548235

_layers.2.weight f4 [4, 8]
000000 89 fb c1 c0 77 e0 b2 c0 de 92 df c0 1e 82 9f c0
       -6.061955 -5.5899005 -6.986678 -4.9846334
000010 46 bd b6 c0 d0 cd 9e c0 ef e2 c9 c0 4e 84 9e c0
       -5.7106047 -4.9626236 -6.308952 -4.9536505
000020 1b 9b af c0 d3 a4 a6 c0 c2 63 c9 c0 bc 0d a5 c0
       -5.487684 -5.20762 -6.2934275 -5.1579266
000030 f7 db e4 c0 e5 18 b0 c0 4c dd ce c0 d2 69 9f c0
       -7.151851 -5.503039 -6.464514 -4.9816675
000040 37 24 df c0 dd bb c1 c0 34 c6 9e c0 36 60 46 3b
       -6.9731708 -6.0541825 -4.9616947 0.0030269749
000050 67 cb b1 c0 d5 50 b1 c0 0c 6f a0 c0 2a 08 9c c0
       -5.5560794 -5.541117 -5.0135555 -4.8759966
000060 5d 4a df 40 eb 5b 38 bb 7e c5 b0 c0 f2 d4 b3 c0
       6.9778275 -0.002813096 -5.524108 -5.6197443
000070 30 ab 90 c0 79 0d c0 40 95 2a 99 c0 ad c2 b7 c0
       -4.520897 6.0016446 -4.786448 -5.742514

_layers.2.bias f4 [4]
000000 0d e0 c2 c0 e5 96 c0 c0 ad 4f c9 c0 84 c4 91 c0
       -6.08985 -6.0184197 -6.290976 -4.5552387

_layers.3.weight f4 [1, 4]
000000 a1 0a 9e c0 29 69 a9 c0 72 83 ba c0 33 6d 36 40
       -4.9387975 -5.294087 -5.8285456 2.850415
