corai/tests/examples_of_tasks/example_hyper_param_sin_estim_models/model_333.pth (torch, 3215 bytes, 7 tensors)

_layers.0.weight f4 [2, 1]
0	0xc0a921ef	-5.2853923
1	0xc08aed48	-4.341465

_layers.0.bias f4 [2]
0	0xc0ac5c5a	-5.3862734
1	0xc09d99c4	-4.92502

_layers.1.weight f4 [32, 2]
0	0xc09d6f7b	-4.9198585
1	0xbc42b346	-0.011883562
2	0x3c968cde	0.018377718
3	0xbd652d61	-0.05595148
4	0x40b86375	5.7621408
5	0x4096a509	4.707646
6	0xc0a2b4e7	-5.084583
7	0x3c0de734	0.00866108
8	0xbcfc5aa0	-0.030804932
9	0xbcf2bb3f	-0.029630302
10	0xbcbd469a	-0.023104955
11	0x3d55e224	0.052217618
12	0xbcac54b4	-0.021036483
13	0xbd18edd2	-0.037336178
14	0xc09d9441	-4.9243474
15	0x3c60d69c	0.013723042
16	0xbd135ebe	-0.035979025
17	0xc093a50c	-4.6138973
18	0xbd2c39e8	-0.04204741
19	0xc09bcf2f	-4.869041
20	0xbd274fe4	-0.040847674
21	0x40a47879	5.139706
22	0xbd51b2ef	-0.051196035
23	0x3d0e09d8	0.034677356
24	0x40b52846	5.661166
25	0x409ba1eb	4.8635154
26	0xc0a13fb2	-5.0390253
27	0xb9265700	-0.00015863404
28	0x3d24e0b5	0.04025336
29	0xbab5fa80	-0.0013883859
30	0xc09ee789	-4.9657636
31	0x3d5ef120	0.054429173
32	0xbcb97c3c	-0.022642247
33	0xc0935a73	-4.604791
34	0xbd5c679c	-0.053809747
35	0xc097f269	-4.748341
36	0xbc99c666	-0.018771362
37	0x3d0f89ee	0.03504365
38	0xc09d96a0	-4.924637
39	0x3d5c2e0a	0.053754844
40	0x40ba40d2	5.8204126
41	0x409abdbb	4.8356605
42	0xbd5662ee	-0.05234044
43	0x40a7b7c8	5.241184
44	0xc09f3e11	-4.9763265
45	0x3d5c694a	0.05381135
46	0xc09e4ecd	-4.947119
47	0xbd588f9f	-0.052871343
48	0xc09efbd8	-4.9682426
49	0x3c63a828	0.013895072
50	0xc0a6a55d	-5.207686
51	0xbc756208	-0.014976986
52	0x3ca0512e	0.01956996
53	0x409ebc51	4.960488
54	0xbd46f836	-0.048576556
55	0xbcd2eb11	-0.025746854
56	0xc09d8d9f	-4.9235377
57	0xbce2d779	-0.027690636
58	0xc0a1935f	-5.0492396
59	0xbd8318ce	-0.064012155
60	0xbd5aa6ea	-0.053381838
61	0xc0946596	-4.6374006
62	0xbb6033f0	-0.0034210645
63	0xc0956a93	-4.6692595

_layers.1.bias f4 [32]
0	0xc0ac5c5b	-5.386274
1	0x00000000	0.0
2	0xbfe9d7ac	-1.8268943
3	0xc0ac5c5b	-5.386274
4	0x00000000	0.0
5	0x00000000	0.0
6	0x00000000	0.0
7	0xc0ac5c5c	-5.3862743
8	0xc09d99c1	-4.925019
9	0xc09d99c3	-4.9250197
10	0xc084ab80	-4.145935
11	0x00000000	0.0
12	0xbff67b5e	-1.9256399
13	0xc0ac5c5a	-5.3862734
14	0x00000000	0.0
15	0xc0ac5c5b	-5.386274
16	0xc09d999b	-4.9250007
17	0xc09d99c2	-4.9250193
18	0x00000000	0.0
19	0xc0ac5c5b	-5.386274
20	0xc0005f56	-2.0058188
21	0xc087fb86	-4.2494535
22	0xc0ac5c5b	-5.386274
23	0xc0ac5c5b	-5.386274
24	0xc0ac5c5a	-5.3862734
25	0xc0ac5c5c	-5.3862743
26	0xc08020ef	-4.00402
27	0x00000000	0.0
28	0xc0ac5c5b	-5.386274
29	0xc0ac5c5b	-5.386274
30	0xc09d99c3	-4.9250197
31	0xc09d9888	-4.9248695

_layers.2.weight f4 [2, 32]
0	0xc09e52a8	-4.94759
1	0x3d312182	0.043244846
2	0xc0b8c380	-5.7738647
3	0xc0a4559f	-5.135452
4	0xbc72234c	-0.014778923
5	0x3c279cd0	0.010230258
6	0xbd2b5a08	-0.041833907
7	0xc0a10a7e	-5.032531
8	0x3c88b432	0.016687486
9	0xbd43cb56	-0.047801338
10	0x3d495f21	0.049162988
11	0x3d800560	0.06251025
12	0xc0b9c517	-5.805309
13	0xc0a41ba5	-5.1283746
14	0x3b979268	0.0046256073
15	0xc0a3bc57	-5.1167407
16	0xbcebf3d2	-0.028802786
17	0xbd4e1edd	-0.050322402
18	0x3c7d1c04	0.015448574
19	0xc09f7d97	-4.984081
20	0xc0b2e46c	-5.5903835
21	0xbc167840	-0.009183943
22	0xc09e9735	-4.955958
23	0xc09eab9e	-4.9584494
24	0xc09f140f	-4.9711986
25	0xc0a2f244	-5.0920734
26	0x3d45cc8d	0.048290778
27	0x3b202cf0	0.0024440847
28	0xc0a0852d	-5.016257
29	0xc09de2b7	-4.933925
30	0x3d817d3b	0.06322714
31	0x3ce4b626	0.027918886
32	0x3b82bb25	0.0039895945
33	0xbcb7fe4e	-0.02246013
34	0xc054c678	-3.3246136
35	0x3ce75c6c	0.028242312
36	0xbd209402	-0.03920365
37	0x3be09260	0.0068533868
38	0x3d363a24	0.04448904
39	0x3c82eaf4	0.015981175
40	0x4095929f	4.674148
41	0x409a5d3f	4.8238826
42	0xc08091d8	-4.017803
43	0xbcfa389f	-0.030544577
44	0xc05d4a8c	-3.457675
45	0x3d204abc	0.039133772
46	0xbcbc4329	-0.022981243
47	0xbd32852c	-0.043584034
48	0x409d4156	4.9142256
49	0x40991ea5	4.784991
50	0xbd091dd6	-0.03347572
51	0xbd0ab3e2	-0.033862956
52	0xc057e6a0	-3.3734512
53	0xc0806eb8	-4.0135155
54	0x3d86ea7c	0.06587693
55	0x3d1dd09a	0.038529016
56	0x3d0afcb6	0.03393241
57	0xbc053c34	-0.008132029
58	0xc0806ac8	-4.013035
59	0xbbde4740	-0.006783396
60	0xbcd60010	-0.026123077
61	0x3d3e4244	0.046449915
62	0x40964843	4.696321
63	0x409d8e0c	4.9235897

_layers.2.bias f4 [2]
0	0xc0ac5c59	-5.386273
1	0xc054bbae	-3.323955

_layers.3.weight f4 [1, 2]
0	0xc09d94fd	-4.924437
1	0xc05dd55a	-3.466147
