corai/tests/examples_of_tasks/example_hyper_param_sin_estim_models/model_339.pth (torch, 36175 bytes, 7 tensors)

_layers.0.weight f4 [32, 1]
0	0xc02d182e	-2.7046008
1	0xbf34ec94	-0.7067349
2	0xbeea224d	-0.45729294
3	0xc055cd27	-3.3406465
4	0xc057360c	-3.3626738
5	0xc004913e	-2.0713649
6	0xbf1e1ecc	-0.6176574
7	0xc057e04c	-3.373065
8	0xbf8ebf27	-1.1152085
9	0xc0021078	-2.0322552
10	0xc06e3532	-3.7219968
11	0xc04f9a8c	-3.2438078
12	0xbf1681fa	-0.5879208
13	0xc04bf628	-3.1868992
14	0xc0438ec9	-3.05559
15	0xbf2a3700	-0.66490173
16	0xbfa84552	-1.3146155
17	0xc0118b4c	-2.274127
18	0xc013dbdd	-2.3102944
19	0xbf11047a	-0.56647456
20	0xc063c6cd	-3.5590088
21	0xbf4635d2	-0.77425873
22	0xc0676392	-3.6154523
23	0xc02d6480	-2.709259
24	0xc031ee9f	-2.7801893
25	0xc06deea8	-3.7176914
26	0xc0708c50	-3.758564
27	0xc06a1a57	-3.6578577
28	0xc036fb01	-2.85907
29	0xc0304343	-2.7541053
30	0xbf01900c	-0.50610423
31	0xbff0c566	-1.8810241

_layers.0.bias f4 [32]
0	0xc04625ea	-3.096064
1	0xbf8df7d2	-1.1091254
2	0xbf6737a7	-0.90319294
3	0xc0726c2b	-3.787852
4	0xc0726c28	-3.7878513
5	0xc0068731	-2.1020014
6	0xbf89c916	-1.0764492
7	0xc0726c29	-3.7878516
8	0xbfd97545	-1.6988913
9	0xc02e8948	-2.727129
10	0xc0726c29	-3.7878516
11	0xc0726c2a	-3.7878518
12	0xbf5b3d2d	-0.8564022
13	0xc0726c2b	-3.787852
14	0xc04625ea	-3.096064
15	0xbf5b87c2	-0.85754025
16	0xbfc624f8	-1.5480032
17	0xc0309c3d	-2.759536
18	0xc0320c2d	-2.7819932
19	0xbf6821de	-0.9067668
20	0xc0726c28	-3.7878513
21	0xbfa3a6ac	-1.2785239
22	0xc0726c29	-3.7878516
23	0xc04625ea	-3.096064
24	0xc04625ea	-3.096064
25	0xc0726c28	-3.7878513
26	0xc0726c29	-3.7878516
27	0xc0726c2b	-3.787852
28	0xc04625ea	-3.096064
29	0xc04625ea	-3.096064
30	0xbf5f81ee	-0.8730763
31	0xc0066689	-2.1000082

_layers.1.weight f4 [128, 32]
0	0xc062c879	-3.5434859
1	0xc02be454	-2.685811
2	0xc02b1bfd	-2.6735833
3	0x406a7fd0	3.664051
4	0x407694bd	3.8528283
5	0xc014fb07	-2.3278215
6	0xc063fc3a	-3.5622697
7	0x40640c1d	3.5632393
8	0xc0636805	-3.5532238
9	0xbfe8121f	-1.813053
10	0x406aab99	3.6667235
11	0x40829f2a	4.081929
12	0xc031e796	-2.77976
13	0x40668197	3.6016595
14	0xc0289b28	-2.63447
15	0xc0629450	-3.5403023
16	0xc02ac6a0	-2.668373
17	0xbfed2ad1	-1.8528692
18	0xc00a47f7	-2.1606424
19	0xc02c9582	-2.6966252
20	0x4063f936	3.5620856
21	0xc0294156	-2.6446128
22	0x4071a1fd	3.775512
23	0xc02850f1	-2.6299403
24	0xc04bf453	-3.1867874
25	0x407183c2	3.7736669
26	0x4063040a	3.5471215
27	0x40809e0e	4.019294
28	0xc061bb7b	-3.527068
29	0xc0287593	-2.6321762
30	0xc063bd3a	-3.5584245
31	0xbfea54fe	-1.8307188
32	0xbe63ce00	-0.22246552
33	0xbe63b1e8	-0.22235835
34	0x3e6bd112	0.23028973
35	0xc06d9d03	-3.7127082
36	0xc060404a	-3.503924
37	0xc06ca9cc	-3.6978636
38	0x3e5f6f8d	0.21819897
39	0xc05eec31	-3.483166
40	0x3e76a7f9	0.24087514
41	0xc061349a	-3.5188355
42	0xc070e273	-3.7638214
43	0xc06832cd	-3.6281006
44	0xbdd0b2e0	-0.10190368
45	0xc0661110	-3.5947914
46	0x3e55a3c0	0.20863247
47	0x3df46c55	0.11934725
48	0x3e1479ef	0.14499639
49	0xc06bb551	-3.6829417
50	0xc07fd245	-3.9972088
51	0x3e77d5f2	0.24202707
52	0xc080937b	-4.018003
53	0x3e54a3e6	0.20765647
54	0xc0669e4c	-3.6034117
55	0x3e74f5fa	0.23921958
56	0xbe0c6f9a	-0.13714448
57	0xc078bb8d	-3.8864472
58	0xc06bbac5	-3.6832745
59	0xc05dcb96	-3.465551
60	0x3de72028	0.1128543
61	0xbe4d69ec	-0.20059937
62	0xbe2bb3d9	-0.16767825
63	0xc06f85a0	-3.7425308
64	0x3e4e3d5b	0.20140593
65	0xbfbcdb8b	-1.4754499
66	0xbfbbcc60	-1.4671745
67	0xc05e02f1	-3.4689295
68	0xc064f84a	-3.5776544
69	0xc07fbd91	-3.9959452
70	0xbfbbdb3e	-1.4676282
71	0xc0800bc6	-4.001437
72	0xbff84274	-1.939528
73	0xc06e2fc1	-3.7216647
74	0xc06af94b	-3.6714656
75	0xc06b314b	-3.6748836
76	0xbfbb83ca	-1.4649594
77	0xc0804791	-4.008736
78	0xbd56f4d2	-0.052479573
79	0xbff46416	-1.9093044
80	0xc004b15f	-2.0733259
81	0xc0696eee	-3.6473956
82	0xc0676ef8	-3.616148
83	0xbfd560d1	-1.6670171
84	0xc0648a48	-3.57094
85	0xc0066e0a	-2.1004663
86	0xc07b5c1e	-3.9274974
87	0x3dc363b1	0.09540499
88	0xbe77d7e8	-0.24203455
89	0xc0649680	-3.5716858
90	0xc065ff65	-3.593713
91	0xc06d852a	-3.7112527
92	0xbccb5320	-0.02481991
93	0x3e6cb5dc	0.23116249
94	0xbff3f6e2	-1.9059718
95	0xc082b6c0	-4.0848083
96	0x402956ce	2.6459231
97	0xbfafab3a	-1.3724129
98	0xbfae7c08	-1.3631601
99	0xbe7257fe	-0.23666379
100	0x3e6374e4	0.22212559
101	0x402777d8	2.6166897
102	0xbee653d4	-0.4498583
103	0xbcaae99c	-0.020863347
104	0xbf3adbd8	-0.72991705
105	0xbeb342f5	-0.35012022
106	0xbe481534	-0.19539338
107	0x3dcd8d12	0.10036673
108	0xbf53512c	-0.82545733
109	0xbe73d3bd	-0.2381124
110	0x4063f545	3.561845
111	0xbf526f5a	-0.8220116
112	0xbfada0bf	-1.3564681
113	0xbd4ee638	-0.050512522
114	0x3eb21072	0.34778172
115	0xbf33a28c	-0.701699
116	0x3e50fa73	0.20408039
117	0xbef168cc	-0.47150266
118	0xbd28bc84	-0.041195408
119	0x402b5361	2.676964
120	0x4029aff2	2.6513638
121	0x3e56c1a0	0.209723
122	0x3e304fec	0.17217988
123	0xbe5cd590	-0.21565843
124	0x406310ee	3.5479083
125	0x4063f8fa	3.5620713
126	0xbef81653	-0.48454532
127	0x406142bd	3.5196984
128	0xc02847db	-2.6293857
129	0xc06404c3	-3.5627906
130	0xc063e3a6	-3.5607696
131	0x407b9fec	3.9316359
132	0x406401e7	3.562616
133	0xc00b4dfc	-2.1766348
134	0xc0640596	-3.562841
135	0x405e2438	3.4709606
136	0xc0308e4c	-2.758685
137	0xbffa6ab0	-1.9563808
138	0x406c4488	3.6916828
139	0x407d6b87	3.959688
140	0xc063ae1c	-3.5575018
141	0x4081b764	4.0536366
142	0xc0284745	-2.62935
143	0xc05d8101	-3.4609988
144	0xc029674a	-2.6469293
145	0xc002de3f	-2.0448148
146	0xbfe82a80	-1.813797
147	0xc063cf36	-3.5595222
148	0x4073b8f9	3.8081648
149	0xc05a2f5c	-3.4091406
150	0x4083196e	4.096854
151	0xc02b88c4	-2.6802225
152	0xc02924df	-2.6428754
153	0x4068a215	3.6348927
154	0x405f12b6	3.485517
155	0x40678c98	3.6179562
156	0xc0284598	-2.6292477
157	0xc029559c	-2.6458502
158	0xc063c8e4	-3.5591364
159	0xbfec54bd	-1.846336
160	0xc0558eba	-3.3368363
161	0xc0287cd5	-2.6326191
162	0xc02dec3d	-2.7175438
163	0xbe4fa649	-0.20278277
164	0x3e6466f0	0.22304893
165	0xc063b482	-3.5578923
166	0xc02af5b6	-2.671247
167	0x3e75f008	0.24017346
168	0xc02ad963	-2.6695182
169	0xc0284e4c	-2.6297789
170	0x3e758e9c	0.23980182
171	0xbe5f3819	-0.21798743
172	0xc029ed1b	-2.6550968
173	0xbe2a50e6	-0.16632423
174	0xc03f93dc	-2.9933996
175	0xc0291c58	-2.642355
176	0xc03ea478	-2.9787884
177	0xc03141f6	-2.769651
178	0xc063f53c	-3.561843
179	0xc0283a96	-2.6285758
180	0x3bd5de80	0.006526768
181	0xc028ee50	-2.6395454
182	0x3e69e9aa	0.22843042
183	0xc028956f	-2.6341207
184	0xc0401cb1	-3.0017512
185	0xbe66b8da	-0.22531453
186	0x3e59df57	0.21276604
187	0xbe56aaa9	-0.20963539
188	0xc0631d62	-3.5486684
189	0xc037519f	-2.8643568
190	0xc0290d66	-2.6414428
191	0xc053dce3	-3.3103569
192	0x3d691412	0.056903906
193	0xbfb2606e	-1.3935678
194	0xbfc33deb	-1.5253271
195	0x3e71ace2	0.23601106
196	0x3da73084	0.081635505
197	0x401faca8	2.494913
198	0xbfa69130	-1.3013058
199	0x3e560395	0.20899804
200	0xbfbee014	-1.4912133
201	0xbfa4bad4	-1.2869515
202	0x3e5254a1	0.20540096
203	0xbe535607	-0.20638286
204	0xbfe36143	-1.7764057
205	0xbc772e28	-0.015086688
206	0xbe20792e	-0.15671226
207	0xbfc04498	-1.5020933
208	0xbfb711b4	-1.4302278
209	0xbfd4eb07	-1.6634225
210	0xbfc08754	-1.5041299
211	0xbfdbb17e	-1.7163541
212	0x3e77d08f	0.24200653
213	0xbfa4ad5c	-1.2865405
214	0xbe708265	-0.23487242
215	0xbe0da9aa	-0.13834253
216	0x3e76de81	0.24108316
217	0xbe4e30fc	-0.20135874
218	0xbd375c87	-0.044765975
219	0xbe73f6d6	-0.23824629
220	0x3e6f111a	0.23346367
221	0x3d9e190f	0.07719623
222	0xbfe9e8ac	-1.8274131
223	0x40318f8a	2.774386
224	0xc03ecdcb	-2.9813106
225	0xc02f00fa	-2.7344346
226	0xc034813e	-2.8203883
227	0xbe76d778	-0.24105632
228	0x3e77d746	0.24203214
229	0xc02f26a7	-2.7367342
230	0xc058319e	-3.3780284
231	0xbe6b99c5	-0.23007877
232	0xc0355500	-2.833313
233	0xc029cc9a	-2.653113
234	0xbe69a7b1	-0.22817875
235	0xbe684d85	-0.22685821
236	0xc062b465	-3.5422604
237	0x3e6ca324	0.23109108
238	0xc028492d	-2.6294663
239	0xc060a0f7	-3.5098245
240	0xc029504e	-2.6455264
241	0xc028b07d	-2.635772
242	0xc0293b80	-2.6442566
243	0xc06310c0	-3.5478973
244	0x3e774c38	0.24150169
245	0xc028f15f	-2.6397321
246	0x3dd2a474	0.10285273
247	0xc063fc1a	-3.562262
248	0xc0283a17	-2.6285455
249	0xbe0837af	-0.13302492
250	0xbe76b13a	-0.24091044
251	0x3e5424d2	0.20717171
252	0xc062e2b5	-3.545087
253	0xc02a1ec7	-2.6581285
254	0xc0285240	-2.6300201
255	0xc029cab4	-2.652997

_layers.1.bias f4 [128]
0	0xc006254b	-2.0960262
1	0xc0726c28	-3.7878513
2	0xc08ce4c2	-4.4029245
3	0xbf5c548c	-0.8606651
4	0xc00625a5	-2.0960476
5	0xc04625e9	-3.0960639
6	0xbfc682a6	-1.5508621
7	0xc04625ea	-3.096064
8	0xbfe4e23e	-1.7881544
9	0xc0726c29	-3.7878516
10	0x40099f68	2.1503544
11	0xc00624e2	-2.0960011
12	0xc0726c2a	-3.7878518
13	0xbfc6a3b8	-1.5518713
14	0xc006258d	-2.096042
15	0xbeea827c	-0.45802677
16	0xc08cd14a	-4.400548
17	0xc0726c2b	-3.787852
18	0xbf5199ac	-0.8187511
19	0xc0272a1c	-2.6119452
20	0xc04625e8	-3.0960636
21	0xc0726c29	-3.7878516
22	0xc0726c29	-3.7878516
23	0x3ff79e48	1.9345179
24	0xc0272a1d	-2.6119454
25	0xc006257b	-2.0960376
26	0xbf66f9ee	-0.9022511
27	0xc08ce1e5	-4.402575
28	0xc04625ea	-3.096064
29	0xc0726c28	-3.7878513
30	0xc04625ea	-3.096064
31	0xc04625ea	-3.096064
32	0xbf6c3e97	-0.92283005
33	0xbf5e4136	-0.86818254
34	0xc0726c29	-3.7878516
35	0xc0726c2a	-3.7878518
36	0xc04625ea	-3.096064
37	0xbf5e3914	-0.86805844
38	0xbf9132aa	-1.1343586
39	0xc00625d3	-2.0960586
40	0xc04625ea	-3.096064
41	0xbf53dd21	-0.8275929
42	0xc00624b6	-2.0959907
43	0xc0726c29	-3.7878516
44	0x4029fac7	2.6559312
45	0xc0726c2a	-3.7878518
46	0xc0726c28	-3.7878513
47	0xbf8534d0	-1.0406742
48	0xc059dcdf	-3.404106
49	0xc0726c29	-3.7878516
50	0xc0726c28	-3.7878513
51	0xc0726c29	-3.7878516
52	0xc0272a1e	-2.6119456
53	0xc0726c2a	-3.7878518
54	0xbf73e95a	-0.9527794
55	0xc0726c2b	-3.787852
56	0xbf73e959	-0.95277935
57	0xc04625ea	-3.096064
58	0xbf70710a	-0.93922484
59	0xbf5afa0c	-0.8553779
60	0xbf4a0c6c	-0.78925204
61	0xc00625db	-2.0960605
62	0xc04625ea	-3.096064
63	0xc059af1e	-3.4013133
64	0xc0062540	-2.0960236
65	0xbf6162ce	-0.8804139
66	0xc00625cd	-2.0960572
67	0xc04625ea	-3.096064
68	0xc0726c2a	-3.7878518
69	0xc0352cb7	-2.8308542
70	0xc04625ea	-3.096064
71	0xc0726c2a	-3.7878518
72	0x3fed26da	1.8527482
73	0xc04625ea	-3.096064
74	0x4007fef8	2.124937
75	0xc04625ea	-3.096064
76	0xc04625e9	-3.0960639
77	0xc00624b9	-2.0959914
78	0xc0726c2b	-3.787852
79	0xc0062564	-2.0960321
80	0xc0062538	-2.0960217
81	0xbf24382d	-0.6414822
82	0xc0062553	-2.096028
83	0xc04625ea	-3.096064
84	0xc00625a4	-2.0960474
85	0xc006257e	-2.0960383
86	0xc04625e8	-3.0960636
87	0x3fd5a953	1.6692299
88	0xc00624e0	-2.0960007
89	0xc08ce256	-4.402629
90	0xc0062586	-2.0960402
91	0xc00c3dce	-2.1912723
92	0xc00c3dcf	-2.1912725
93	0xc04625ea	-3.096064
94	0xbf4fc2d7	-0.81156677
95	0xc04625ea	-3.096064
96	0xc0726c2a	-3.7878518
97	0xc04625e8	-3.0960636
98	0xbf73e95b	-0.9527795
99	0xc04625ea	-3.096064
100	0xc00625a8	-2.0960484
101	0xc00625cb	-2.0960567
102	0xbfc65aac	-1.5496421
103	0xbfc65972	-1.5496047
104	0x3fea8000	1.8320312
105	0xc0726c29	-3.7878516
106	0xc0062587	-2.0960405
107	0xbf654daf	-0.8957166
108	0xc0726c28	-3.7878513
109	0xbf5231c6	-0.821072
110	0xbf634e5a	-0.8879143
111	0xc04625ea	-3.096064
112	0xc0726c2a	-3.7878518
113	0xc04625ea	-3.096064
114	0xc0726c2a	-3.7878518
115	0xc0726c2a	-3.7878518
116	0xbf50a10a	-0.81495726
117	0xbfa01d3e	-1.2508924
118	0xc08d2e9a	-4.4119387
119	0xc0726c2a	-3.7878518
120	0xc00625d4	-2.0960588
121	0xc04625ea	-3.096064
122	0xc04625ea	-3.096064
123	0xc0726c29	-3.7878516
124	0xbf6543c2	-0.89556515
125	0xc0726c29	-3.7878516
126	0xbc38b7a0	-0.011274248
127	0xc00625d0	-2.096058

_layers.2.weight f4 [32, 128]
0	0xc080a060	-4.019577
1	0xc0818150	-4.047035
2	0xc062f182	-3.5459905
3	0xbfce6f80	-1.6127777
4	0xc07ae8f7	-3.920469
5	0xbe6611a9	-0.22467674
6	0xbfc8dbb9	-1.5692054
7	0xbc2a78a0	-0.010404736
8	0x3e6a163e	0.22860047
9	0xc0693f24	-3.6444788
10	0xc01ef640	-2.48378
11	0xc07f72c1	-3.991379
12	0xc07e76ec	-3.9760084
13	0xbfab3606	-1.3375862
14	0xc06c01e7	-3.687616
15	0xc08e6279	-4.4495206
16	0xc0760ff5	-3.844724
17	0xc05f6f27	-3.4911592
18	0xbfba1b17	-1.4539517
19	0x4018ee98	2.3895626
20	0x3d18820d	0.0372334
21	0xc082fbc0	-4.093231
22	0xc0826026	-4.074237
23	0xc01736e8	-2.3627262
24	0x401c0bc5	2.4382184
25	0xc06e7731	-3.7260249
26	0xbfae8758	-1.3635054
27	0xc06b7a54	-3.6793413
28	0x3e735ad7	0.23765121
29	0xc05e9a72	-3.4781766
30	0x3e71e9e9	0.23624386
31	0xbe493262	-0.19648126
32	0xbfd776f9	-1.6833183
33	0xbfe7c0d4	-1.8105721
34	0xc068410b	-3.62897
35	0xc0777f2a	-3.8671365
36	0x3e6d434c	0.23170203
37	0xbfa59eff	-1.2939147
38	0xbfd107e5	-1.6330534
39	0xc06c04cf	-3.6877935
40	0x3c9da064	0.01924152
41	0xbfa3e29e	-1.2803533
42	0xc080c183	-4.023622
43	0xc080459c	-4.008497
44	0x3d0b9638	0.034078807
45	0xc064b272	-3.5733914
46	0xc07b4870	-3.9262962
47	0xbfe8f0d3	-1.8198494
48	0xc074fd9e	-3.8279796
49	0xc076fa62	-3.8590322
50	0xc080751f	-4.014297
51	0xc06e9873	-3.7280548
52	0x401ff6f4	2.4994478
53	0xc0622704	-3.5336313
54	0xbe5732a4	-0.21015412
55	0xc06467ba	-3.568831
56	0xbe74f0ce	-0.23919985
57	0x3c44ed70	0.0120195
58	0xbfe2a3e1	-1.7706262
59	0xbfe1ee25	-1.7650801
60	0xbfc982e3	-1.5743068
61	0xc0695aeb	-3.6461742
62	0xbe66ac88	-0.22526753
63	0xc072f1fa	-3.796019
64	0xc06f8a6c	-3.7428236
65	0xbfb4dc9f	-1.4129828
66	0xc07c7f8e	-3.9452853
67	0x3e6a8d82	0.22905543
68	0xc08089d2	-4.016824
69	0xbfc61846	-1.5476158
70	0x3e528282	0.20557597
71	0xc0671ba8	-3.611063
72	0xbe76b276	-0.24091515
73	0x3dcf6fde	0.10128759
74	0xc01f355d	-2.487632
75	0x3d6ac6bc	0.057318434
76	0xbe730a69	-0.2373444
77	0xc08167a3	-4.043901
78	0xc06a5077	-3.6611612
79	0xc06453a8	-3.567606
80	0xc07bca2c	-3.9342146
81	0xbfd58d22	-1.6683695
82	0xc06e38e1	-3.7222216
83	0x3e62f115	0.22162278
84	0xc076fed3	-3.8593032
85	0xc0700e2e	-3.7508655
86	0xbde4439d	-0.11145709
87	0xc00588c6	-2.086473
88	0xc081052f	-4.031883
89	0xc07dc8a1	-3.9653704
90	0xc05fb14e	-3.4951968
91	0xbff48768	-1.9103823
92	0xbff41f27	-1.9072007
93	0xbd99a36e	-0.07501875
94	0xbfa961a5	-1.3232924
95	0xbe6c744a	-0.23091236
96	0xc07d5a7a	-3.9586473
97	0xbe54f0cb	-0.2079498
98	0xbe679520	-0.2261548
99	0x3e6571f7	0.22406755
100	0xc0727dd2	-3.7889295
101	0xc0622876	-3.5337195
102	0xbfa9b944	-1.3259664
103	0xbfc7408e	-1.5566576
104	0xbe72922a	-0.2368857
105	0xc068af4b	-3.635699
106	0xc06765f0	-3.6155968
107	0xbfa5c1a0	-1.2949715
108	0xc067d655	-3.6224568
109	0xbfe88e4f	-1.8168429
110	0xbfe50876	-1.7893207
111	0xbe775b7f	-0.24155997
112	0xc07ea495	-3.9787953
113	0xbe52ed4b	-0.20598333
114	0xc074d7e7	-3.8256776
115	0xc07c7939	-3.9448988
116	0xbfcdcb00	-1.6077576
117	0xbfbdc5d6	-1.4826
118	0xc068d66c	-3.6380873
119	0xc069f307	-3.6554582
120	0xc0824fe5	-4.0722528
121	0x3e761aa2	0.24033597
122	0xbe6c66b4	-0.23086053
123	0xc07e080f	-3.9692419
124	0xbfcdcfc9	-1.6079036
125	0xc07d89fe	-3.9615474
126	0xc083e687	-4.1218905
127	0xc07df050	-3.9677925
128	0xc06533ea	-3.5812936
129	0xc07256cc	-3.7865477
130	0xbf5e9360	-0.86943626
131	0xbfb13be4	-1.3846402
132	0xc06f0662	-3.7347646
133	0xbd7294aa	-0.05922381
134	0xbfa475ba	-1.2848427
135	0x3e752d2a	0.2394301
136	0x40043fb2	2.0663877
137	0xc05e6ac2	-3.475266
138	0xc0107eaf	-2.2577322
139	0xc0745f76	-3.8183265
140	0xc06b5c3b	-3.6775043
141	0xbfdac8b4	-1.70925
142	0xc07ab9d0	-3.917591
143	0xc08bf319	-4.373425
144	0xc0808167	-4.015796
145	0xc06bb662	-3.6830068
146	0xbfa4dc1c	-1.2879672
147	0x401cd12b	2.4502666
148	0xbe02c331	-0.12769772
149	0xc071daaf	-3.7789724
150	0xc066c386	-3.6056838
151	0xc019f849	-2.4057791
152	0x4033f870	2.8120384
153	0xc07cd850	-3.9507027
154	0xbfaeafe4	-1.3647428
155	0xbf114bb4	-0.5675614
156	0xbe35e792	-0.17764118
157	0xc077fa80	-3.8746643
158	0x3e42c9ea	0.19022337
159	0xbe5b89c1	-0.21439268
160	0xbfbb45c1	-1.4630662
161	0xbfba847a	-1.4571679
162	0xc0812bf1	-4.036614
163	0xc081f4db	-4.0611396
164	0xbe501998	-0.20322263
165	0xbfe05330	-1.7525387
166	0xbfcdb7e9	-1.607175
167	0xc0662289	-3.5958579
168	0xbe4d3a49	-0.20041765
169	0xbfbc47ed	-1.470945
170	0xc068dad8	-3.6383572
171	0xc06fd4e4	-3.7473688
172	0x3fbf25e2	1.4933436
173	0xc06264e8	-3.5374088
174	0xc07a6cbf	-3.9128873
175	0xbfa28d5a	-1.2699387
176	0xbf7d49f9	-0.98941
177	0xc06237b4	-3.5346498
178	0xc0671882	-3.6108708
179	0xc0830f46	-4.0956144
180	0x40308778	2.7582684
181	0xc07398d8	-3.8062038
182	0xbe20d50a	-0.15706268
183	0xc06a6464	-3.6623774
184	0xbe60e9c5	-0.21964176
185	0x3bf64150	0.00751511
186	0xbfb8a7ce	-1.442621
187	0xbfc152b1	-1.510336
188	0xbfd6592e	-1.6745965
189	0xc07e2ade	-3.9713664
190	0xbda27005	-0.07931522
191	0xc07d4a48	-3.9576588
192	0xc082bdbb	-4.0856605
193	0xbfcd5968	-1.604291
194	0xc06802b7	-3.6251657
195	0x3a43b100	0.0007465035
196	0xc0826875	-4.075251
197	0xbfad1bc0	-1.3524094
198	0xbc6083a0	-0.013703257
199	0xc0685c40	-3.6306305
200	0x3e3518b8	0.1768521
201	0xbdaec813	-0.08534255
202	0xbff617d6	-1.9226024
203	0x3e66505f	0.22491597
204	0x3e3db39b	0.18525545
205	0xc080c74e	-4.024329
206	0xc0720719	-3.7816832
207	0xc06b2408	-3.6740742
208	0xc064b8cd	-3.5737793
209	0xbfcda45d	-1.6065785
210	0xc07dd305	-3.9660046
211	0xbd8e4366	-0.06946449
212	0xc0641451	-3.56374
213	0xc05fdec6	-3.497972
214	0x3e48892e	0.1958358
215	0xbff70b03	-1.9300236
216	0xc0693d52	-3.6443677
217	0xbf212f43	-0.6296274
218	0xc066eada	-3.6080842
219	0xbff24649	-1.8927699
220	0xc000750d	-2.0071442
221	0xbe591066	-0.21197662
222	0xbfe110ea	-1.7583287
223	0x3e4c1a3e	0.19931886
224	0xc063fb9e	-3.5622325
225	0xbe774ef3	-0.2415121
226	0xbe14211c	-0.14465755
227	0x3e69e79d	0.2284226
228	0xc06b28fb	-3.6743762
229	0xc071edd0	-3.78014
230	0xbfa96876	-1.3235004
231	0xbfc1188e	-1.5085618
232	0xbe660ff3	-0.22467022
233	0xc06ec0ea	-3.7305245
234	0xc070f0ff	-3.7647092
235	0xbfbb899c	-1.465137
236	0xc0695df4	-3.6463594
237	0xbfcc9a83	-1.5984653
238	0xbfc854db	-1.5650896
239	0x3e77655a	0.24159756
240	0xc061b390	-3.5265846
241	0x3daafc6e	0.083489284
242	0xc05e0717	-3.4691827
243	0xc07eed02	-3.9832158
244	0xbfe5bfb0	-1.7949123
245	0xbfd86958	-1.6907148
246	0xbf1bba3a	-0.60831034
247	0xc062b5b3	-3.54234
248	0xc076d5d5	-3.8568013
249	0x3e4bf24c	0.19916648
250	0x3e76913c	0.2407884
251	0xc0649566	-3.5716186
252	0xbfb6376e	-1.4235666
253	0xc06d0c8b	-3.7038906
254	0xc0948039	-4.640652
255	0xc06fa147	-3.7442186

_layers.2.bias f4 [32]
0	0xc04ef7c2	-3.233872
1	0xc04d458f	-3.2073705
2	0xc04d1b1d	-3.2047799
3	0xc00ae625	-2.170297
4	0xc04dd0ba	-3.2158647
5	0xc00b552e	-2.177074
6	0xc04cebd0	-3.2018929
7	0xc00ae5b0	-2.170269
8	0xc00aa27a	-2.1661668
9	0xc07df180	-3.967865
10	0xc04dab8e	-3.2135959
11	0xc04cf6b3	-3.2025573
12	0xc00a51d2	-2.161244
13	0xc007b4ab	-2.120402
14	0xc00a03a9	-2.1564734
15	0xc04dacf3	-3.213681
16	0xc0091e33	-2.1424682
17	0xc00a57cc	-2.1616087
18	0xc04d5ca3	-3.208779
19	0xc04da872	-3.213406
20	0xc00a0257	-2.1563928
21	0xc04d3b40	-3.2067413
22	0xc04e3d58	-3.2224941
23	0xc04d515d	-3.208091
24	0x40449adb	3.0719516
25	0xc050eef4	-3.2645845
26	0xc04d20b7	-3.2051218
27	0xc00a62a1	-2.1622698
28	0xc0094d7c	-2.1453543
29	0xc089062a	-4.2820024
30	0xc04ceab9	-3.2018263
31	0xc04d4b82	-3.2077336

_layers.3.weight f4 [1, 32]
0	0xbf0b85ba	-0.54500926
1	0x3deb201c	0.11480734
2	0xbecc7384	-0.3993188
3	0xc0009868	-2.0093021
4	0xbf00da2b	-0.503329
5	0xc0024a33	-2.0357788
6	0xbcd93da0	-0.026518643
7	0xbffe341e	-1.9859655
8	0xbff763ad	-1.9327294
9	0xbd49d630	-0.04927653
10	0x3c4eda20	0.012625247
11	0xbee49574	-0.44645274
12	0xbff42058	-1.907237
13	0xbfbac194	-1.4590325
14	0xbff6699b	-1.9250978
15	0xbe937f06	-0.2880785
16	0xbfe2bb27	-1.7713364
17	0xbff3f698	-1.905963
18	0xbef2a5d5	-0.47392145
19	0xbec96871	-0.39337495
20	0xbff2bd48	-1.8964014
21	0xbec84236	-0.39113015
22	0xbeb09fa9	-0.3449681
23	0xbf0017ab	-0.50036114
24	0xc05856f9	-3.3803084
25	0xbeb46676	-0.35234421
26	0xbf0e51e7	-0.55593723
27	0xbff7613e	-1.9326551
28	0xbfe4b2bb	-1.7867044
29	0x3f7c872f	0.98643774
30	0xbe3ab62c	-0.18233556
31	0xbe5a82e0	-0.21338987
