corai/tests/examples_of_tasks/example_hyper_param_sin_estim_models/model_309.pth (torch, 36175 bytes, 7 tensors)

_layers.0.weight f4 [32, 1]
000000 d5 47 93 bf 86 78 9b bf 32 3f fd 3e ba 87 52 3f
       -1.1506296 -1.2146156 0.49462277 0.8223835
000010 e2 66 88 3f b1 28 c1 be 80 34 8f bf fc 15 97 3f
       1.0656397 -0.37726358 -1.1187897 1.1803584
000020 b8 e1 93 bd cf 52 51 3f 55 12 5d 3f 92 13 0f 3f
       -0.07220787 0.8176698 0.863561 0.55889237
000030 92 47 f3 3e 84 48 b5 3f 1b d6 36 bf d3 46 c0 bf
       0.4751554 1.4162755 -0.7142045 -1.5021614
000040 12 2e 3b bf 2a 7a 82 be 8a e1 62 3f 66 14 42 bf
       -0.7311717 -0.2548383 0.88625395 -0.75812376
000050 77 ed 9a 3e 51 a7 bd be d1 ba 57 3f 18 96 4e bf
       0.30259296 -0.37041715 0.84269434 -0.80697775
000060 8b 0b 3c bf 59 04 be bd e3 42 a5 3e 0d 7e 8f 3e
       -0.73455113 -0.09278173 0.32277593 0.28025857
000070 a0 4e e6 3e ae 2b f3 be 43 3c 9a bf 90 c3 48 3f
       0.4498186 -0.47494262 -1.204964 0.78423405

_layers.0.bias f4 [32]
000000 2c f9 08 be cd a0 f6 be e7 2e c7 3e ed d8 3f 3e
       -0.13376302 -0.48169556 0.3890297 0.18735094
000010 2d 9d b1 3e 6b f5 27 bd fd a3 b4 be 60 10 69 3f
       0.34690228 -0.041005533 -0.35281363 0.9104061
000020 e8 e5 10 be 58 9d ce 3d a3 6c 62 3f bb bb 99 3d
       -0.14150202 0.10088605 0.88447016 0.0750651
000030 ff bb ba 3e 8f 04 c8 3e 85 81 a6 be c1 c8 71 be
       0.36471555 0.39065978 -0.3252069 -0.23611738
000040 83 40 83 be ff b0 a8 bd c6 2e 52 3e cd 51 e9 bd
       -0.25635156 -0.08236884 0.20525655 -0.113925554
000050 dc 19 c8 3d f2 30 15 be 52 d1 24 3f 53 57 46 bf
       0.09770557 -0.14569452 0.643819 -0.77476996
000060 94 48 97 3b 72 66 ab 3e 54 a5 19 3f 39 9c 0c 3f
       0.0046168063 0.33476597 0.60017896 0.54925877
000070 db b3 6b 3e 66 2c 45 bd 71 9f fb be cf 21 c7 3e
       0.23017828 -0.048138045 -0.49145082 0.3889298

_layers.1.weight f4 [128, 32]
000000 cc ce 6c 3f 81 8d 15 3f 31 bb e8 3e 04 46 67 bf
       0.92503047 0.5841904 0.45455316 -0.9034121
000010 b2 bc 23 bf f8 95 8e bd 07 a7 71 3f 65 1a 61 bf
       -0.639598 -0.06962198 0.9439549 -0.879309
000020 e9 75 6c 3f c9 1b 00 bf 6d d9 2d bf dc ae f6 be
       0.92367417 -0.50042397 -0.6790989 -0.48180282
000030 8a 27 e3 bd 76 9e 61 bf fc d7 92 3e ba 0b 68 3f
       -0.11091526 -0.8813242 0.28680408 0.90642893
000040 fd 18 15 3f 94 17 0f bf 4c 94 5c bf 35 28 30 3f
       0.58241254 -0.5589535 -0.86163783 0.6881135
000050 b6 37 7a bf cf f5 ec 3e 0b 6c 2b bf f0 fc b0 3e
       -0.9774126 0.46281287 -0.66961735 0.34567976
000060 d6 f1 4d 3f a2 a8 fa bc 7e df ba 3c 40 4d 06 be
       0.8044714 -0.030597989 0.022811648 -0.13115406
000070 70 33 1b 3d 6a f7 0b 3f 0d 9b 5e 3f e9 2d da be
       0.03789085 0.546744 0.8695534 -0.42613152
000080 7d 14 12 3f b4 da 3a 3f 49 c9 6a bf 7c ba b6 be
       0.5706251 0.72989964 -0.91713387 -0.3568915
000090 8b 90 2b be e0 14 3e 3f f4 a1 21 3e f7 54 13 be
       -0.16754358 0.742506 0.15784436 -0.1438788
0000a0 c8 2d e2 3c ac 75 bf be 40 a8 d5 be ec 22 f5 be
       0.02760972 -0.37394464 -0.41729927 -0.47878206
0000b0 3f a1 2e bf 9c b6 ec be f3 2a a2 3e d9 43 0f 3f
       -0.6821479 -0.4623307 0.31673393 0.559629
0000c0 88 65 10 3f 7f bb a5 be ab a3 20 bf dc d4 d9 3e
       0.56404924 -0.3236961 -0.6274974 0.4254521
0000d0 84 d1 e2 be 99 81 87 bd 68 8e 84 be 01 05 58 3e
       -0.44300473 -0.06616516 -0.25889897 0.21095659
0000e0 5b 0b 39 3f 07 b3 15 3f b1 ae 62 3f d8 07 eb 3d
       0.7228295 0.584763 0.8854781 0.114761055
0000f0 31 af 3a bf 85 b4 73 3f 7c 71 0d 3f 60 23 cd be
       -0.7292357 0.95197326 0.5525129 -0.4006605
000100 b0 5a 48 bf a9 1e 6a be ca 2d 50 be d3 19 47 3f
       -0.7826338 -0.22863258 -0.20329967 0.7777378
000110 a1 73 2e 3f 1c 91 1d 3e b8 40 71 be 9d 78 a4 3e
       0.68145186 0.15387386 -0.23559844 0.3212327
000120 a9 cb 11 bf fd a9 04 3f 7b cd 2c 3f d6 ac 10 3f
       -0.56951386 0.5182188 0.6750104 0.56513727
000130 7d 8a fb bd d2 b5 7f 3e 7e 33 a1 be 3c 66 e1 be
       -0.12282274 0.24971703 -0.31484598 -0.4402331
000140 19 a9 47 bf a4 ee 18 3f 7f c2 22 3f c5 57 f9 be
       -0.779924 0.59739137 0.6357803 -0.48699775
000150 b4 ce 2e 3f 8d 7c 3c bf d9 cf c2 3e 50 a6 23 bf
       0.68284154 -0.7362755 0.380492 -0.6392565
000160 21 f2 84 be 0e e4 3c 3f 46 0a 5a 3f ea 4e 25 3f
       -0.2596598 0.73785484 0.85171926 0.6457354
000170 a4 42 73 be 38 82 37 bf a3 2c f5 be db ab 41 3e
       -0.2375589 -0.71683073 -0.47885618 0.18913214
000180 f0 ef 31 3f 86 14 2d 3f 7b b1 16 3f 5c 7f 17 be
       0.6950674 0.6760944 0.58864564 -0.14794677
000190 ee 4d 03 bf 58 59 6a be cc a5 46 3e 63 be e2 be
       -0.51290786 -0.22885644 0.19399184 -0.4428588
0001a0 e5 38 ea 3e 3b bb 09 bf 31 3d 98 be da f4 e8 be
       0.45746532 -0.53801316 -0.29734185 -0.45499307
0001b0 96 a7 ba 3e 96 02 42 be e4 b6 0e be 87 ff ae 3e
       0.36455983 -0.18946299 -0.13936955 0.34179327
0001c0 f6 7d f3 3e b7 41 33 bf af 44 11 bf ca 01 c7 3e
       0.47557038 -0.7002215 -0.5674543 0.38868552
0001d0 89 3a 43 bf 70 d0 9f 3e 40 c8 b9 be 6b 3a 0f 3f
       -0.7626119 0.31213713 -0.3628559 0.55948514
0001e0 42 15 0d 3f 00 14 5c bf 21 9f 46 bf e5 a0 e8 be
       0.5511056 -0.8596802 -0.7758656 -0.45435253
0001f0 40 be 2e 3d ca 42 2e 3e 10 72 85 3e 82 30 34 bf
       0.042661905 0.17017666 0.26063585 -0.7038652
000200 53 e8 be 3e 58 9d 4e 3f dc 76 46 3f 09 81 ea be
       0.37286624 0.8070884 0.77525115 -0.4580157
000210 e8 79 54 bf 42 d6 c7 be 3c 96 57 3f 1c 39 6a bf
       -0.82998514 -0.39030653 0.84213614 -0.9149339
000220 f9 6b 02 3f 9c c3 e7 be e6 f5 46 bf 73 91 d9 be
       0.50946003 -0.45266426 -0.7771896 -0.4249378
000230 71 f0 11 3f f5 fa ac be 05 c8 27 3f 5f 2d 2f 3f
       0.5700751 -0.33785215 0.6553958 0.68428606
000240 35 ab 98 3e 1b 16 08 bf ba e2 9f be 62 2a 47 3f
       0.2981812 -0.5315873 -0.31227666 0.77799046
000250 3b 89 0b bf b3 e5 22 3f f8 90 9f be 07 82 0a 3f
       -0.5450627 0.63631743 -0.3116529 0.54104656
000260 d1 d6 de 3e 1a 1b 21 bf 6b 55 2c bf a7 a6 36 bf
       0.43523267 -0.6293198 -0.6731784 -0.7134804
000270 a6 5b 00 3e 8e 85 93 3e eb 20 5c 3f b7 b8 ba be
       0.12534961 0.28812832 0.8598773 -0.3646905
000280 1e 58 0d 3f 69 7d 9e 3e ec c5 46 be 28 a1 46 be
       0.5521258 0.30955055 -0.19411439 -0.19397414
000290 75 4c 46 bf 53 8c d3 3e 41 9f be 3e 71 d5 36 bf
       -0.77460414 0.41317996 0.37230876 -0.71419436
0002a0 20 7c e1 3e 52 47 37 bf f8 0f 1e bf 48 0a bf be
       0.44040012 -0.715932 -0.61743116 -0.3731253
0002b0 6e 71 f1 be 66 f4 cb be ab 25 c7 3e 07 39 65 3e
       -0.47156852 -0.398349 0.38895926 0.22385035
0002c0 c6 3b f6 3e 76 52 16 bf bf 9f b2 be c9 8c a0 3e
       0.4809248 -0.58719575 -0.34887502 0.3135741
0002d0 0f 16 28 bf 78 94 a3 3e 06 37 1f bf e9 c6 8b 3e
       -0.6565866 0.3194921 -0.62193334 0.27300194
0002e0 93 ae 03 3f 53 70 95 3e 61 a4 28 bf 32 ce d3 be
       0.51438254 0.2918726 -0.6587582 -0.41368252
0002f0 14 f2 c8 ba 00 56 fa 3e 47 dd 54 3e ac c5 e4 be
       -0.0015330934 0.48893738 0.20787536 -0.44682062
000300 9f 24 47 3f ec b4 e3 3e 23 d4 81 3e 06 9e 8b bf
       0.77790254 0.4447397 0.2535716 -1.09076
000310 fa ed 43 bf 46 0d 97 3e bc 91 cb 3e 2d 9f 62 bf
       -0.76535 0.29502314 0.39759624 -0.8852413
000320 e7 f4 fe 3e 4a ac 92 bf e9 f6 0b bf 8f b8 38 bf
       0.4979622 -1.1458828 -0.5467363 -0.72156614
000330 62 80 8b 3e c7 64 3c bf 50 3c e8 3e 37 f7 6b 3f
       0.27246386 -0.73591274 0.45358515 0.92174095
000340 06 69 40 3f 6c d1 1e bf dd 4d 30 bf 60 5e 44 3f
       0.75160253 -0.620383 -0.6886881 0.76706505
000350 93 9e 47 bf 76 65 93 3e 2b f0 ab be 1b 05 0b 3f
       -0.7797634 0.28788346 -0.3358167 0.54304665
000360 60 20 1b 3f 06 3d be 3e af 46 8b 3e 4e 90 b5 3d
       0.60596275 0.37155932 0.27202365 0.088654146
000370 cf e2 8b be 47 c6 3f 3f 40 74 7c 3f c5 65 1f bf
       -0.2732148 0.7491192 0.98614883 -0.62264663
000380 8a 3f 13 bf 3d c2 26 bf bc 4a 13 bf ae 83 3f 3f
       -0.5751883 -0.65140134 -0.5753591 0.748103
000390 c7 8b bf 3e d2 1e a9 3e cf ca 06 bf 53 e8 53 3f
       0.3741133 0.33031327 -0.5265321 0.82776374
0003a0 86 e2 14 bf eb a1 d8 3e 2e b4 39 3f f4 90 36 3f
       -0.5815815 0.42311034 0.7254056 0.7131493
0003b0 30 5f 22 be 28 2d a4 3e cc fe 34 bf 8f 00 ec be
       -0.15856624 0.320657 -0.7070129 -0.46094176
0003c0 ff 14 61 bf d2 9a c2 3e dc 51 cb 3e ab b2 83 be
       -0.8792266 0.38008744 0.3971089 -0.2572225
0003d0 b1 24 a5 3e da 13 33 bf 8c 56 1a 3f b3 c9 a9 be
       0.32254556 -0.69952166 0.6028831 -0.33161697
0003e0 fd 32 46 bf 5e 70 11 3f 29 fe 12 3f 54 e8 47 3e
       -0.7742155 0.56812084 0.5741907 0.1952222
0003f0 42 d4 18 be 0a de 2f bf 48 21 45 bf 9c 89 83 3e
       -0.1492472 -0.6869818 -0.7700391 0.25690925

_layers.1.bias f4 [128]
000000 42 28 06 bf a6 c1 38 bf b6 c6 d9 3e df 9e 95 be
       -0.5240518 -0.72170484 0.42534417 -0.29222772
000010 ff c6 15 bf f5 03 02 bf 88 3d f2 be 76 bf 19 3f
       -0.5850677 -0.5078729 -0.4731257 0.6005777
000020 c9 ef 26 bf a1 1f ba 3e a5 ac 2a bf 4d 11 ec be
       -0.65209633 0.36352256 -0.66669685 -0.4610695
000030 a1 0d 18 bf cc d7 0f bf 7a a1 01 bf 03 e4 26 3f
       -0.59395796 -0.56188655 -0.5063702 0.6519167
000040 22 9c 10 bf 82 31 0a bf 17 36 df 3e e5 95 17 3f
       -0.5648824 -0.5398179 0.43595955 0.59213096
000050 68 83 0e 3f 2a cd f5 be 22 9a 03 3f aa 1f fd 3e
       0.5566926 -0.4800809 0.51407063 0.4943822
000060 ab c4 00 3f 84 2c 13 bf 53 28 11 bf d4 b2 33 3f
       0.5030009 -0.574898 -0.56702155 0.70194745
000070 7e 75 37 bf dc 36 f5 3e 9d 22 14 3f 5e a5 9f 3e
       -0.71663654 0.47893417 0.57865316 0.31180853
000080 da 3c 26 bf 5b 23 16 3f e1 f1 06 3f 84 06 f3 be
       -0.649366 0.586477 0.5271283 -0.4746591
000090 41 a0 ba 3e 26 a9 ec be 79 7e 06 3f 85 ed ee 3d
       0.3645039 -0.462228 0.5253673 0.11666397
0000a0 a1 0d 97 be 98 06 01 bf c8 54 f5 be ce 88 db 3e
       -0.29502586 -0.50400686 -0.47916245 0.4287781
0000b0 5e 63 d4 3e 6c 66 0e 3f ec 3b cf be af 67 1f 3f
       0.4148206 0.55625033 -0.40475404 0.62267584
0000c0 96 70 fc 3e a2 7b db 3e 22 ad f5 3e 0f 7e 7c 3e
       0.49304646 0.42867762 0.47983652 0.24657463
0000d0 df 51 16 3f f7 c1 17 3f 88 cc 13 bf e6 1a 0f 3f
       0.58718675 0.5928034 -0.57733965 0.5590042
0000e0 8c ae 0e 3f b6 24 d6 3e eb 86 f0 be 5b ed 62 3e
       0.5573509 0.41824883 -0.46977934 0.22160856
0000f0 1c 0b 0b bf 61 b6 22 bf 06 c3 38 3d 98 e5 52 bf
       -0.54313827 -0.6355954 0.045107864 -0.8238158
000100 29 38 27 bf e8 d6 1a 3f 00 46 f1 be dd c3 5a be
       -0.6532007 0.6048417 -0.47123718 -0.21363778
000110 1c e8 d7 3e 4c 09 12 bf 15 82 f0 be 93 ee 0f 3f
       0.42169273 -0.57045436 -0.46974245 0.5622341
000120 87 ad 08 3f 6b 56 06 bf 80 50 d9 be c0 dd 0b bf
       0.5338978 -0.52475613 -0.4244423 -0.5463524
000130 60 df 21 3f de f5 06 bf 81 d3 44 be 70 09 7b bd
       0.6323147 -0.52718914 -0.19221307 -0.061288297
000140 14 a8 22 bf 6d 4e a2 be 12 3f 09 bf 5a 3c b7 3d
       -0.63537717 -0.3170046 -0.5361186 0.08947058
000150 40 b5 1d bf 6d d5 c5 3e 7b f5 9a 3d 0a 8e 18 3f
       -0.6160469 0.38639393 0.07566353 0.59591734
000160 a1 1d 0d bf 0c cf a8 bd 1b b5 1a 3f d4 f9 eb be
       -0.55123335 -0.08242616 0.60432595 -0.4608904
000170 d5 0f 1a 3f b5 45 12 3f 66 5b 16 bf 94 61 f4 3e
       0.6018041 0.57137614 -0.5873321 0.47730696
000180 9b 07 90 be 90 6f 28 bf a0 c1 05 bf d4 fd 2b bf
       -0.28130803 -0.6579523 -0.52248573 -0.67184186
000190 86 97 19 bf ac 9e 95 be 92 4f 18 bf d4 67 0a bf
       -0.5999683 -0.2922262 -0.59496415 -0.5406468
0001a0 05 15 e3 3e 68 f3 ab 3e 03 5f 91 3e e7 89 1b bf
       0.44351974 0.33584142 0.283928 -0.607573
0001b0 37 6d 07 3f 77 7f fb 3e de 75 fa 3e de 3c 10 bf
       0.52901024 0.49120685 0.4891805 -0.56342876
0001c0 2b a5 01 3f ec 4f 19 3f 5e 4a 02 3f d1 ab 79 3e
       0.5064265 0.59887576 0.50894725 0.24381949
0001d0 f2 79 d2 3e 88 ac 57 3e 3d cd 1e 3f 83 13 4b 3f
       0.41108662 0.21061909 0.6203192 0.7932665
0001e0 f7 45 f7 be ba 4e db 3e ce 8f 6a 3e 7b 88 d8 3e
       -0.48295566 0.428335 0.2290642 0.42291626
0001f0 0e 20 f3 3e bb 47 4f 3e 01 55 39 be e9 8f f0 be
       0.47485393 0.20242207 -0.18098833 -0.46984795

_layers.2.weight f4 [32, 128]
000000 26 f4 85 3e ec 29 85 3e 85 8b 41 3f 95 68 18 bf
       0.26162833 0.26008546 0.75603515 -0.5953458
000010 02 49 c0 3e 7a 21 4b 3f a6 54 19 3f 8c 89 d6 be
       0.375557 0.79347956 0.5989479 -0.41901815
000020 5a 62 46 bf 5e 52 2c 3f 84 9b 1d bf a3 b2 9c 3e
       -0.7749382 0.6731318 -0.61565423 0.3060504
000030 e4 23 a8 3e 8b 27 69 3d 70 a2 1e 3f 41 d9 20 3f
       0.32839882 0.056922477 0.6196661 0.62831503
000040 18 45 2c bf 55 79 4e 3f db e1 ec be 88 ee 50 3f
       -0.6729293 0.8065389 -0.46266064 0.8161397
000050 45 6c 00 bf bf 79 50 3e 9e e2 84 3e c4 5a 40 bf
       -0.50165206 0.20358942 0.25954145 -0.751385
000060 dd c5 f8 3e eb 64 0c bf 42 eb 87 3e 5a ee 18 3f
       0.48588458 -0.5484149 0.26546675 0.59738696
000070 e7 68 49 bf 47 d8 5a 3f 1e ab 44 bf 14 bd ce be
       -0.78675693 0.85486263 -0.76823604 -0.4037863
000080 09 a6 09 bf 74 de 7f 3f 2b 2b 36 3f 09 24 bf 3e
       -0.53768975 0.9994881 0.7115962 0.3733218
000090 ae 19 2c bf 37 0c 3d 3e de 87 15 bf 31 94 cb be
       -0.67226684 0.18461691 -0.5841044 -0.397615
0000a0 6f f1 10 3f 2c f9 48 be a0 00 43 bf c8 90 93 3e
       0.566184 -0.19626302 -0.7617283 0.28821397
0000b0 27 82 f1 3e 94 93 ad 3d a4 a5 c2 3e 5a a2 60 3f
       0.4716961 0.08475414 0.38017 0.8774773
0000c0 fe 1b 0f bf 7b ef e5 3e 2b 3b 9f 3e 37 95 11 3f
       -0.5590209 0.44909272 0.3109983 0.5686831
0000d0 88 b6 3b 3f 96 e1 59 3f 73 57 26 bf 5e 51 40 3f
       0.73325396 0.8510984 -0.64977187 0.75124156
0000e0 1e f4 c1 be 0e 1d 00 bf 6b 0e 90 be f9 c0 10 be
       -0.3788156 -0.50044334 -0.28136 -0.14136113
0000f0 76 e0 cd 3e ca da 22 3f 2a b9 64 be a0 9c 7a 3c
       0.40210313 0.63615096 -0.2233626 0.015296131
000100 ef 8e 0a 3f 48 aa 24 3f 42 85 8e 3e 9d 3a 45 bd
       0.5412435 0.6432233 0.27836043 -0.0481516
000110 60 d0 91 3e bf dd 8a 3e 60 9b 22 bc 66 85 4d 3f
       0.2847929 0.27122304 -0.00992474 0.80281675
000120 8a 76 42 3f cd c0 b8 3d 95 84 1c bf b0 d9 15 bf
       0.75962126 0.09021149 -0.61139804 -0.5853529
000130 1c 0f 88 be 74 ee 86 3e 9a 4e 21 3f 85 0d 93 be
       -0.26574028 0.263538 0.6301056 -0.28721252
000140 5d 79 2d bf 86 45 38 3f ce 85 12 3f ba a2 50 bf
       -0.6776331 0.71981084 0.5723542 -0.814983
000150 f9 e5 1a bf 30 03 18 3f b2 dd 18 3f 94 59 5c be
       -0.6050716 0.59379864 0.5971328 -0.21518546
000160 db ed 85 3e 25 4e 22 bf 35 8d 66 be d2 63 f6 be
       0.26158032 -0.6340049 -0.22514804 -0.48123032
000170 51 46 bf be b0 87 21 3f f0 51 50 bf 46 24 58 3f
       -0.37358335 0.6309767 -0.81375027 0.8443035
000180 a6 0f b1 3e 4e 93 da be bc c8 38 3f e7 6b 32 bf
       0.3458225 -0.4269051 0.72181296 -0.69695896
000190 5f eb 0e bf 4c a8 44 3f a3 08 56 bf c6 e0 24 3f
       -0.558279 0.768193 -0.8360693 0.6440548
0001a0 20 1b 97 be 34 29 28 3f 07 33 a5 be df 52 55 bf
       -0.29512882 0.6568787 -0.32265493 -0.83329576
0001b0 66 5a 34 3f cc cf 5c be 71 d6 f2 bd 89 a5 4c 3e
       0.7045044 -0.21563643 -0.11857308 0.19985022
0001c0 f2 85 ce 3e a0 ab 49 be da d3 f7 3e 05 bc a8 3e
       0.40336567 -0.19694376 0.48403817 0.32955948
0001d0 90 0c b7 be 1b fb bc 3e 7a 13 34 3f 0b b4 2b 3f
       -0.35751772 0.36910328 0.7034222 0.670716
0001e0 11 a5 61 3e ae 8d 2f bf 5c 75 84 be 81 5a b5 3e
       0.22035624 -0.6857556 -0.25870788 0.35420612
0001f0 c7 ca 17 bf dc 82 b7 3e d8 f9 3b 3f 5e 7f a8 3e
       -0.5929379 0.35842025 0.73428106 0.32909673
000200 1a 41 83 3f 8a bd 96 3d d8 d7 e3 bd 93 ca 23 3e
       1.0254242 0.073603705 -0.11125153 0.15995245
000210 20 19 6b 3f 0e 47 5f 3f 60 ab 0e 3f 44 d7 81 bf
       0.9183521 0.87217796 0.5573025 -1.0143819
000220 a3 45 20 3f e1 98 23 3e bf 5a 48 be 97 b3 4c 3f
       0.6260626 0.15976287 -0.19565867 0.7996153
000230 10 7c 6a 3f c2 0e 38 3f d3 f8 28 3f 67 36 c0 be
       0.91595554 0.7189752 0.66004676 -0.37541506
000240 c6 d4 7c 3e 0a b9 0b bd b2 60 74 bf 52 54 1e be
       0.24690542 -0.034112014 -0.95460045 -0.15461853
000250 df 33 33 bf 29 85 58 3f 30 22 4e bd 5a 4c 57 bf
       -0.70001024 0.84578186 -0.050325572 -0.8410088
000260 7f 0b 42 bf 0a ac b3 3e fd f5 24 3f d7 b9 d9 bd
       -0.7579879 0.35092193 0.6443785 -0.10631149
000270 10 cd 4e 3e 32 8e 03 bf ce 08 63 bf 34 9e 3b bf
       0.20195413 -0.5138885 -0.8868531 -0.73288274
000280 44 0d eb 3c 5a 93 d2 be c6 84 e4 be 1f 08 03 3f
       0.028692849 -0.41128045 -0.44632548 0.51184267
000290 d3 07 06 bf f3 6e 80 3f c7 f3 58 bf ea 35 d1 3e
       -0.5235569 1.0033859 -0.84746975 0.40861446
0002a0 72 a6 94 3f 8a ae 4f 3f 59 0c 30 3f cf b6 81 be
       1.1613295 0.811257 0.6876884 -0.25334784
0002b0 6a a9 ff be 29 6b f8 be e2 3a 2d 3f e7 a6 07 bf
       -0.4993394 -0.48519257 0.67667973 -0.5298905
0002c0 bd aa 7d bf c1 68 35 3d ae 6d 03 3d 10 ec dc be
       -0.9908865 0.044289354 0.03208702 -0.4314885
0002d0 60 1b 0a bf c9 c6 c7 be 38 cc 11 3f 98 be d4 bd
       -0.5394802 -0.3901885 0.5695224 -0.103879154
0002e0 78 6e 08 bf 0c 6d 52 bf 8e 6b 3f 3e 83 fa 28 bf
       -0.5329356 -0.8219764 0.18693373 -0.6600725
0002f0 57 60 81 3f 47 b2 27 3f 7f ec ff 3d 8f b4 c7 3e
       1.0107526 0.65506405 0.1249628 0.39004943
000300 7b c1 0e 3f 35 41 65 be 18 24 6f 3f ac 54 4b 3f
       0.5576398 -0.22388156 0.9341445 0.79426074
000310 77 c4 30 bf 75 18 12 3f d3 7f 48 3f 97 ff 95 be
       -0.6904978 0.5706857 0.78320044 -0.29296562
000320 89 07 e6 be 8a 6d 4e 3f df 21 4b 3e 1c a9 b1 3c
       -0.44927624 0.80635893 0.1983714 0.021687083
000330 5e c5 6f bf d7 39 1c 3f 68 bc b9 bd 2b 9e e5 3e
       -0.93660533 0.61025757 -0.09069139 0.44847235
000340 15 7d 12 3f ec a9 73 3f 6e 5f 25 3f 85 2d 55 bf
       0.5722211 0.95181155 0.6459874 -0.8327258
000350 2e 29 01 3f 72 42 06 be 6d 88 b0 be 7b dc 32 bf
       0.5045346 -0.13111284 -0.34479085 -0.69867676
000360 6d 91 7c 3f a3 35 1e bf 1b 11 33 bf 61 11 bb 3e
       0.986594 -0.61800593 -0.69947976 0.36536697
000370 c7 eb 21 bf 9a a9 1f be 21 1b dd 3e 90 55 0e bf
       -0.6325039 -0.15592042 0.4318476 -0.5559931
000380 ec 05 82 3f 84 b6 f4 3e 8b 92 60 3f 48 b4 62 bd
       1.0158057 0.47795498 0.87723607 -0.05534771
000390 1f a5 d4 3e d4 fb 56 3f ba fd af bd d0 17 29 3f
       0.41532227 0.8397801 -0.085933164 0.6605196
0003a0 50 04 21 bf 55 47 05 be 97 8f 4f bf b7 cf 55 3e
       -0.62897205 -0.13015492 -0.81078476 0.20880018
0003b0 4a 04 a9 bd d3 55 2c bf 3c 49 55 bf 1b d5 07 3f
       -0.08252771 -0.6731846 -0.8331487 0.5305955
0003c0 c2 2b 09 be 17 1f 4d bf 61 1d 74 3e e0 9b 92 be
       -0.13395599 -0.80125564 0.23839332 -0.28634548
0003d0 77 d7 13 bf 4f 68 37 be e2 89 ea bd a6 88 6b 3d
       -0.5775065 -0.17910884 -0.1145208 0.057503365
0003e0 23 89 46 3f be 6f 76 bf 6a d2 83 bf 90 17 6e bc
       0.77553004 -0.96264255 -1.0298588 -0.014531985
0003f0 c9 f6 49 bf 14 87 af bd fc 24 31 bf 65 96 68 3f
       -0.7889219 -0.08570686 -0.6919706 0.90854484

_layers.2.bias f4 [32]
000000 f4 d9 12 3f b5 51 11 be 58 08 81 3e 46 7f 8c be
       0.5736382 -0.14191325 0.25201678 -0.27440852
000010 60 d0 0e 3f 75 6f 06 bf 2f 70 d9 3e 6e e5 f2 be
       0.55786705 -0.5251382 0.42468402 -0.47440666
000020 fd 1d 91 3c a4 36 18 3f 9d 47 24 bd d7 6d 7f be
       0.017714495 0.59458375 -0.04010736 -0.24944244
000030 66 5c a2 be 62 a0 95 3e 46 25 86 be ce 10 13 3f
       -0.3171112 0.29223925 -0.26200312 0.57447517
000040 89 61 3f 3e 60 00 18 bf bc f3 fd 3c 58 ef 0c 3f
       0.1868955 -0.5937557 0.03100001 0.5505271
000050 cf db 2f bd b8 56 10 3f da 2c 16 3f 2f d0 0e 3f
       -0.042934235 0.5638232 0.5866219 0.5578641
000060 4d 22 9f 3e 93 6e 47 bd ef bb 32 3f 51 56 76 bd
       0.31080857 -0.048689436 0.69818014 -0.06014091
000070 eb 48 4a bd 1d 04 3e 3e c4 59 6a be a8 ce 0c 3f
       -0.049385946 0.18556257 -0.22885805 0.5500283

_layers.3.weight f4 [1, 32]
000000 f8 94 d3 3c c6 d4 81 3e 8a 3f bc 3d ca ff ba be
       0.02582787 0.25357646 0.091918066 -0.36523277
000010 2e 8c 1f be 74 ef 06 bf 6b 97 ba 3e a5 9f 96 3e
       -0.15580818 -0.52709126 0.36443648 0.29418674
000020 7c bd 94 be 41 f2 a6 3e e9 dc d6 3d a2 2c 57 3d
       -0.29050815 0.326067 0.10491354 0.0525328
000030 b3 e7 a8 be 0f 9b 30 3f 89 4c c1 be 4d b4 47 3d
       -0.32989272 0.689866 -0.37753704 0.048755933
000040 4c 65 8f 3d c4 11 57 be 62 2e 0b bd a6 8b 1c 3e
       0.07001743 -0.21002871 -0.03397978 0.15287647
000050 4f 14 d9 be 42 00 11 bd 52 86 88 bc 12 bb 8c 3d
       -0.42398307 -0.035400636 -0.016665611 0.06871618
000060 02 8b d9 3e 8d a0 b2 bc 12 e6 87 3d 90 04 41 be
       0.42488867 -0.021805072 0.06635679 -0.18849397
000070 ab 4a 99 bd 37 4f 2d be b8 62 82 3e e9 3b 8b 3e
       -0.07484945 -0.1692475 0.2546594 0.27194145
