corai/tests/examples_of_tasks/example_hyper_param_sin_estim_models/model_266.pth (torch, 2895 bytes, 7 tensors)

_layers.0.weight f4 [4, 1]
0	0x3fa781a7	1.3086442
1	0x3f73196b	0.9496066
2	0x3e8b30df	0.27185723
3	0xbf5a7ce7	-0.85346836

_layers.0.bias f4 [4]
0	0xbe82dfdf	-0.25561425
1	0xbdf04daf	-0.11733567
2	0xbe1905ab	-0.14943568
3	0xbe0b64f1	-0.13612725

_layers.1.weight f4 [8, 4]
0	0xbed6275e	-0.4182691
1	0x3e3a9aec	0.1822316
2	0x3f372969	0.7154756
3	0x3d916128	0.07098609
4	0x3ee1e7a2	0.44122034
5	0x3f2236c7	0.63364834
6	0xbf41398f	-0.7547845
7	0x3f20bc93	0.6278774
8	0x3f28654e	0.6577958
9	0xbdc8c43c	-0.09803054
10	0x3f1e7333	0.6189453
11	0x3f6a0691	0.9141627
12	0xbee58cbf	-0.44833943
13	0xbe905c86	-0.2819559
14	0xbec42096	-0.3830611
15	0xbf8142f0	-1.0098553
16	0x3e5b4b90	0.21415544
17	0xbf800dc0	-1.0004196
18	0x3ece96c6	0.40349406
19	0xbf44a6b2	-0.76816857
20	0xbde53294	-0.11191288
21	0x3f1aeef0	0.6052084
22	0x3f19ce39	0.60080296
23	0x3f198b20	0.5997791
24	0x3f36e594	0.7144406
25	0xbf16bcfa	-0.58882105
26	0xbe8b41f6	-0.27198762
27	0xbed5658e	-0.41679043
28	0xbe67eced	-0.22648974
29	0x3ddbc1fb	0.10730358
30	0xbf296ea7	-0.6618447
31	0xbe3dd329	-0.18537582

_layers.1.bias f4 [8]
0	0xbde2ccda	-0.110742286
1	0x3d2fa51d	0.042882074
2	0x3a5454c0	0.0008099787
3	0xbccb1f51	-0.024795206
4	0xbe7c9f6f	-0.24670194
5	0xbe453d4e	-0.19261667
6	0xbec66400	-0.3874817
7	0x3ea1ee62	0.31627184

_layers.2.weight f4 [4, 8]
0	0x3dceb586	0.100932166
1	0x3edefdfe	0.43553156
2	0xbf956fe6	-1.1674774
3	0x3e85c87b	0.26129517
4	0x3e9d00b8	0.3066461
5	0x3f2602d6	0.6484808
6	0xbe3cc6d7	-0.18435226
7	0x3f292ee7	0.6608719
8	0x3f2289dc	0.63491607
9	0x3f410f56	0.75414026
10	0xbef50f69	-0.4786332
11	0x3e14e6d8	0.14541185
12	0xbf73f828	-0.9530053
13	0x3dff41fe	0.12463759
14	0xbe99ebdf	-0.30062768
15	0x3ed6e86a	0.41974193
16	0xbf506778	-0.8140788
17	0xbe30d2fe	-0.17267987
18	0x3f9c4b29	1.2210437
19	0x3f040e2c	0.51584125
20	0x3f1c49bf	0.6105003
21	0x3ec25e74	0.37962687
22	0x3f8cdaa6	1.1004226
23	0x3e916e28	0.28404355
24	0x3f3bd702	0.7337495
25	0xbf6206ec	-0.8829181
26	0xbf10e779	-0.566032
27	0xbf3fee8e	-0.7497338
28	0x3e03067f	0.12795447
29	0x3e987a3e	0.29780763
30	0xbe5a99aa	-0.2134768
31	0x3ec3262b	0.38115057

_layers.2.bias f4 [4]
0	0xbd13c733	-0.036078643
1	0x3cbb966f	0.02289888
2	0x3d877603	0.06614306
3	0x3d455451	0.048176114

_layers.3.weight f4 [1, 4]
0	0x3f304be7	0.6886582
1	0x3eda55aa	0.42643481
2	0xbd736a1e	-0.059427373
3	0xbfad3bcf	-1.3533877
