corai/tests/examples_of_tasks/example_hyper_param_sin_estim_models/model_42.pth (torch, 6863 bytes, 7 tensors)

_layers.0.weight f4 [16, 1]
0	0x3f19a7bf	0.60021585
1	0x3f0c7fab	0.54882306
2	0x3ead56f9	0.33855417
3	0x3ed8c77f	0.42339703
4	0xbecf9e6e	-0.4055056
5	0xbedc0e3d	-0.42979613
6	0xbe27598b	-0.16342752
7	0x3f1ec080	0.6201248
8	0x3f1c3f42	0.61034024
9	0x3f4b19b4	0.79336095
10	0xbe7ba671	-0.24575211
11	0xbda68d7e	-0.08132456
12	0xbf3e10ea	-0.7424456
13	0x3f067fac	0.5253856
14	0xbf2b4d5c	-0.66914916
15	0xbea23d80	-0.31687546

_layers.0.bias f4 [16]
0	0xbd87cf7c	-0.066313714
1	0xb9b1b32a	-0.00033893558
2	0xbd41c416	-0.047306143
3	0xbd559f1a	-0.052153684
4	0x3cb639b9	0.022244321
5	0x3d18b1cf	0.037278946
6	0xbc8a7d55	-0.016905466
7	0xbacc1f94	-0.0015573376
8	0xbd88ed3a	-0.066858724
9	0xbd269463	-0.040668856
10	0x3d4709be	0.048593275
11	0xbcd3383c	-0.02578365
12	0x3d574ed6	0.05256542
13	0xbcd4b0db	-0.025963238
14	0xbbabf5e2	-0.0052478174
15	0x3da884f3	0.08228483

_layers.1.weight f4 [32, 16]
0	0x3efe8da1	0.4971743
1	0x3e099a7d	0.13437839
2	0xbe6d19dc	-0.23154396
3	0xbec544b3	-0.38528976
4	0xbed487a2	-0.4150973
5	0x3eee8f49	0.46593693
6	0xbf07ce79	-0.5304943
7	0x3f00a7e6	0.5025619
8	0x3ef768a1	0.48322013
9	0x3d05cf45	0.03266837
10	0xbd8bae9f	-0.06820416
11	0x3ef7c70b	0.48394045
12	0x3e8499ab	0.2589849
13	0x3f10bfa1	0.565424
14	0x3ef39af2	0.4757915
15	0xbed0189b	-0.40643772
16	0x3eae573e	0.34050936
17	0x3e864ffc	0.26232898
18	0xbef0bbb7	-0.47018215
19	0x3e778266	0.24170837
20	0xbe82d8ca	-0.25556022
21	0xbe9f3598	-0.31095576
22	0x3da1b98e	0.0789672
23	0xbdcd16be	-0.10014103
24	0xbe370dd5	-0.1787637
25	0xbecb9df7	-0.39768955
26	0x3ec52f2d	0.38512555
27	0x3f274e6b	0.6535403
28	0xbdeb8c71	-0.115013964
29	0xbeda4beb	-0.42636046
30	0xbc1ee97d	-0.009699223
31	0xbeea9bdb	-0.45822033
32	0xbeee05f0	-0.46488905
33	0xbe247ba0	-0.16062784
34	0x3ec4f507	0.3846819
35	0xbedf143e	-0.4357013
36	0xbdea9ec8	-0.11456066
37	0xbea57bac	-0.32320917
38	0xbf17641e	-0.5913714
39	0xbdce0a95	-0.10060612
40	0xbcba33a0	-0.022729695
41	0xbd950dd8	-0.07278031
42	0x3ed560d3	0.41675434
43	0x3e31b389	0.17353643
44	0x3eb01d20	0.3439722
45	0x3e7d4362	0.24732736
46	0x3d1c8cce	0.03822022
47	0x3e9e5c73	0.30929908
48	0xbeda906a	-0.42688304
49	0x3e6fffc6	0.23437414
50	0x3e71b602	0.23604587
51	0xbe98fe56	-0.29881543
52	0x3cf328ae	0.029682484
53	0xbeca9992	-0.3957029
54	0xbee989c3	-0.45612916
55	0xbd855850	-0.06510985
56	0x3d6543dc	0.05597292
57	0xbe418507	-0.18898402
58	0x3e5f744b	0.21821706
59	0xbec6d2d4	-0.38832724
60	0xbe879089	-0.2647746
61	0x3eb5adb3	0.35484084
62	0xbf03cae7	-0.5148148
63	0x3e07f71c	0.13277858
64	0x3eafcadf	0.34334466
65	0x3ea885c5	0.32914558
66	0x3dba3b57	0.090933494
67	0xbf25bd6d	-0.64742166
68	0x3e40f6be	0.18844125
69	0xbdc6212f	-0.09674298
70	0xbd620a28	-0.055185467
71	0x3eae06b4	0.3398949
72	0xbe9ea752	-0.3098703
73	0xbf07e5ed	-0.53085214
74	0xbeb968b2	-0.3621269
75	0x3ef4a3da	0.4778126
76	0x3e0e1328	0.13874495
77	0x3ef1a474	0.4719578
78	0x3e6c453e	0.23073289
79	0xbee073ce	-0.43838352
80	0x3e0936e6	0.13399848
81	0x3f038930	0.51381207
82	0x3eae5c87	0.34054968
83	0x3e21336d	0.15742274
84	0xbed40567	-0.41410372
85	0xbeab1096	-0.33411092
86	0x3eef8adc	0.4678563
87	0xbed44bb4	-0.41464007
88	0x3dfed8cf	0.12443697
89	0xbdb4c236	-0.08826105
90	0x3e747c6c	0.23875588
91	0x3de579ae	0.11204849
92	0xbedf216e	-0.43580192
93	0xbe7f6dd4	-0.2494424
94	0x3f0755ae	0.5286511
95	0x3dc2f5f3	0.09519567
96	0x3e7be9bb	0.2460088
97	0xbeb0c154	-0.34522498
98	0x3ee0f350	0.43935633
99	0xbe29efb1	-0.16595341
100	0xbe2e0aa1	-0.16996242
101	0x3e23fc40	0.16014194
102	0xbe714d70	-0.23564696
103	0xbe93ded9	-0.28880957
104	0xbe0d423e	-0.137948
105	0xbdbb5de6	-0.09148769
106	0xbeaa2fac	-0.33239496
107	0x3e2f12d6	0.17097029
108	0xbf038ebb	-0.51389664
109	0x3ea0525f	0.31312844
110	0x3f19c947	0.6007275
111	0x3df6e2b4	0.12054959
112	0xbe1d6a83	-0.15372662
113	0xbf1229a0	-0.57094765
114	0x3e68fc39	0.22752465
115	0x3ee5a4cd	0.44852296
116	0x3f0dcfeb	0.5539538
117	0x3daefba8	0.08544093
118	0x3e8b3912	0.2719198
119	0x3f0ab721	0.5418568
120	0x3d98b2fe	0.07456015
121	0xbe959cdc	-0.29221237
122	0xbefc37b5	-0.4926125
123	0x3ea9d3b5	0.33169332
124	0x3e7639a9	0.24045433
125	0x3f008b6d	0.50212747
126	0xbe91ef62	-0.28502947
127	0x3e9c5eff	0.30541226
128	0xbe462613	-0.19350462
129	0xbe2f4029	-0.17114319
130	0x3e945184	0.2896844
131	0xbf1310ef	-0.57447714
132	0x3ef99a79	0.48750666
133	0x3e9cacd7	0.30600616
134	0xbe8e0b52	-0.27743012
135	0x3e953091	0.29138616
136	0xbe0ee1aa	-0.13953272
137	0x3d9afecc	0.0756813
138	0xbdb417ec	-0.08793625
139	0xbf01eba4	-0.50750184
140	0xbd9a6230	-0.07538259
141	0x3e8dfbde	0.27731222
142	0xbd97768e	-0.073956594
143	0xbe6e179f	-0.23251198
144	0xba6b4276	-0.0008974442
145	0x3d955d5e	0.07293199
146	0xbe5e6272	-0.21717241
147	0xbeff41e0	-0.49854946
148	0xbe878c0b	-0.26474032
149	0xbd630a33	-0.05542965
150	0x3e8f19c7	0.27949354
151	0x3efe8e96	0.4971816
152	0xbb2a5210	-0.0025988854
153	0x3e548c54	0.20756656
154	0x3ecd8322	0.4013911
155	0xbe4474d4	-0.19185191
156	0xbe3f50d7	-0.18683182
157	0x3eb9be76	0.36278123
158	0x3ee129ee	0.43977302
159	0x3e45f2e5	0.19330938
160	0xbeecdcd2	-0.46262223
161	0x3ea1ff9f	0.31640336
162	0xbf03c1fc	-0.5146787
163	0x3e8ca880	0.27472305
164	0x3dc8ea8b	0.098103605
165	0x3e567dcb	0.20946424
166	0xbf07217f	-0.52785486
167	0xbe613934	-0.21994478
168	0x3e7af4ed	0.24507494
169	0x3ee736e6	0.45159072
170	0xbe0545d6	-0.13014922
171	0x3f1243c3	0.57134646
172	0xbe029548	-0.12752259
173	0xbebbe9ce	-0.36701816
174	0xbe7dca26	-0.24784145
175	0x3d8692de	0.065709814
176	0xbcda8af5	-0.026677588
177	0x3eb8abda	0.36068612
178	0xbe8ca844	-0.27472126
179	0xbdd1fe74	-0.10253611
180	0xbf23c329	-0.63969666
181	0x3ed4708c	0.41492116
182	0xbddcd953	-0.10783639
183	0xbec5798c	-0.38569295
184	0x3d4cec55	0.05003007
185	0x3da8a819	0.08235187
186	0x3e0d0109	0.13769926
187	0xbd620877	-0.055183854
188	0x3e9358f2	0.28778797
189	0xbe046e5b	-0.12932722
190	0xbe837395	-0.2567412
191	0xbe41c854	-0.18924075
192	0x3c0ae244	0.0084767975
193	0x3ebfef34	0.37487185
194	0xbddf6b65	-0.10909156
195	0x3eba5dda	0.36399728
196	0x3f0cd268	0.55008554
197	0xbe5e0c7b	-0.21684448
198	0x3c339b40	0.010962307
199	0xbec0e2bd	-0.37672988
200	0x3e18391a	0.14865533
201	0xbe9d44e0	-0.3071661
202	0x3e80bf23	0.25145826
203	0x3dbecf0b	0.09316834
204	0xbe92cbc3	-0.28671083
205	0xbefb1446	-0.49038905
206	0xbef43047	-0.47693083
207	0xbe7e8d31	-0.24858548
208	0x3dd10e0d	0.10207758
209	0xbccc4c40	-0.024938703
210	0x3ec7b8a4	0.39008057
211	0xbf1360a8	-0.5756936
212	0x3d180fc9	0.03712443
213	0xbef0debd	-0.47044936
214	0x3d2a2a60	0.04154432
215	0x3e1bfd2a	0.15233293
216	0xbf176adb	-0.59147424
217	0x3ee92e66	0.45543212
218	0xbe0cf6b6	-0.13765988
219	0x3f0e873e	0.55675113
220	0xbd0cd4fe	-0.034382813
221	0x3e8bf83b	0.27337822
222	0x3f195e81	0.59909827
223	0xbe26193a	-0.1622056
224	0xbd58fa4c	-0.052973077
225	0x3ecd4aa9	0.40096024
226	0xbeda63c6	-0.42654246
227	0x3eddeb96	0.433438
228	0xbee84c2e	-0.4537062
229	0x3eec9cde	0.4621343
230	0xbee32984	-0.4436761
231	0xbe199789	-0.14999212
232	0x3f078a49	0.5294538
233	0xbe283345	-0.16425808
234	0x3edfb8e3	0.43695745
235	0x3eb49f4c	0.35277784
236	0x3ee4197f	0.44550702
237	0xbef7240c	-0.4826969
238	0xbdaf4552	-0.08558144
239	0xbe8a964e	-0.27067798
240	0x3dd05ac1	0.1017356
241	0xbefce706	-0.49395007
242	0x3e357c48	0.17723191
243	0xbdaa412d	-0.083132125
244	0xbe5ce895	-0.21573098
245	0xbef38faa	-0.47570544
246	0x3ec5e83d	0.38653746
247	0xbe8341c6	-0.2563612
248	0x3ecc2e64	0.39879143
249	0x3d9cf2c9	0.07663495
250	0x3e815543	0.25260362
251	0xbc4de651	-0.012567119
252	0xbd4c4293	-0.049868178
253	0xbe7ae7d5	-0.245025
254	0xbef25273	-0.4732853
255	0x3edf3a46	0.43599147

_layers.1.bias f4 [32]
0	0xbd5750c9	-0.052567277
1	0xbc45e96c	-0.012079578
2	0x3d6f691c	0.05844985
3	0xbd977960	-0.07396197
4	0xbd558bc7	-0.052135255
5	0xbcfeabec	-0.031087838
6	0xbce0c73a	-0.027438749
7	0xbc6d3c26	-0.014479673
8	0x3b56984d	0.0032744587
9	0xbcfce4ac	-0.030870758
10	0xbc9818ad	-0.018566454
11	0x3d454449	0.048160825
12	0xbd6a5079	-0.05720565
13	0xbd4e7153	-0.050401043
14	0x3d51e40f	0.051242884
15	0xbd1efbb1	-0.03881425
16	0x3c81be18	0.015837714
17	0xbdb1ddc7	-0.08684879
18	0xbd0dc3f8	-0.03461072
19	0xbb59b52a	-0.0033219554
20	0x3d0204ce	0.031742863
21	0x3d4db73d	0.050223578
22	0xbc9637f1	-0.018337222
23	0x3c1a9241	0.009434284
24	0x3c7d152c	0.015446942
25	0x3ccac81c	0.024753623
26	0xbccbde5f	-0.024886308
27	0xbccee37e	-0.025254961
28	0x3d06c6fe	0.032904617
29	0x3d780660	0.060552955
30	0xbc40ec7d	-0.011775133
31	0xbc900614	-0.017581023

_layers.2.weight f4 [16, 32]
0	0xbe9511ce	-0.29115146
1	0xbeef6f11	-0.46764424
2	0x3eebab6b	0.4602922
3	0xbe88069a	-0.26567537
4	0xbd1579a6	-0.036492966
5	0xbeca9a6e	-0.39570946
6	0xbece5ab8	-0.40303588
7	0x3e193040	0.14959812
8	0xbe703396	-0.23457178
9	0x3e18ab27	0.1490904
10	0x3d9c6dd1	0.07638133
11	0xbd0e2d20	-0.034711003
12	0xbd33ff4b	-0.04394464
13	0x3cf7c104	0.030243404
14	0x3e33d995	0.1756347
15	0x3efe6630	0.49687338
16	0x3f0a1d26	0.53950727
17	0xbecae80a	-0.39630157
18	0xbeddcab7	-0.43318722
19	0xbdff4ea5	-0.12466172
20	0xbd3bf15c	-0.045884475
21	0x3e84a0bd	0.25903884
22	0x3f0c6777	0.54845375
23	0x3dad96a9	0.08476002
24	0xbed29857	-0.4113185
25	0xbd620c8e	-0.055187754
26	0x3ee4360f	0.44572493
27	0x3e9a2035	0.30102697
28	0xbeedd424	-0.46450913
29	0xbd305767	-0.043052103
30	0xbf253577	-0.64534706
31	0xbe918b5d	-0.28426638
32	0x3ed54007	0.4165041
33	0xbe8f0355	-0.2793223
34	0x3e9b8eac	0.30382288
35	0xbed5a55e	-0.41727728
36	0x3ee7b167	0.45252535
37	0x3e938c8a	0.2881816
38	0x3ed17ab7	0.40913936
39	0x3e34fd73	0.17674808
40	0x3dcb694a	0.09932192
41	0xbeb09fe6	-0.34496993
42	0xbeafcd5e	-0.3433637
43	0xbeb2534a	-0.3482917
44	0x3ed4443a	0.41458303
45	0xbe4ea205	-0.20178993
46	0x3d997aa7	0.07494097
47	0xbf131670	-0.5745611
48	0x3dac8c75	0.084252276
49	0xbe3cea0f	-0.18448661
50	0xbf02c979	-0.5108867
51	0x3d51c972	0.051217504
52	0xbf0f1a13	-0.5589916
53	0xbd7d24cf	-0.06180268
54	0xbeec34bd	-0.46133986
55	0x3ec42426	0.3830883
56	0xbf032af1	-0.512374
57	0x3d0bcbef	0.034130033
58	0x3e643162	0.22284463
59	0xbf0550a6	-0.52076185
60	0x3ec17bb7	0.377897
61	0x3f09ce83	0.53830737
62	0xbe89859e	-0.26859754
63	0x3de83951	0.11339057
64	0x3e877fea	0.26464778
65	0x3ee3d881	0.44501117
66	0x3ebd7a08	0.37007165
67	0xbecf8fd6	-0.40539426
68	0xbeefb875	-0.46820417
69	0xbede2060	-0.43384075
70	0xbe806aff	-0.25081632
71	0xbd481827	-0.04885116
72	0xbe215ea6	-0.15758762
73	0x3ebe07b7	0.3711526
74	0xbeb392ec	-0.3507303
75	0xbeecd6a4	-0.46257508
76	0xbf03ecb4	-0.51533055
77	0xbe902c56	-0.28158826
78	0x3f103a8d	0.5633934
79	0x3daf0e40	0.0854764
80	0xbe290c86	-0.16508684
81	0xbdb5ff2a	-0.08886559
82	0xbee6d0be	-0.45081133
83	0xbe908fdb	-0.28234753
84	0x3e58b4a8	0.21162665
85	0x3ea12489	0.31473187
86	0x3ee6769d	0.4501237
87	0x3d6db4ea	0.05803386
88	0xbeccca1c	-0.39997947
89	0xbee17c85	-0.44040313
90	0x3f187267	0.59549564
91	0xbf078776	-0.5294107
92	0x3d943fde	0.07238744
93	0xbd8b323e	-0.06796692
94	0x3f197f47	0.59959835
95	0x3ed4ece6	0.4158699
96	0xbdff216a	-0.12457545
97	0xbf0dffdd	-0.5546854
98	0x3d550070	0.05200237
99	0xbec8de3c	-0.3923205
100	0xbdba79b5	-0.09105245
101	0x3e28533a	0.16437998
102	0x3e94f2f4	0.2909161
103	0xbe1e456f	-0.15456174
104	0xbea8071d	-0.32817927
105	0xbf12cb03	-0.5734102
106	0xbf168772	-0.58800423
107	0x3df64cc8	0.120263636
108	0xbed4b65f	-0.41545388
109	0x3b019fad	0.0019779012
110	0xbe7641ed	-0.24048586
111	0xbee5dff7	-0.44897434
112	0x3eb2c5dc	0.3491658
113	0x3ea347a4	0.31890595
114	0x3ec25355	0.37954202
115	0x3f111722	0.5667592
116	0xbee85f61	-0.45385268
117	0xbe9af813	-0.3026739
118	0xbeec1763	-0.46111593
119	0x3eeb09c2	0.45905882
120	0x3e9e8a6a	0.30964977
121	0x3ede1fa7	0.43383524
122	0xbee84b81	-0.45370105
123	0xbec3d0a3	-0.38245115
124	0x3f1aabb2	0.60418236
125	0xbed4e95d	-0.41584292
126	0xbea58de9	-0.3233483
127	0x3e8df51f	0.27726075
128	0xbee02a96	-0.4378249
129	0xbe5f3058	-0.21795785
130	0x3e3a5c03	0.18199162
131	0x3efabcca	0.4897216
132	0xbddb3ede	-0.1070535
133	0xbee6da28	-0.45088315
134	0x3eb40768	0.351619
135	0x3f1bbcdc	0.6083505
136	0xbebf7951	-0.37397245
137	0xbdc8ca0e	-0.09804164
138	0xbee26d5b	-0.44224057
139	0xbe813873	-0.2523838
140	0x3e0a1a5f	0.13486622
141	0x3e87429a	0.26418
142	0x3e918a84	0.28425992
143	0xbf135545	-0.57551986
144	0xbe5e6067	-0.21716462
145	0x3e7d28f2	0.2472265
146	0xbdb7e906	-0.089799926
147	0xbe54599f	-0.20737313
148	0xbeb96090	-0.36206484
149	0x3efd7f54	0.49511206
150	0xbeed3b66	-0.4633438
151	0xbed6e992	-0.41975075
152	0x3eb43171	0.3519397
153	0xbed4a057	-0.4152858
154	0x3e9b7cb4	0.30368578
155	0xbec569cd	-0.38557282
156	0xbd7c1270	-0.06154102
157	0xbe65d825	-0.22445734
158	0x3f0c1743	0.54722995
159	0x3efb138a	0.49038345
160	0xbcbae66f	-0.022814957
161	0x3d15e168	0.036591917
162	0xbe2548c6	-0.16141042
163	0xbeb27f8d	-0.3486294
164	0xbe3b0f10	-0.18267465
165	0x3e1d17b4	0.15341073
166	0xbe1c296e	-0.15250179
167	0x3eba9d1d	0.36447993
168	0x3cc4fff3	0.024047827
169	0x3d844674	0.0645875
170	0xbeb490bd	-0.35266677
171	0x3e3d0b59	0.1846136
172	0xbef0e6b9	-0.47051027
173	0x3df0ffeb	0.117675625
174	0x3e1d597e	0.1536617
175	0x3e01119e	0.12604377
176	0x3efd33f3	0.49453697
177	0x3e05ac70	0.13054061
178	0xbe05b60b	-0.13057725
179	0xbebd3114	-0.36951506
180	0xbeee5427	-0.46548578
181	0x3ea69ade	0.3254003
182	0x3e9dcbe0	0.30819607
183	0xbef02b77	-0.4690816
184	0x3e6a8c09	0.22904982
185	0xbe1c2ae3	-0.15250735
186	0x3f0aa424	0.5415671
187	0xbe1cd6e0	-0.15316343
188	0x3ef74236	0.48292702
189	0x3eb35b1d	0.3503045
190	0x3e6a3a8c	0.22873896
191	0x3ea5f3af	0.32412478
192	0x3df7a3c3	0.12091782
193	0x3e713ce3	0.23558383
194	0xbed9218c	-0.42408407
195	0xbe2f0c56	-0.1709455
196	0xbd0062d1	-0.03134424
197	0x3e6ad0cb	0.2293121
198	0xbe88846c	-0.2666353
199	0x3e5b7fd9	0.21435489
200	0x3eaedb38	0.34151626
201	0x3e9ef5e7	0.31046984
202	0x3e94e27b	0.2907904
203	0xbe037243	-0.12836556
204	0x3eb1fd3b	0.34763512
205	0xbe5f5f6c	-0.21813744
206	0x3ee7d505	0.45279709
207	0xba554322	-0.0008135309
208	0x3d2de3b1	0.04245347
209	0xbf016860	-0.5054989
210	0x3f148ef2	0.5803062
211	0xbd1ed294	-0.03877504
212	0x3efb9390	0.4913602
213	0xbea7bc26	-0.32760733
214	0xbf00ce4d	-0.5031479
215	0xbdf4449c	-0.11927149
216	0xbecb5352	-0.39712006
217	0x3e355c03	0.17710881
218	0x3d6f1166	0.0583662
219	0xbe295f1e	-0.1654019
220	0x3eb32328	0.3498776
221	0x3ea005f2	0.31254536
222	0xbf186e78	-0.5954356
223	0xbf0b2110	-0.54347324
224	0x3e8b41ee	0.27198738
225	0xbea7618b	-0.32691607
226	0x3e3e9a9e	0.1861367
227	0xbe5d10c7	-0.21588431
228	0x3df1ae58	0.118008316
229	0xbec6651d	-0.38749018
230	0xbd8abf2d	-0.06774745
231	0xbe88a02b	-0.26684698
232	0xbea6198c	-0.32441366
233	0xbe70a73a	-0.23501292
234	0x3dfc36a6	0.12315111
235	0x3ea9ed10	0.33188677
236	0x3d5879fb	0.052850705
237	0xbd0f7530	-0.035023868
238	0x3ee3526a	0.44398814
239	0x3ef53977	0.47895405
240	0xbb9f0000	-0.004852295
241	0xbf0861e2	-0.5327436
242	0x3e236927	0.15958081
243	0x3e6c8dc9	0.23100962
244	0xbec685a8	-0.38773847
245	0xbef91bf3	-0.48654136
246	0x3d4fa8e0	0.05069816
247	0x3f0a3aaa	0.53995764
248	0xbee9ceb1	-0.45665506
249	0xbe57dca4	-0.21080261
250	0xbe3af45f	-0.18257283
251	0xbef24f0a	-0.47325927
252	0xbeaf7755	-0.3427073
253	0x3ecbf24e	0.398333
254	0x3eb89e64	0.36058342
255	0xbf025f9b	-0.5092713

_layers.2.bias f4 [16]
0	0x3d4e9df8	0.05044362
1	0xbb3b32c3	-0.0028564192
2	0x3dbea2aa	0.093083695
3	0xbafcb382	-0.0019279572
4	0x3c8120f9	0.015762793
5	0xbc841f12	-0.016128097
6	0xbca34cf7	-0.01993416
7	0xbd4b59c2	-0.049646147
8	0x3cb8156e	0.022471156
9	0xbd4a14b5	-0.049336154
10	0x3cfedd6d	0.031111443
11	0x3b7d760a	0.0038675093
12	0x3cdb3a0a	0.026761074
13	0x3d41ada3	0.047284734
14	0x3cad5861	0.021160306
15	0xbd1e244b	-0.03860883

_layers.3.weight f4 [1, 16]
0	0x3e9b9a1f	0.30391023
1	0xbf2fed6c	-0.6872165
2	0xbd26deb9	-0.04073975
3	0xbdf82966	-0.12117271
4	0xbeb247b4	-0.3482033
5	0x3f5438ac	0.82898974
6	0x3e757f1d	0.23974271
7	0x3ec59e63	0.38597402
8	0xbf0f6b9c	-0.56023574
9	0x3da26d17	0.079309635
10	0x3e351515	0.17683823
11	0x3edc5fb0	0.43041754
12	0xbe7a6524	-0.24452645
13	0xbe01ea73	-0.12687092
14	0xbf36bcf5	-0.71382076
15	0x3f037796	0.5135435
