corai/tests/examples_of_tasks/example_hyper_param_sin_estim_models/model_150.pth (torch, 2767 bytes, 7 tensors)

_layers.0.weight f4 [2, 1]
00000000: d802 bd3a 49f5 88c0
0.0014420403 -4.279942

_layers.0.bias f4 [2]
00000000: 0000 0000 0f2c c0c0
0.0 -6.0053782

_layers.1.weight f4 [4, 2]
00000000: 2df3 ba3a 16e5 bab9 7357 9e3a 3107 813a
00000010: 7c07 44ba 7632 f539 ec19 0bb9 258f b3c0
0.0014263146 -0.00035647367 0.0012080505 0.0009844062 -0.0007477922 0.00046767638 -0.0001326573 -5.6112237

_layers.1.bias f4 [4]
00000000: 0000 0000 0000 0000 0000 0000 122c c0c0
0.0 0.0 0.0 -6.0053797

_layers.2.weight f4 [2, 4]
00000000: cc09 4a3b b4ab af39 4f2d e43a 2608 9cc0
00000010: e0ea 273b a192 ef3a 5cdf 69bb 3847 b6c0
0.0030828593 0.0003350653 0.0017408523 -4.8759947 0.0025622174 0.0018277952 -0.003568611 -5.6961937

_layers.2.bias f4 [2]
00000000: 122c c0c0 0f2c c0c0
-6.0053797 -6.0053782

_layers.3.weight f4 [1, 2]
00000000: b981 98c0 0a28 aec0
-4.7658353 -5.4423876
