corai/tests/examples_of_tasks/example_hyper_param_sin_estim_models/model_119.pth (torch, 36175 bytes, 7 tensors)

_layers.0.weight f4 [32, 1]
00000000: b261 d9be edd0 eebe 8431 ebbe f4e6 ffbe
00000010: 536b 05be 2a94 f9be 6e66 31bd cba8 ebbe
00000020: 164c a83d 8471 01bf 4516 e23e d946 b5bd
00000030: e294 9dbe e391 9fbe add1 8dbe 391d a33e
00000040: 1741 06bf 4278 ba3a 55ac b7be 154a 97be
00000050: 7bfc bcbe 0d2c 01bf a4c1 e0be cdb4 97be
00000060: b1ca 363e a042 07be 92bf 00bf 1e24 1cbe
00000070: d912 01be f5da f2bd 1d06 d0bd 857e ff3c
-0.42457348 -0.46643773 -0.45936215 -0.4998089 -0.13029222 -0.48745853 -0.043310575 -0.46027216
0.08217637 -0.50563836 0.44157615 -0.08851404 -0.3077765 -0.3116599 -0.27699032 0.31858233
-0.5244307 0.0014226513 -0.35873666 -0.29548708 -0.36911377 -0.5045784 -0.43897736 -0.29630128
0.17850758 -0.13209009 -0.50292313 -0.15248153 -0.12604846 -0.11858169 -0.10157416 0.031188259

_layers.0.bias f4 [32]
00000000: 155f 2dbf 8671 00bf 4e89 00bf 3159 00bf
00000010: 7eb5 2bbf 0438 02bf b2f7 28bf 3d89 00bf
00000020: 2fea e8be eb21 04bf 9367 77bf 6bbe 2ebf
00000030: 4c1a a6be 0323 9bbe 404b 2abf b14e 923e
00000040: 1655 07bf 2970 34bf f296 9fbe ed3b a5be
00000050: e6b7 28bf eb21 04bf ca7d e6be abd1 afbd
00000060: 4e6a d8be eaef 32bf e721 04bf b9f7 dfbe
00000070: 2356 29bf 55d4 2abf 6cf2 e0be 179d e9be
-0.6772321 -0.50173223 -0.5020951 -0.50136095 -0.6707381 -0.50866723 -0.66002953 -0.5020941
-0.45491168 -0.51614255 -0.96642417 -0.68259305 -0.32441938 -0.3030015 -0.6652107 0.28575662
-0.52864206 -0.7048364 -0.3116985 -0.32272282 -0.65905607 -0.51614255 -0.45017844 -0.08584913
-0.42268604 -0.6989733 -0.5161423 -0.43743685 -0.6614706 -0.6673024 -0.43934953 -0.45627663

_layers.1.weight f4 [128, 32]
00000000: 09a0 693b df12 00bf f9eb 103f 88e9 b2be
00000010: 0c97 1f3f 88b0 47bc d386 263f 2b84 0e3f
00000020: f8ea 84bc 6487 53bc d0ed 72bf 26db 1c3f
00000030: 4462 0dbf ffa4 54be 7bfc 0f3f 3268 89bd
00000040: e744 3bbb abf0 0f3f 2881 20bf 56c6 00be
00000050: ea74 603b 9312 9c3b c6c7 9abb 75e3 3f3e
00000060: e9e4 3dbe 2d57 2b3f 0da1 9cbb 4ba1 283f
00000070: 7ced 353f e725 363f 5411 203f c71f 023f
00000080: 4fa8 76bf 9258 8abb 5eca 93bb 037a a7b9
00000090: b3ec 44bf 4bc1 b939 0f0b ffbe ac94 48bc
000000a0: 5f21 e6be e88b 66bb 3223 a03b 3d28 efbe
000000b0: dcfe 3ab7 72d1 303b 2779 d1be f2af 8fbb
000000c0: 4878 493c f58e 47bf f60e 64bc 9aa3 5c3c
000000d0: 19a6 30bf b804 04bb 99bd 3cbf b67a 09bb
000000e0: 65ec 58bc 0bc4 2ebf f4d6 4b3c bef4 42bf
000000f0: 4ac6 d5be 1f63 13bf a654 04bf 95fc b7be
00000100: 390b 4c3b 3276 373b 43b7 d23b 3ce0 0e3a
00000110: 7ab5 3fbc 4241 fd3b 8221 63bc 51b7 073b
00000120: 8c3f 07bf 3c7a 90b9 42d0 a7bb d62d 5e3b
00000130: 7aeb ea3b 16ef f5bb 92e4 513b e8ad cfbe
00000140: e6cf dfbe 0f88 49bc e0a7 6e3b 8c4e 613c
00000150: 3669 e0ba 271a 5abc 5a4f 05bf fbe2 2c3c
00000160: 277e 7d3b 14f9 383c fba1 433c 58c0 c1be
00000170: 4cab 4bbb 3bff 2ebc ea0e 2fbf d00f 06bf
00000180: ffb5 e53e 7e1b 10bf a5df 02bf 2dc2 14bf
00000190: b539 c33e e71b ff3e 787a 153f aead 0abf
000001a0: 2c2f 503f 9aa1 00bf 2dd1 493e c1ad 103f
000001b0: ae17 bf3e bf0a c33e c91a 073f 062d e43e
000001c0: de2b c93e fa9b 183f afac e63e 6c2e 9c3e
000001d0: ec0c df3e 57bc 1cbf d1db 213f 927b 5e3e
000001e0: 3dad 6a3e c3d0 103f fe00 0abf 8570 e83e
000001f0: 2923 1d3f 4f4c c13e 2675 333f 82d5 343f
00000200: e986 df3e c712 e43e 8567 04bf 51c2 d2be
00000210: 39c9 2b3f f252 0c3f e843 283f 1ff3 11bf
00000220: 7a4d 493f b601 06bf 4c18 c2be e582 503f
00000230: 97a3 ab3e d23c 7c3e 4c4e 023f 7d3c e3bd
00000240: b77c 063f d31e 1a3f 3b6e 003f 039a 6d3e
00000250: add5 583f f15e 04bf 0453 3b3f 979b 753e
00000260: 3be8 05be 3568 113f e113 19bf 2a88 4f3f
00000270: 3f91 403f e77e 4b3f 81ca 7a3f db9c 7e3f
00000280: 319a 2c3b 6149 5cbc aa98 e639 ae42 de39
00000290: 7c3b 3dbc 2237 633c de28 d0be 3160 273b
000002a0: 94d9 13bf 05b3 6abb 206b 98bb 1dd0 07bf
000002b0: d719 a03b acb4 7e3a c89e 153b be9f ea39
000002c0: ca80 203c 6f4d 24bf 8c3c 57bc ca85 a43a
000002d0: 0ee5 ffbb 8106 9bbb 9324 19bf 865b 0f3c
000002e0: 5c25 f9b9 9f4a 23bf 1b64 2abc 00d2 cdbe
000002f0: a9da ccbb 54af 01bf 31e2 bfbe 37ce 3cbf
00000300: c71e 3abf 03d8 043a 9992 943b 5bbd 3dbc
00000310: 788c 81be ca17 54bc 0046 1dbf 8593 62bc
00000320: 67f5 c3be 15b7 07bf b4d0 83bb fedc a9be
00000330: 094e 60b8 ec60 923b 60e8 36be 5ca8 09bf
00000340: 3e76 07bf 0bb6 3bbf e01b 39bc 4c07 b83a
00000350: dff5 20bf c5d4 09bf 08be 19bf ec58 fc39
00000360: edd8 dbbe 3dce 0fbf 2111 0abf 85cc ecbe
00000370: 3717 82be 35a0 a6be 96b2 f6be 9622 95be
00000380: 97bf c9be 6239 643a 95ff 953b 060f 60bc
00000390: 66ac 23be 56ca dbbb 80a3 3dbf d798 483b
000003a0: 08fd c6be 8866 00bf 2f6e 38bb c4e9 7cbe
000003b0: 96e5 843b 8976 63bc 4afb 91be 0fee 36bf
000003c0: 09e4 15bf b71c debe 6085 b1b9 b474 3c39
000003d0: 7cc4 62be ff71 e5be 8e0d 1abe 6a78 25bb
000003e0: a8f0 00bf 97b9 95be e867 05bf c338 75be
000003f0: 0d95 e7be a8c2 98be 5940 2bbf cb7c 48be
0.0035648367 -0.50028795 0.56610066 -0.34943795 0.62339854 -0.012188084 0.65049475 0.5567042
-0.016225323 -0.012910698 -0.94894123 0.61271894 -0.55228066 -0.20766066 0.5624463 -0.06709327
-0.0028575005 0.56226605 -0.62697077 -0.12575659 0.0034249374 0.0047629564 -0.004723522 0.18739112
-0.18544354 0.66929895 -0.004779941 0.65871114 0.710655 0.71151584 0.6252644 0.5082974
-0.9635057 -0.004221984 -0.004510208 -0.00031943628 -0.76923674 0.00035429964 -0.49813125 -0.012242477
-0.44947335 -0.0035178605 0.004887008 -0.46710387 -1.1145803e-05 0.0026980308 -0.40912744 -0.004384988
0.012296744 -0.7795251 -0.013919583 0.01346674 -0.69003445 -0.0020144414 -0.73726803 -0.0020977682
-0.013239955 -0.6826789 0.012441386 -0.76154697 -0.41752845 -0.5757312 -0.51691663 -0.35934892
0.003113462 0.0027994034 0.006430538 0.00054502836 -0.011700982 0.0077287266 -0.013862969 0.002070863
-0.5283134 -0.00027556892 -0.005121262 0.0033901832 0.0071691843 -0.007505308 0.0032027108 -0.40562367
-0.437133 -0.012300505 0.003641598 0.013751637 -0.0017121199 -0.013311899 -0.52074206 0.010552163
0.003867993 0.011289854 0.011940475 -0.3784206 -0.0031077443 -0.010680969 -0.6838213 -0.5236788
0.44865415 -0.5629195 -0.51122504 -0.5810879 0.38129964 0.49825975 0.5839 -0.54171264
0.8132198 -0.50246584 0.197087 0.5651513 0.37322754 0.38094136 0.52775246 0.445656
0.3929128 0.59613 0.45053622 0.30504167 0.43564546 -0.61224884 0.6322604 0.21726826
0.22917648 0.56568545 -0.53907764 0.45398346 0.61381775 0.3775353 0.7010063 0.7063829
0.43657616 0.44545576 -0.5172046 -0.41163877 0.67103916 0.54814065 0.65728617 -0.570116
0.78633845 -0.5234636 -0.37909162 0.8144973 0.33523247 0.24632576 0.5090072 -0.110955216
0.5253405 0.60203284 0.501682 0.23203282 0.84701043 -0.5170737 0.73173547 0.23985134
-0.1307687 0.5679963 -0.5979596 0.81067145 0.7522163 0.7949051 0.97965246 0.9945809
0.0026337022 -0.013445229 0.00043982762 0.0004239282 -0.011549827 0.013868125 -0.4065618 0.0025539512
-0.5775387 -0.003581227 -0.004651442 -0.5305193 0.004885893 0.0009716253 0.0022830237 0.00044750975
0.009796331 -0.64180654 -0.013136994 0.0012552079 -0.007809288 -0.004731 -0.5982143 0.008749848
-0.00047520816 -0.6378574 -0.010399844 -0.4019928 -0.0062516523 -0.50658154 -0.37477258 -0.7375216
-0.7270321 0.00050675886 0.0045340774 -0.01158079 -0.25302482 -0.012945125 -0.61434937 -0.013829117
-0.38273165 -0.53013736 -0.004022682 -0.33176416 -5.3478438e-05 0.0044671204 -0.17862082 -0.5377252
-0.529148 -0.7332465 -0.01129815 0.001404026 -0.6287517 -0.53840286 -0.6005559 0.00048131438
-0.4293894 -0.5617407 -0.53932387 -0.46249786 -0.25408337 -0.32544103 -0.48183125 -0.2912795
-0.39403984 0.00087060605 0.004577587 -0.013675457 -0.15983734 -0.00670747 -0.74077606 0.0030608678
-0.38864923 -0.5015645 -0.0028141846 -0.2469855 0.004055689 -0.013883241 -0.2851203 -0.71457
-0.5855108 -0.43381283 -0.00033859443 0.00017972552 -0.22145265 -0.44813535 -0.15044233 -0.0025248774
-0.5036721 -0.29243156 -0.52111673 -0.23947434 -0.45230904 -0.2983601 -0.6689506 -0.19578855

_layers.1.bias f4 [128]
00000000: f51a 813f 35b4 2fbf f353 07bf 0e33 2c3f
00000010: 5e00 393f f4e8 0cbf d81c f0be 050c e5be
00000020: d420 04bf f5e8 0cbf 817b 18bf 7d94 793f
00000030: af63 e5be 9301 e2be 7f7b 18bf 707d e1be
00000040: fe4c 44be 7e7b 18bf e721 04bf 079b e6be
00000050: b0df 223f 86e8 0cbf 807b 18bf fc24 f0be
00000060: 7f7b 18bf 8a0e 1f3f 817b 18bf 817b 18bf
00000070: 7f7b 18bf f5b9 ddbe 4d26 183f 7f7b 18bf
00000080: cdce 4f3e c417 e4be 4d24 edbe 0538 02bf
00000090: 817b 18bf 481c 57bf f4e8 0cbf 817b 18bf
000000a0: de2b e0be 827b 18bf f4e8 0cbf f4e8 0cbf
000000b0: 2390 ebbe 817b 18bf 6f21 04bf ffd5 473f
000000c0: 5105 173f 827b 18bf 39a1 493f f5e8 0cbf
000000d0: 1578 e0be ae57 d4be 6243 1c3f 6460 123f
000000e0: c5b4 2a3f 827b 18bf 0638 02bf 70e5 a8be
000000f0: 807b 18bf 1701 203f 2d21 04bf 817b 18bf
00000100: 5a5a 203e 7e7b 18bf 9613 04bf 6292 1cbf
00000110: f5e8 0cbf 0238 02bf eae8 0cbf a324 f6be
00000120: c5db 06bf 1221 b23f e921 04bf 031a cebe
00000130: 7f7b 18bf 1a8f 873f 3ef2 dcbe d221 04bf
00000140: 8fb4 2d3f 827b 18bf 7d7b 18bf b0ee fa3e
00000150: 817b 18bf 4f6c 003f f87e e5be f5e8 0cbf
00000160: 556a dcbe a45a e4be 817b 18bf 3300 e3be
00000170: 177f 03bf 4562 fd3e bd33 253f 827b 18bf
00000180: f5e8 0cbf fe29 073f 6f1f 04bf e821 04bf
00000190: 335f f1be ec40 d5be 9c18 04bf f3ce d7be
000001a0: e821 04bf 64de 643e 99f4 e5be 7f7b 18bf
000001b0: f5e8 0cbf 7f7b 18bf 0238 02bf 347e 213f
000001c0: 7f7b 18bf 807b 18bf 7573 02bf 827b 18bf
000001d0: 510e 103f f0f1 1abf f5e8 0cbf 807b 18bf
000001e0: 12cf d4be f5e8 0cbf fa54 07bf 096f eebe
000001f0: f24a 7f3e 0b1a 213f 10c9 043f 0299 e7be
1.0086352 -0.6863435 -0.5286247 0.67265403 0.72266185 -0.5504296 -0.46897006 -0.44735733
-0.5161259 -0.55042964 -0.5956345 0.974922 -0.44802615 -0.44141826 -0.5956344 -0.44041014
-0.19169995 -0.59563434 -0.5161423 -0.4504015 0.6362257 -0.550423 -0.59563446 -0.46903217
-0.5956344 0.6213156 -0.5956345 -0.5956345 -0.5956344 -0.43305936 0.5943344 -0.5956344
0.20293732 -0.44549382 -0.46316758 -0.5086673 -0.5956345 -0.8402753 -0.5504296 -0.5956345
-0.43783468 -0.5956346 -0.5504296 -0.5504296 -0.46008405 -0.5956345 -0.51613516 0.7806091
0.5899249 -0.5956346 0.7876163 -0.55042964 -0.43841615 -0.41473144 0.6104032 0.5717833
0.6668208 -0.5956346 -0.50866735 -0.32987547 -0.59563446 0.6250166 -0.5161312 -0.5956345
0.15659466 -0.59563434 -0.51592386 -0.6116086 -0.55042964 -0.5086671 -0.550429 -0.48074827
-0.5267909 1.3916342 -0.5161424 -0.4025422 -0.5956344 1.0590546 -0.43153566 -0.51614106
0.67853636 -0.5956346 -0.5956343 0.4901023 -0.5956345 0.50165266 -0.44823432 -0.55042964
-0.43049875 -0.44600403 -0.5956345 -0.4433609 -0.513658 0.49489036 0.6453207 -0.5956346
-0.55042964 0.5279845 -0.51610464 -0.51614237 -0.47142944 -0.41651094 -0.5160005 -0.42150077
-0.51614237 0.2235046 -0.44913176 -0.5956344 -0.55042964 -0.5956344 -0.5086671 0.63083196
-0.5956344 -0.59563446 -0.50957423 -0.5956346 0.56271845 -0.6052542 -0.55042964 -0.59563446
-0.41564232 -0.55042964 -0.5286404 -0.46569088 0.24930933 0.62930363 0.518693 -0.45233923

_layers.2.weight f4 [32, 128]
00000000: 9a76 01bf 18d9 acbe 975a cebe 12ef 47bf
00000010: b8fc 33bf e5c9 adbe 8af2 e8be e023 64be
00000020: b272 053b c89c b0be 5e13 c13e a866 d3be
00000030: e780 40bf 06cb 28be 52fc 373f 5031 14bf
00000040: 1293 c539 fd5e 163f 32a1 39bc 14c3 2cbf
00000050: e18e 08be eeb6 c5be 793a 1a3f dd9e 1cbe
00000060: a148 133f 4688 f3be 4143 383f cd95 6a3f
00000070: 183c 3b3f 5fbd 2abf dcaf 08bf 2716 e23e
00000080: d5d8 afbe a626 3bbf 36a7 1ebe efd2 3cbb
00000090: 27dd 3a3f 5941 c73d 34b7 3cbf c794 2f3f
000000a0: 9692 37bf 2ce3 293f 8631 10bf 01ec 0abf
000000b0: f98a 84be d3cd 9b3e 8cc4 69bb c1de cebe
000000c0: 40a5 44bf bdbd db3e 45d7 fcbe 3336 f7be
000000d0: 576b a0be b470 39bf 7508 41bf 567a 20bf
000000e0: 3890 ecbe b129 183f f72f 553c 35be 63be
000000f0: 9e07 9d3e 9037 d6be 8ab1 2b3a 7548 103f
00000100: 5406 293d 2f29 ca3e c1fc 8ebb c218 943b
00000110: 47a9 f9be 00e6 5eb8 473f 15bf 0f03 93be
00000120: 5a2c 32bc 9a40 d7be 39ba 1f3c 239f 96be
00000130: 1dfd 683f f4d8 18bf 65e0 2dbf 71a7 4b3b
00000140: ab6a 44bf c0bb 523f 8298 043f 8a57 02bf
00000150: 6c38 053f bca0 04bf 4b34 22bf 8628 e7be
00000160: 93da 8ebe 9551 62be 9aa3 d83e b890 25bf
00000170: b698 9fbb 86da b3be c236 48bf 74e3 223f
00000180: 8a7e a4be f21e 43bf e07f 803a 0aff 0ebf
00000190: b416 00bf 5ffe 43be 818a 4fbc 9a31 113c
000001a0: 2cb3 da3a b367 debe ded3 83be c54c 413f
000001b0: f950 ffbe ea2c 243f ee26 fabb 1b34 7fbf
000001c0: b8d9 4f3f 0b98 f43e fcfc 5cbc 91f5 fa3e
000001d0: d5e8 42bf a1d5 5b3f d6d4 c3be 4fe0 9d3e
000001e0: 9ffd afbe 3313 20bf cf81 303f afb6 debe
000001f0: 6180 e2be 841f 09bf bfb1 4ebf a215 17bf
00000200: 32fb a4be f166 a3be 47da 883a 6f8b 01bf
00000210: a1df e6be 4e31 58bc e63f 29bf f0d3 65bf
00000220: dafc 633c 0694 8a39 e782 44bf 5816 653e
00000230: 3c79 26bf 47c4 cfbe 9b27 d2be a368 55bf
00000240: 8cfa 20bb 4e14 29bf 0ada a3ba dff7 51bf
00000250: 8089 d9be 864d 93bb 941e 5abf f618 febe
00000260: da2f 38bf 4fbc 0cbf 0488 3bbf 6b6d 2abf
00000270: 5294 67bf adb5 23bf d801 21bf d5bf f6be
00000280: 95d4 e03d 634d 5dbf 2eca b3be 98eb efbe
00000290: ed32 5abf 8a53 3abf 309a e939 4974 0ebf
000002a0: 4fb8 42bf c30b dfbe 7dba 2c3c 99a6 27bb
000002b0: d471 56bf 5a11 2fbf 314d 2ebc 256b 53bf
000002c0: 26a9 fdbe 20dd 1abf 21ec 94bf 0945 eab9
000002d0: bde5 52bf afc0 59bf 28cb 4dbf 58fa 57bf
000002e0: 8c4c f83c 9345 a7be 6e77 0cbf 7e26 d9be
000002f0: 9160 96be 8f6c ee3d d64d 613b f3aa 64bf
00000300: 9049 f6be 03f2 50bf f170 59bc 06f5 853b
00000310: b967 90b9 1117 d0b9 6078 fdb9 2c48 51bf
00000320: 1ca4 8f3b fecc e73d d5cb 9fbb f256 39bf
00000330: d5a3 a3be 8f8f 1c3f e4cf 96be e0db 39bc
00000340: c7ae fcbe d5f5 20bf 02fc 51bf 4a21 1dbf
00000350: f189 53bf cd0d fbbe b410 23bf f5fd 9f3b
00000360: 5511 0bbf fe6c 47bf 9b89 d0be 130b 30bf
00000370: a829 44bb 3733 a6bb 9bbb 0cbf 59a5 47bf
00000380: 14c9 52bc 86e4 f2be 38f5 14bc 24ae 3a3c
00000390: 3e7c 35bf ec9b 03bf 7362 0e3b 85cf aa39
000003a0: cfbc 1d3b 8397 cdbe a20f a8be 167c ebbe
000003b0: b471 023a 6f7c dbbe f966 f9be db18 05bf
000003c0: 5974 61bf a5ff 68bf 508a cd3e bab0 d6be
000003d0: 2bc7 03bf fb5f 58bf 9aa3 bb3b fd00 3abf
000003e0: 735b 01bf ba4e 83ba a232 ec3b 1dfa 2bbf
000003f0: 585d 023c 50fc fcbe 76bc f1be a539 8ebe
-0.50571597 -0.3375938 -0.4030349 -0.7809917 -0.70307493 -0.33943096 -0.45497543 -0.2227931
0.0020362553 -0.34494615 0.37710088 -0.41289258 -0.7519669 -0.16483697 0.71869385 -0.57887745
0.00037684344 0.5873869 -0.011329936 -0.67485166 -0.13335754 -0.38616127 0.6024547 -0.15294977
0.575327 -0.47564906 0.7197762 0.9163483 0.7313857 -0.6669521 -0.5339334 0.44157526
-0.34345117 -0.7310585 -0.15493473 -0.002881225 0.729937 0.09729261 -0.73717046 0.6858639
-0.7170805 0.6636226 -0.56325567 -0.54266363 -0.25887278 0.3043047 -0.003567013 -0.40404323
-0.7681465 0.42918196 -0.49382988 -0.48283538 -0.31331894 -0.72437596 -0.7540353 -0.6268667
-0.4620378 0.59438616 0.013011924 -0.22240527 0.30669874 -0.41839266 0.00065495877 0.5636056
0.0412658 0.39484546 -0.0043636267 0.004519553 -0.4876196 -5.314313e-05 -0.5829968 -0.2871327
-0.010874832 -0.42041475 0.009748989 -0.29418287 0.9101122 -0.59706044 -0.67920524 0.0031075145
-0.7672526 0.82317734 0.5179521 -0.50914824 0.5203922 -0.5180776 -0.6336104 -0.45148104
-0.27901134 -0.22101434 0.42312318 -0.6467395 -0.0048704995 -0.35127658 -0.78208554 0.63628316
-0.32127792 -0.76219094 0.0009803735 -0.5585791 -0.5003464 -0.19140004 -0.012667299 0.008861924
0.0016685477 -0.4343849 -0.2574758 0.75507766 -0.49866465 0.64131033 -0.0076340353 -0.9968888
0.8119159 0.4777225 -0.013488051 0.49015477 -0.76136523 0.85872847 -0.38248318 0.30835196
-0.34373185 -0.62529296 0.6894807 -0.43498752 -0.4423857 -0.53563714 -0.8073997 -0.59017384
-0.32222897 -0.31914476 0.0010441028 -0.50603384 -0.4509249 -0.013195349 -0.66113126 -0.89776516
0.013915265 0.00026431697 -0.7676224 0.22371805 -0.6502874 -0.40579435 -0.41045842 -0.8336279
-0.00245634 -0.6604661 -0.0012500894 -0.82018846 -0.42487717 -0.0044953255 -0.8520291 -0.4962842
-0.71948016 -0.54974836 -0.7325442 -0.6657321 -0.90460694 -0.6394909 -0.6289344 -0.4819323
0.10978047 -0.8644621 -0.35115188 -0.4685943 -0.85233957 -0.7278372 0.00044556102 -0.5564619
-0.7606248 -0.4356366 0.010542509 -0.0025581478 -0.8376744 -0.6838585 -0.010638521 -0.82585365
-0.49543113 -0.6049366 -1.1634561 -0.00044683393 -0.823818 -0.85059637 -0.80388117 -0.8436637
0.030309938 -0.32670268 -0.54869735 -0.4241218 -0.2937055 0.116418 0.003437867 -0.8932335
-0.48103 -0.8161928 -0.013271556 0.004088047 -0.000275431 -0.00039690037 -0.00048345607 -0.8175075
0.004383577 0.11318396 -0.0048765936 -0.72398293 -0.3196093 0.61156553 -0.29455483 -0.011343926
-0.49352095 -0.6287511 -0.8202516 -0.6137892 -0.82632357 -0.49033967 -0.6369736 0.004882569
-0.5432332 -0.77900684 -0.40729985 -0.687669 -0.0029932056 -0.0050720233 -0.54973763 -0.77986676
-0.012865324 -0.47439975 -0.009091668 0.011394057 -0.70892704 -0.5140979 0.002172616 0.0003257954
0.0024068838 -0.40154657 -0.32824427 -0.45993108 0.00049760495 -0.42868373 -0.48711374 -0.5199105
-0.8806816 -0.9101508 0.40144587 -0.41931707 -0.5147578 -0.84521455 0.00572629 -0.7265776
-0.50530165 -0.0010017969 0.0072081843 -0.6717852 0.007956825 -0.4941125 -0.47214097 -0.27778354

_layers.2.bias f4 [32]
00000000: d66a f3be e06b 19bf a9d0 e6be bf0c e7be
00000010: e9a0 18bf a50b 4ebf f112 dfbe 1fad 18bf
00000020: ee42 ecbe 51d1 f4be bed3 1dbf 6367 f7be
00000030: 9cfa f0be 5430 38bf bff0 0dbf add0 e9be
00000040: d37a 1abf bfdb f3be 75fb 18bf dfb9 eabe
00000050: 908b 1cbf 6a55 0ebf cf21 1dbf f15a e7be
00000060: b4e3 19bf 31ea edbe e8db ecbe 4d22 13bf
00000070: c19b e5be 8dc1 f0be 4f34 18bf eb4e eb3d
-0.47542447 -0.5993023 -0.4508107 -0.45126912 -0.5962053 -0.8048652 -0.4356914 -0.5963916
-0.46144813 -0.47815946 -0.6165122 -0.48321065 -0.470662 -0.7194874 -0.55445474 -0.4566702
-0.60343665 -0.4762859 -0.5975869 -0.45844933 -0.61150455 -0.5559908 -0.6137971 -0.4518657
-0.6011307 -0.46467736 -0.46261525 -0.57474214 -0.44845393 -0.47022668 -0.59454817 0.11489662

_layers.3.weight f4 [1, 32]
00000000: 3f2a 583c 9960 76bd 6143 ecbd 7af8 34be
00000010: d4d1 8dbd 4ef0 e83e 7763 83be 6b9c 183d
00000020: 47c6 36be f7d7 2bbd 010e 33bd 8ffa d33e
00000030: f3b1 2d3d a5a3 033f 27f5 213e f5b3 8cbe
00000040: 88e3 043c 3345 65be 90ac 3d3e b2b5 46be
00000050: f9c0 6f3e b504 853d 6aab 983e 9baf a2bd
00000060: caab 63bd 8674 bbbc 594a acbd 51a5 b73d
00000070: 27d6 f23c 6df3 923d 0d80 f53d c593 c2be
0.013193666 -0.060150716 -0.11536289 -0.17672911 -0.06924787 0.45495838 -0.25661823 0.037258547
-0.17849074 -0.041954007 -0.043714527 0.414021 0.042406034 0.51421577 0.15816174 -0.27481046
0.008110888 -0.22389679 0.18522859 -0.19405249 0.23413457 0.064950384 0.2981828 -0.0794365
-0.055583753 -0.022882711 -0.08412618 0.089670785 0.029643131 0.07175336 0.119873144 -0.38003364
