corai/tests/examples_of_tasks/example_hyper_param_sin_estim_models/model_337.pth (torch, 6863 bytes, 7 tensors)

_layers.0.weight f4 [16, 1]
00000000: 1668 5bc0 98d9 3dc0 00ef dcbf 7c17 25bf
00000010: 2416 59c0 0e61 5bc0 2045 f9bf f0f0 c03f
00000020: 553e 05c0 61e3 0340 1e58 fcbf 8080 2cc0
00000030: 9606 04c0 6ec0 52c0 567e 69c0 dc58 e9bf
-3.428228 -2.9664059 -1.7260437 -0.6448896 -3.3919764 -3.4277987 -1.947422 1.5073528
-2.0819294 2.060753 -1.9714391 -2.695343 -2.062902 -3.292995 -3.648336 -1.8230243

_layers.0.bias f4 [16]
00000000: 2a6c 72c0 286c 72c0 a918 01c0 f609 4bbf
00000010: 286c 72c0 286c 72c0 0760 08c0 9228 b33f
00000020: 1270 24c0 a9c3 fb3f 6af7 24c0 ea25 46c0
00000030: ff68 1dc0 296c 72c0 286c 72c0 e413 09c0
-3.7878518 -3.7878513 -2.0171301 -0.79312074 -3.7878513 -3.7878513 -2.130861 1.3996756
-2.5693402 1.9669086 -2.577601 -3.096064 -2.4595335 -3.7878516 -3.7878513 -2.141839

_layers.1.weight f4 [32, 16]
00000000: 45b1 54be 02e1 763e 39f7 cfbf 2d1f 83bf
00000010: 6c93 b03d 2c41 81bd 3736 1540 3453 7bbf
00000020: ab32 9ebf 05c3 e3bf 2085 59bf b3e6 883d
00000030: acf4 8abe c5c8 753e fabf 063e 10b6 0740
00000040: 314f 6a40 4c24 7340 9abf 63c0 27b2 63c0
00000050: 5b45 8640 ee14 8840 d7c3 cbbf ff17 61c0
00000060: aef2 c8bf de26 63c0 c346 d2bf 3835 41c0
00000070: ae7d f0bf d667 4d40 8eb5 8940 a4b7 13c0
00000080: aa4b 093e a49d cdbd bd0c 1f40 3130 dd3f
00000090: 1b06 38be a45d 2fbd 0099 53bb 1214 5f3f
000000a0: cad3 fa3f 8025 913f c349 1d40 8c1a b03d
000000b0: 87cd 0040 c8d6 773e 188f af3c 245e 85bc
000000c0: c0eb 11bb b8eb ff3d 5536 b5bf 1104 81bf
000000d0: 0da5 703e 0021 5f3d 7369 2640 8a4b aebf
000000e0: 0856 5540 b02e c8bf 0d3a 1640 2de0 6240
000000f0: 8055 5640 c9da 503e 4c4b 76be de9b 5840
00000100: bd7f 5ec0 e921 7bc0 4b98 75be fec7 0a3e
00000110: 067c 4fc0 9605 66c0 b525 65c0 4003 9dbc
00000120: 8737 54c0 0071 673c 2034 55c0 464b 7cbd
00000130: d23f 89c0 95f9 84c0 f079 72c0 84c5 5bc0
00000140: a91f 8b40 de11 7840 ab23 33c0 ccc3 5bc0
00000150: f26a 6440 3fcb 5d40 da3e f7bf f426 5ac0
00000160: 9c6f d9bf 19e3 59c0 a6fb 27c0 c3c8 29c0
00000170: 5b39 c7bf 4a49 6640 11bf 5240 85d3 d0bf
00000180: c041 dcbd 9c61 763e c43a 6ebe 7637 f53d
00000190: 5ad5 87bd f0cb 673e d8ed 18be cd36 3bbf
000001a0: 0165 003e 9622 a2be 244c f2bd 88df 733e
000001b0: dc0e fd3d 609f 083e c0b7 75be 0cd9 77be
000001c0: 65cc db3d 4011 17bd c9c7 63c0 7cbf 57c0
000001d0: 17f3 623e aa6a 563e d59d 2fc0 63ba 45c0
000001e0: 4ab6 63c0 e018 29c0 cea6 5fc0 375e 28c0
000001f0: 473b 28c0 8b57 77be 5b39 433e 1e3e 28c0
00000200: 5053 9cbc f0f4 653c 0d74 28c0 2821 60c0
00000210: fcaf 413e a322 2abe 023e 28c0 08ae 30c0
00000220: 8515 5dc0 0ae7 32c0 ed62 2ac0 d838 5ec0
00000230: 549b 2dc0 de83 993d a6ec 693e 04cf 28c0
00000240: 78ee 66c0 6209 64c0 c0a8 1c3e 5695 41be
00000250: 2e84 5ec0 56fd 60c0 c359 87c0 ddd4 4a3e
00000260: d13d 73c0 eea6 bbbd a8fb 8ac0 8a08 76be
00000270: 9b0c 4dc0 366a 6ec0 54da 83c0 5ef7 78c0
00000280: 9c2e 093d 210b 683e 60b0 3dc0 26d6 28c0
00000290: 820f 1fbe 450b 72be b429 0040 ea0a 2ec0
000002a0: f4e1 3b3f 6946 e8bf 6a07 d53d 32d9 2840
000002b0: 8b81 a53f c870 1e3d 1189 bcbd 059f e13f
000002c0: 005d 89c0 71da 73c0 e01a 633e 6253 703e
000002d0: 3af3 7fc0 8fc1 59c0 ecad 5ec0 5024 cf3d
000002e0: 5680 7dc0 0073 80bb ade8 62c0 f4c8 173d
000002f0: 26ae 4dc0 49a9 66c0 9526 53c0 a023 4fc0
00000300: 98df f23c 9453 f8bd 9c2e d7be 908f 0ebf
00000310: 7c10 71be dfbc 1cbe d119 6240 e845 4abf
00000320: 8a03 4640 2264 ddbf 5986 3940 00ef 2c40
00000330: 83f3 5a40 dd9c 0b3e b215 373e c096 2f40
00000340: e868 76be 9c0c 4d3e 43d7 ecbf c77a 26c0
00000350: a1cd 71be e9a7 673e 2cbd 3f40 8300 29c0
00000360: 04b1 2b40 0498 23c0 0cd9 c03f 0245 2840
00000370: 1070 2c40 6ae8 f3bd 5278 ff3d 882a 3f40
00000380: d6cd 5ac0 cc32 5fc0 1476 6e3d 0b13 633e
00000390: 273a 6dc0 b884 77c0 6096 69c0 e964 b6bd
000003a0: ad03 6cc0 952d 6f3e be09 87c0 e0ac 313e
000003b0: 469c 80c0 062f 6ac0 0818 5fc0 ba67 81c0
000003c0: 79f5 743e f6d7 27be ad73 47bf 5748 d1bf
000003d0: 2be1 673e 5f87 58be a710 2440 736f bebf
000003e0: 35e0 4f40 ea6d f3bf 9428 4140 976b 3440
000003f0: 0586 5740 1ae6 bb3d de4a 55be 6f93 4640
-0.20770748 0.24109271 -1.6247321 -1.0243889 0.086218685 -0.06311259 2.331434 -0.9817383
-1.2359213 -1.779389 -0.8496876 0.066846274 -0.27139795 0.24002369 0.13159171 2.1204872
3.6610835 3.7990904 -3.5585694 -3.5577486 4.1959662 4.252555 -1.591914 -3.5170896
-1.569906 -3.5492473 -1.6427845 -3.0188732 -1.8788354 3.2094626 4.3034124 -2.3080835
0.1340777 -0.10039833 2.4851525 1.7280332 -0.17971079 -0.042813912 -0.003228724 0.8714
1.9595883 1.1339569 2.457627 0.085988134 2.0125444 0.24203026 0.021430537 -0.016280241
-0.0022265762 0.12496132 -1.4157206 -1.0079366 0.23500462 0.05447483 2.600186 -1.3616803
3.333376 -1.5639248 2.3472931 3.5449326 3.3489685 0.2039596 -0.24052161 3.3845134
-3.4765465 -3.9239447 -0.23983876 0.13552853 -3.2419448 -3.594091 -3.5804265 -0.019166589
-3.3158891 0.014126062 -3.3313065 -0.061595224 -4.2890406 -4.1554666 -3.7886925 -3.4339304
4.347615 3.8760905 -2.799052 -3.4338255 3.5690274 3.4655302 -1.9316056 -3.4086275
-1.6987185 -3.404486 -2.6247344 -2.6528785 -1.5564378 3.5982232 3.2929118 -1.6314551
-0.10754728 0.24060673 -0.23264605 0.11973469 -0.066324905 0.2263639 -0.1493448 -0.73130494
0.1253853 -0.31667012 -0.11830929 0.23815739 0.1235635 0.13342047 -0.23995876 -0.2420389
0.107323445 -0.036881685 -3.559069 -3.3710623 0.22163044 0.20939127 -2.7440083 -3.0895011
-3.558001 -2.6421432 -3.494556 -2.6307504 -2.628618 -0.24154489 0.19064848 -2.6287913
-0.019082695 0.014035448 -2.6320832 -3.5020237 0.18914789 -0.16614775 -2.6287847 -2.760622
-3.4544384 -2.7953515 -2.662288 -3.4722195 -2.7126055 0.07495855 0.2284418 -2.6376352
-3.608305 -3.5630727 0.15298748 -0.18904623 -3.4768176 -3.5154624 -4.2297072 0.19807763
-3.800648 -0.09162699 -4.3432198 -0.24026695 -3.2038944 -3.7252326 -4.1204014 -3.890098
0.033491716 0.22660495 -2.96389 -2.6380706 -0.1553326 -0.23637111 2.0025454 -2.7194161
0.7339165 -1.8146487 0.10401805 2.6382565 1.2930158 0.038681775 -0.09205831 1.7626654
-4.2926025 -3.8102076 0.22178221 0.23469308 -3.9992204 -3.4024389 -3.4793653 0.10114348
-3.960958 -0.003919959 -3.5454514 0.03705688 -3.2137542 -3.6040823 -3.2992299 -3.2365494
0.029647633 -0.12125316 -0.42027748 -0.5568781 -0.23541445 -0.15306424 3.5328257 -0.7901292
3.093966 -1.7296183 2.898825 2.7020874 3.4211128 0.13634057 0.1787937 2.743576
-0.24063456 0.20024341 -1.8503193 -2.6012437 -0.23613597 0.22622646 2.9959211 -2.6406562
2.6826792 -2.5561533 1.5066237 2.629212 2.6943398 -0.11909564 0.12474121 2.986971
-3.4188132 -3.4874754 0.058218077 0.22175233 -3.7066743 -3.8674755 -3.6498032 -0.08905966
-3.6877244 0.23357232 -4.219939 0.17351103 -4.0190763 -3.65912 -3.4858418 -4.043912
0.23921765 -0.16390976 -0.7791088 -1.6350201 0.22644489 -0.2114539 2.5635164 -1.4877762
3.2480595 -1.9017918 3.0181017 2.8190668 3.367555 0.09174748 -0.20829341 3.1027486

_layers.1.bias f4 [32]
00000000: 5688 b9bf c424 06c0 3375 7b3f ba97 bc3f
00000010: 296c 72c0 1023 06c0 7fd3 fdbe ea25 46c0
00000020: e925 46c0 286c 72c0 e930 e1bf 296c 72c0
00000030: 4889 f63d 83b9 02bf 286c 72c0 06a0 803e
00000040: b991 8dc0 2659 90c0 4021 06c0 e925 46c0
00000050: fd24 06c0 ea25 46c0 2a6c 72c0 296c 72c0
00000060: cf3d 0cc0 2125 06c0 e321 06c0 64cf aa3f
00000070: e11e 06c0 286c 72c0 4f1f 06c0 b91f 06c0
-1.4494731 -2.095994 0.98225707 1.4733803 -3.7878516 -2.09589 -0.4957542 -3.096064
-3.0960639 -3.7878513 -1.7593051 -3.7878516 0.12037903 -0.5106432 -3.7878513 0.25122088
-4.4240384 -4.5108824 -2.0957794 -3.0960639 -2.0960076 -3.096064 -3.7878518 -3.7878516
-2.1912725 -2.0960162 -2.0958183 1.334454 -2.0956347 -3.7878513 -2.095661 -2.0956862

_layers.2.weight f4 [16, 32]
00000000: 10dd dbbf e007 15c0 a99f 0e3f b438 59c0
00000010: e5fc 8340 219e 18c0 d7f4 d23e ee0c 36c0
00000020: e2bc 62c0 7c04 6040 25fd 2ac0 5c6b 7140
00000030: 333a 28c0 a072 58c0 9caa 7a40 80e2 29c0
00000040: 05dc 7140 1234 7e40 52d2 16c0 df92 29c0
00000050: fe83 fcbf ed84 30c0 10f0 6740 d0b5 5940
00000060: 4ae2 73be 9d8a 0ec0 d04c e8bf 54df 89bf
00000070: 1efa 21c0 e560 5e40 e5d3 dcbf a683 1ec0
00000080: 0485 06c0 4870 92c0 8eb9 e3bf 7f8e 4bc0
00000090: 2a9d 7840 8be5 e7bf b7b9 77be b531 2dc0
000000a0: f27d 63c0 0d77 7940 01b8 29c0 96b6 8340
000000b0: f9e9 38c0 2746 2ac0 30f0 7540 faa2 63c0
000000c0: d3d2 5f40 0f73 8a40 6fef 1ec0 a669 32c0
000000d0: 08b5 0ec0 d038 2bc0 0ad2 6c40 6d36 5e40
000000e0: fe16 6abe e201 1bc0 77d4 0cc0 ac97 6abe
000000f0: c1eb 06c0 014b 8840 8921 0cc0 f520 0fc0
00000100: 1eaf c5bf 7048 e7bf e97d 84bf f687 63c0
00000110: f681 5d40 02bf fabf f0be 56bd b681 57c0
00000120: e09e 43c0 e6a9 8640 ad87 57c0 97cf 8340
00000130: 868e 63c0 220f 64c0 6502 4d40 0e5c 62c0
00000140: b815 5540 9937 6f40 818c 08c0 56d8 63c0
00000150: ef54 13c0 6285 2bc0 0c7f 7c40 34c9 5a40
00000160: 0436 3e3e aa9d 06c0 1a0d 18c0 d402 42bf
00000170: b7be c3bf 55db 8140 b6d9 00c0 e6bc 24c0
00000180: c854 0040 6d76 19c0 4a81 d2be f052 61c0
00000190: bb71 7540 1e36 c6bf 2e62 0ebf ba40 28c0
000001a0: 8242 29c0 2b9a 8840 a00e 33c0 c012 7a40
000001b0: d28f 63c0 e8fc 5bc0 a6f3 5540 d42b 60c0
000001c0: 9ace 8140 a2e4 4d40 e530 23c0 408f 29c0
000001d0: e055 c5bf e0f6 5fc0 0617 7240 e0fb 6040
000001e0: 0a5c c9bd 4ac8 09c0 c43a 08c0 4a73 5cbf
000001f0: 38ea d7bf 79e6 5e40 f326 dabf cda3 1dc0
00000200: 52ef 94bf a81a 56c0 7606 3dbf 7893 60bf
00000210: 9013 55c0 c87d 86c0 e8ea 3bbf 4417 263d
00000220: 4408 d13d 7a8a 71c0 8052 0b40 90c0 5bc0
00000230: 4f8e c3be 44e6 0f40 2109 74c0 36b6 d5be
00000240: ab75 49bf 5c88 6ec0 10bc 5ec0 4771 a93d
00000250: f16b 83c0 22ed 9abd e6ab 88c0 0d40 7bc0
00000260: 5dd8 00c0 16b7 72c0 477a 5fc0 5adc 753f
00000270: 131c 89c0 d9b4 7cc0 f65a 69c0 1a18 6dc0
00000280: 4b40 86bf 64f2 6fc0 b30a 0cc0 bc4e c2bf
00000290: 869a 6ec0 158a 8ac0 5c31 02be 8fbe 5abe
000002a0: bd46 583e d54c 87c0 c47c 1fc0 a274 60c0
000002b0: fce4 b8bf 7c02 053f a0d1 62c0 2ab9 97bf
000002c0: ef3a a9bf a362 81c0 f9e6 83c0 de2c 693e
000002d0: a635 65c0 a05f cfbc aaf6 7cc0 e4df 8ac0
000002e0: ef8b 00c0 e568 7ac0 0ca3 84c0 3401 d0bd
000002f0: 868e 5dc0 0bce 88c0 c266 51c0 2620 7bc0
00000300: 9469 c1bf a029 67c0 2309 1ec0 a083 3ebf
00000310: 45db 6bc0 52c0 82c0 94ff c0bd d17e 683e
00000320: d8a0 133e 1e22 5fc0 4b4b 1e40 e1d0 70c0
00000330: 8631 22bf 5ec9 0140 7c49 67c0 b90e a6be
00000340: 47e4 f8bf 9519 57c0 b791 89c0 8c96 b93d
00000350: 30b9 85c0 cd24 6bbe 0e48 66c0 7d83 66c0
00000360: a6bb 1cc0 6c13 83c0 f60c 70c0 0f1f 113e
00000370: 5501 88c0 2adf 61c0 2f19 8bc0 8b51 75c0
00000380: b45f 693e 4008 6dc0 44a0 91be 0a71 ecbd
00000390: fe27 7dc0 9338 8ac0 d83d 87be 00df e13c
000003a0: eea8 65be 0fb8 54c0 5c03 81bd b068 74c0
000003b0: f760 403e 5f7c 47be ee85 7fc0 7c9c febd
000003c0: f437 54c0 4818 71c0 c6ea 6ac0 5040 d1bc
000003d0: 6fe2 63c0 1096 823d 7468 89c0 c2e3 88c0
000003e0: 08b2 73be e4ca 75c0 5e31 8bc0 27e8 cfbd
000003f0: a567 8bc0 cfc5 71c0 2e1f 70c0 a0e1 8ac0
-1.7176838 -2.3286057 0.5571237 -3.394086 4.124621 -2.3846514 0.41202423 -2.8445392
-3.5427785 3.5002737 -2.6717007 3.7721777 -2.6285522 -3.3819962 3.9166632 -2.6544495
3.779054 3.9719281 -2.356587 -2.6495893 -1.9727781 -2.7581131 3.6240273 3.401722
-0.23816791 -2.2272103 -1.8148441 -1.0771279 -2.530891 3.474664 -1.7252165 -2.4767852
-2.1018686 -4.576206 -1.7791002 -3.1805723 3.8845925 -1.8116926 -0.24191938 -2.7061589
-3.554562 3.8978913 -2.6518557 4.1160383 -2.8892806 -2.6605318 3.842785 -3.5568223
3.4972427 4.3265452 -2.4833639 -2.7876983 -2.2297993 -2.6753426 3.7003198 3.472072
-0.22860333 -2.42199 -2.2004678 -0.2290942 -2.1081393 4.2591558 -2.1895468 -2.2363865
-1.5444067 -1.8068981 -1.0350925 -3.5551734 3.4610572 -1.9589541 -0.052428186 -3.367292
-3.056572 4.2082396 -3.367656 4.1190906 -3.555574 -3.5634236 3.2032712 -3.5368686
3.3294506 3.7377684 -2.1335757 -3.560079 -2.302059 -2.680016 3.9452543 3.4185305
0.18575293 -2.103373 -2.3757997 -0.75785565 -1.5292577 4.058024 -2.013288 -2.5740294
2.0051746 -2.3978531 -0.41114265 -3.520687 3.8350666 -1.5485265 -0.5561856 -2.6289506
-2.6446843 4.2688193 -2.7977676 3.9073944 -3.555653 -3.4373112 3.3429961 -3.502675
4.05647 3.2170796 -2.5498593 -2.6493683 -1.5416832 -3.499443 3.7826552 3.5153732
-0.09832008 -2.1528497 -2.1285868 -0.8611342 -1.6868353 3.482817 -1.7043136 -2.4631226
-1.1635535 -3.345377 -0.73837984 -0.8772502 -3.329319 -4.202854 -0.73405313 0.04054953
0.10206655 -3.774077 2.1769104 -3.433628 -0.3819451 2.2484293 -3.8130572 -0.41740578
-0.7869517 -3.7270727 -3.4802284 0.08273559 -4.1069264 -0.07564761 -4.2709837 -3.9257843
-2.0132058 -3.7924247 -3.4918382 0.96039355 -4.284677 -3.948538 -3.6461768 -3.704596
-1.0488371 -3.7491693 -2.188153 -1.5180278 -3.7281814 -4.3293557 -0.12714142 -0.21361755
0.21120735 -4.228129 -2.49199 -3.5071187 -1.444488 0.51956916 -3.5440445 -1.1853383
-1.322111 -4.0432906 -4.121945 0.22771022 -3.5813994 -0.025314152 -3.9525552 -4.3398304
-2.0085409 -3.9126523 -4.144903 -0.101564795 -3.461824 -4.2751517 -3.2718968 -3.9238372
-1.5110345 -3.6119156 -2.4693077 -0.74419594 -3.6852582 -4.0859766 -0.09423748 0.22704627
0.14416826 -3.4864573 2.4733455 -3.762749 -0.63356817 2.0279155 -3.6138601 -0.32433107
-1.9444665 -3.3609364 -4.2990375 0.09061918 -4.178856 -0.22963257 -3.5981479 -3.6017754
-2.4489532 -4.096121 -3.750791 0.14172004 -4.2501626 -3.5292459 -4.346824 -3.833102
0.22790414 -3.7036285 -0.28442585 -0.11544998 -3.955566 -4.319406 -0.2641437 0.027572155
-0.22427723 -3.323734 -0.06299469 -3.8188896 0.18786989 -0.19481038 -3.9925494 -0.12432191
-3.315915 -3.767107 -3.6705794 -0.025543362 -3.5606954 0.063762784 -4.2940006 -4.2778025
-0.23798382 -3.8405085 -4.3497763 -0.101517014 -4.356402 -3.7776983 -3.751903 -4.340042

_layers.2.bias f4 [16]
00000000: 7d25 06c0 1122 06c0 6e25 06c0 f615 06c0
00000010: e606 19c0 4e2c 49c0 25ff 25c0 6d30 83c0
00000020: 562c 06c0 c676 2cc0 789c 48c0 c7dd 89c0
00000030: 25db e33f e30b 06c0 883e 83c0 5988 4dc0
-2.096038 -2.0958292 -2.0960345 -2.0950904 -2.391046 -3.1433291 -2.5936978 -4.0996614
-2.096456 -2.6947494 -3.13455 -4.3083224 1.7801253 -2.0944755 -4.101383 -3.211447

_layers.3.weight f4 [1, 16]
00000000: 169a 01c0 3b1a cbbf 5a53 d9bf 9287 d8bf
00000010: b4e8 123e 1c82 26bf 922c 07be 18ce 2740
00000020: 73b5 c4bf 9789 cabe c5bb c5be 6a69 08bf
00000030: 0e00 80c0 1ffd a7bf eab9 2cc0 9d60 b9be
-2.0250297 -1.586738 -1.6978562 -1.6916373 0.14346582 -0.6504228 -0.13200596 2.621954
-1.5367874 -0.39558098 -0.3861982 -0.5328585 -4.0000067 -1.3124121 -2.6988473 -0.36206523
