corai/tests/examples_of_tasks/example_hyper_param_sin_estim_models/model_21.pth (torch, 2895 bytes, 7 tensors)

_layers.0.weight f4 [4, 1]
000000 09 b0 a3 3f 9e 9d 3d bf a4 62 8e 3f db 46 a6 3f
       1.2788097 -0.7406863 1.1123853 1.2990373

_layers.0.bias f4 [4]
000000 78 3a d5 bb 00 00 00 00 36 24 0d bd 63 6c 1d 3d
       -0.006507214 0.0 -0.03445836 0.038433444

_layers.1.weight f4 [8, 4]
000000 a3 ad 83 bf c3 a9 88 3b 2a e8 40 be d5 f0 1a bf
       -1.0287365 0.004170628 -0.18838564 -0.6052373
000010 8e de ef 3e 0e 7d e7 bd ea ef 7d 3f 17 2b 47 bf
       0.46849483 -0.11303149 0.99194205 -0.77800125
000020 6d 8f 12 3f 32 1b 75 bf 3e d8 10 bf ad 9d d7 3d
       0.572501 -0.9574462 -0.5657996 0.10528121
000030 6b 0d 78 3f 7b 26 13 3f 08 26 6e bf de 78 2c 3e
       0.96895474 0.5748059 -0.9302678 0.16842982
000040 2c e5 25 bf 24 08 0e 3d bb e2 6e bf 1b 0f 9c be
       -0.64802814 0.034675732 -0.93314713 -0.30480275
000050 67 94 48 3f 3f 20 84 bf c5 c1 92 bf fd b3 42 3e
       0.78351444 -1.0322341 -1.1465384 0.19013973
000060 8f 5a f7 3d 45 4a 38 be 9d 1f 7d 3f 05 1c 40 bf
       0.120778196 -0.17997082 0.98876363 -0.75042754
000070 8b 27 2b bf f6 33 55 bf df f8 3b be 8b c7 85 be
       -0.6685721 -0.8328241 -0.18356656 -0.26128802

_layers.1.bias f4 [8]
000000 00 00 00 00 6e ea 1c bd 04 bd b7 3b 70 08 0d 3d
       0.0 -0.038309507 0.005607249 0.034431875
000010 00 00 00 00 75 f4 ba bc 60 99 21 bd 00 00 00 00
       0.0 -0.022821644 -0.03945291 0.0

_layers.2.weight f4 [4, 8]
000000 d6 a4 2e 3f 48 e0 82 bd 9c 22 cc 3e d8 11 04 bf
       0.6822027 -0.063904345 0.39870155 -0.5158973
000010 60 51 68 3f 2e 3b 71 3f 05 f2 8b bf c2 d2 86 be
       0.9074917 0.94230926 -1.0933233 -0.2633267
000020 30 84 73 bf a6 6a ec 3e c2 9a 89 bf 94 05 1a bf
       -0.9512358 0.46175116 -1.0750353 -0.6016476
000030 ac 64 90 3f 29 6a 8c bf 72 20 55 3f d7 80 98 3d
       1.1280723 -1.0969898 0.8325263 0.07446449
000040 71 d9 64 3f d1 bb 0a bf 80 16 38 3f 06 8b b4 3d
       0.8939429 -0.54192835 0.7190933 0.08815579
000050 38 e6 88 3d 52 29 5c 3f 73 6e 88 bf 4d 98 66 bf
       0.06684536 0.8600055 -1.0658706 -0.9007614
000060 3d 5f 8b 3f 8e 2f 29 bf 18 35 4d bf db ef 22 bd
       1.088844 -0.6608819 -0.8015914 -0.039779525
000070 b2 be ab be a4 91 04 be f4 fa 3d bf af bd c3 3e
       -0.33543926 -0.12946182 -0.7421105 0.38230655

_layers.2.bias f4 [4]
000000 0c 6a d5 bc fe 22 1a bd 3d 64 3f bd 00 00 00 00
       -0.026051544 -0.037631027 -0.046726454 0.0

_layers.3.weight f4 [1, 4]
000000 23 5b cc bf 99 fe e7 3d 70 67 81 3f 67 91 9e 3e
       -1.5965313 0.113278575 1.0109692 0.30970308
